muller/test_trace.pt (torch, 27733 bytes, 7 tensors)

mass f8 [2]
000000 00 00 00 00 00 00 f0 3f 00 00 00 00 00 00 f0 3f
       1.0 1.0

weight f8 [32, 2]
000000 38 ae 82 f5 60 f9 e3 bf 83 d1 27 01 fc a1 e3 bf
       -0.6241917414785751 -0.6135234854287294
000010 34 2b 87 3a 20 e0 e0 bf cf 3b 66 c3 55 16 e4 bf
       -0.5273591178059633 -0.6277264419930989
000020 3c bf 3e f3 19 48 a5 3f 10 74 85 8e 73 7a 9c bf
       0.04156571478176693 -0.027810864995775175
000030 06 6d 95 b3 28 72 e4 3f d4 ba 1b d4 b5 89 e3 3f
       0.6389354236120262 0.6105603354206672
000040 4a e0 92 f9 88 fc e2 bf 53 17 77 cc db 98 e0 bf
       -0.5933270334708223 -0.5186594956837588
000050 32 d6 96 4d 58 dd de bf 0e 11 b2 22 10 33 c7 bf
       -0.4822598226267899 -0.18124581998939288
000060 21 e4 2f ed 5f 52 df 3f 13 76 0d 00 7a ed e0 3f
       0.48940275347519174 0.5289888382937441
000070 96 e6 46 1e b7 86 c5 bf f7 79 d7 ce 29 b6 c3 3f
       -0.16817368486754408 0.1539966831177961
000080 ac 7f e0 0b 73 a4 e2 bf 01 a6 83 ab 9a e3 d1 3f
       -0.5825743896457332 0.2795168566650262
000090 b2 2f ed 11 f2 fa c6 3f 31 20 6d 8d 16 fe b7 bf
       0.17953325152700256 -0.0937208266524301
0000a0 5c 38 42 5d c4 64 e3 bf 30 96 bd 11 1b e5 d0 3f
       -0.6060506650408217 0.2639835046050818
0000b0 84 49 78 34 7a ad d0 bf 1d 4b 13 9b 19 f8 d0 bf
       -0.26058821796427645 -0.2651428236396656
0000c0 35 1c d3 5e ec 5c e5 bf 49 ee 60 01 02 f6 e4 bf
       -0.6675931789440087 -0.655030253117226
0000d0 d6 c6 ef 6e 73 b4 e3 3f d8 ee 07 a3 a6 ce df bf
       0.6157776991587649 -0.49698797150607055
0000e0 89 e4 f6 2e d6 f5 d4 bf 91 6b d6 6d 61 90 e0 bf
       -0.32750467859620663 -0.5176245827927791
0000f0 54 e7 58 1d e6 24 d6 bf cd 55 1f dc 0b cf d7 bf
       -0.34600212922997753 -0.3720121049530832
000100 b6 c7 db 33 50 26 d9 bf 43 2f 72 a8 1e 31 d0 bf
       -0.39296345772083485 -0.2529980320912168
000110 3c fc ec 23 d6 59 c5 3f c8 4a 98 0e 27 0f c1 3f
       0.16680409197030766 0.13327491963044324
000120 af fc 00 d7 b4 e7 df 3f 07 eb 77 7e df 50 e5 bf
       0.4985172366759327 -0.6661221952520869
000130 f3 6e c3 86 51 f2 d0 bf 20 b6 16 53 fc c9 b9 bf
       -0.2647899452256148 -0.10073830631764524
000140 33 78 b2 c8 93 cd e3 3f 15 57 a8 08 bb 40 e1 bf
       0.6188448829523224 -0.5391516846745811
000150 e1 c8 ff 50 c5 73 bb bf 00 a5 b7 e2 c5 da d2 bf
       -0.10723527171629456 -0.2946028436695798
000160 a9 51 87 da e3 f0 e5 3f 06 f1 08 f5 71 95 df 3f
       0.6856555240761298 0.49349640778724824
000170 52 a2 94 00 2a 57 c4 bf 6f 17 2c 0d 0b f9 e1 bf
       -0.15891003635739992 -0.5616507775564353
000180 a6 9d 54 ce 60 cd cc 3f 3d e8 30 99 5c f1 be 3f
       0.22501764368756233 0.12087038745895114
000190 b5 ae 1f a5 4e 44 d3 3f 72 f4 d3 7a ff d2 a6 bf
       0.3010441410576548 -0.04457853674282654
0001a0 e0 a4 52 c4 77 38 e2 bf 95 55 1c ea da 9e c2 3f
       -0.56939304680159 0.1454728739851531
0001b0 e6 30 e4 6f 72 87 6e 3f 19 dc b7 0e 66 65 e6 3f
       0.003726695547021308 0.6998777663674246
0001c0 07 f3 86 ce 7b 84 d8 bf 73 50 a6 0e 4f 6d c6 bf
       -0.38308615845362265 -0.1752108403712814
0001d0 f3 0a 1c d5 3e 13 c6 3f a5 86 3a 51 88 e8 d3 bf
       0.17246232419719085 -0.31106765682680254
0001e0 3d 34 dc 86 21 f7 e5 bf a1 81 22 d2 ca d8 d3 3f
       -0.6864173540103661 0.3101069500062526
0001f0 f9 0b 51 0c ad 89 d6 bf 64 a2 6b bf 6a 52 c8 3f
       -0.3521530742911519 0.19001516672803398

bias f8 [32]
000000 46 1e 12 27 c1 10 cb bf af d5 d4 4e 2f 4d b6 bf
       -0.21144880683663042 -0.08711524653047918
000010 06 00 e7 ac 49 10 c5 3f c6 de 5c 7f 58 3b e2 3f
       0.16455956404206534 0.5697443473390755
000020 6f f1 58 d4 b7 e4 cf 3f 2f 98 01 8c 4d 40 e0 bf
       0.24916742199446726 -0.5078494772431038
000030 51 05 45 00 b9 f0 b4 3f 7b 19 3a 02 a7 18 e5 3f
       0.08179813629705747 0.65925932345344
000040 9a 4e d4 40 6b 94 d1 bf af e6 62 31 9b d8 e3 bf
       -0.27468377428997715 -0.6201911892487341
000050 59 15 31 5d f6 ad ca 3f 47 92 6d 4c 58 6a e6 bf
       0.20843390989663638 -0.70048155715319
000060 c1 df 8c 55 b3 10 b5 3f c3 89 8f 61 e8 52 c9 3f
       0.0822860797751437 0.197842643391665
000070 7a de 1c 86 11 8a e0 bf 67 f3 92 ea d5 cd d1 bf
       -0.5168540591611894 -0.27818820865268495
000080 57 5a 0c 5a d7 39 c9 3f 99 b9 95 8d 66 e5 8f 3f
       0.19707767388236405 0.015574265666796804
000090 29 b0 c3 1a cc cc cf 3f fe 20 c0 35 60 6a de bf
       0.24843741709571646 -0.475242664805151
0000a0 04 6d b1 3a 07 92 e1 3f 06 74 b2 87 ed ac e5 3f
       0.549075712809469 0.6773593569120073
0000b0 62 f8 97 48 2e 23 d8 bf 23 6a 66 63 fc 05 d4 3f
       -0.3771472653314786 0.3128653498367006
0000c0 13 cf 82 c7 f9 ef e5 bf 4f 68 6d d4 b2 6f e2 bf
       -0.6855439087580372 -0.5761350773784758
0000d0 17 17 11 c1 06 41 e3 3f cd d9 ec 91 71 b2 d4 3f
       0.6016877909503106 0.32339133501536993
0000e0 f1 45 91 f9 29 80 e2 bf d9 72 2b 13 31 2a 51 bf
       -0.5781450151791302 -0.0010476569411174612
0000f0 82 cd 8e 56 fc c9 e3 3f 62 e9 76 d5 2e 61 d2 bf
       0.6184064570028769 -0.28718157621519513

weight f8 [32, 32]
000000 c6 67 b5 6b 3b de 8e 3f 4f c3 2b f0 1f 42 a0 3f
       0.015072311615472855 0.03175449187063483
000010 53 59 d5 c4 78 58 c3 bf d5 f1 c3 e0 c9 88 c5 3f
       -0.15113744364743784 0.16823695635674932
000020 46 5b 26 eb ea a5 aa bf 60 39 ab a7 1c 5f aa bf
       -0.052047101216138134 -0.051506896464718066
000030 8c 7d f7 63 62 88 bc 3f db 3b 0a aa 14 40 98 3f
       0.11145605984301293 0.02368194854585313
000040 d7 65 e7 52 1a 09 b3 3f fe c5 74 cb c0 45 8a 3f
       0.07435764812489452 0.012828355988491854
000050 61 2d aa 4e a5 3d 7f bf 84 da 4b 54 25 55 aa bf
       -0.007627149325922873 -0.05143086103446584
000060 b1 68 75 ef 47 54 97 3f 01 5b 7b 02 60 76 a9 3f
       0.022782443991083926 0.04973125486656294
000070 4d 61 a7 4f 79 af a2 bf 47 e6 69 3c e1 23 be bf
       -0.036495009396903734 -0.11773498272841564
000080 15 26 2b a3 06 54 c6 bf cd 98 0d e3 6e 9a c4 bf
       -0.17443926779951427 -0.16096292578294538
000090 cb b4 02 c8 8d 73 bb bf 75 6b 79 3f 50 75 b5 3f
       -0.10723196156569086 0.0838213114706557
0000a0 aa 12 b9 db 77 62 c2 3f 06 4a b2 b1 9c 66 c2 bf
       0.14363001087817412 -0.14375647236427386
0000b0 b4 ae 0c 4c 18 7f c5 3f ff 0d 4a b2 1e 43 95 3f
       0.16794112885815127 0.020763854629434416
0000c0 3f 05 83 2a 59 4f a6 3f 36 13 b4 dc 51 e4 bc bf
       0.043574129523685994 -0.11285888326899571
0000d0 45 fc 45 cd 7a 6e b3 bf a2 81 ed 13 14 01 a2 bf
       -0.07590453635747092 -0.035164477760875515
0000e0 98 66 18 e2 ee e1 ba 3f 3d 9f da 34 ad 55 b2 3f
       0.10500996608643687 0.07161982097988769
0000f0 c5 95 2f 51 5a 56 b1 bf b1 2e 77 3d 6e 46 ba 3f
       -0.06772388917996526 0.1026371860563653
000100 c4 02 cc b4 ad 6e b6 bf e9 de 89 9a ee 82 c5 bf
       -0.08762632049548374 -0.16805822892978675
000110 cf 15 10 b6 8f 1b bf 3f fc ff d7 dc a8 68 c0 3f
       0.12151430315869692 0.12819395812402934
000120 b4 ca 2b e4 3c 11 42 bf d8 3e f5 f9 41 13 92 bf
       -0.0005513713188903453 -0.01765158737299441
000130 65 77 7e 46 da b0 c3 bf 4f 2d cd d6 c2 58 c2 3f
       -0.1538346142014532 0.1433337735019031
000140 42 1e 6d 35 6d 6a 86 bf 87 25 44 ad 3e e2 ba 3f
       -0.010945180123271506 0.10501472215778139
000150 fc af 12 53 37 08 b2 3f c2 b5 21 68 19 fd b8 bf
       0.0704378679099022 -0.09761198799397788
000160 96 0a cf 2b bf d1 c1 bf e4 53 27 5b dd bf ad 3f
       -0.13921346320247058 0.05810443628039488
000170 90 6f 75 22 2b e1 a5 bf ca c2 4c 1a 6a fa b9 bf
       -0.04273352428091848 -0.10147727148138155
000180 4d 8d 9f 38 c4 fd a7 bf 86 e2 21 5c 7e ef 85 3f
       -0.04685795966340809 0.010710704027802064
000190 9e 76 5c bf cc bf a1 bf 90 b2 78 52 41 5e 33 3f
       -0.03466644130660977 0.00029553503779559346
0001a0 0a d0 0b db bb c2 94 bf 19 0c a8 24 4a 4b b0 3f
       -0.020274100536838126 0.06364882845814214
0001b0 7c 24 0a 07 8f 73 c1 bf c4 e2 51 3d da c8 a8 3f
       -0.1363390716908589 0.0484073829511025
0001c0 2a 0c cd 6e d8 6d b7 3f 00 d4 a2 ca 95 55 9f bf
       0.09151985840894442 -0.030599918835566342
0001d0 4a 4f c9 24 58 ba a1 3f 9f 94 ff 69 a2 75 b3 3f
       0.034624819269679266 0.07601370895243285
0001e0 05 e7 8c 72 79 4e 91 3f 70 e2 9c c5 c3 29 bc 3f
       0.01690091859493405 0.11001227926761614
0001f0 07 8c ed f2 e9 51 ae 3f 80 6d 8e 21 48 fa a6 bf
       0.059218703178679326 -0.04487824830649867
000200 97 72 ed fe 5d 12 b8 bf 20 31 88 4f 89 90 c5 3f
       -0.09403026079002995 0.16847339995764177
000210 c2 fb 1a d3 4f 68 90 bf ce 38 89 50 15 6a b6 bf
       -0.016022917995311088 -0.08755620208941936
000220 e1 af 65 f8 e3 59 c3 3f 1a 27 71 fe a3 57 b3 3f
       0.1511807406308199 0.0755560394474312
000230 de 8b a6 df e2 10 c4 3f 62 4d 54 fa 20 87 c5 3f
       0.1567653266948516 0.1681863043128074
000240 ae 8f 0d c1 98 3d 63 bf 86 a4 89 97 8c 81 be bf
       -0.002348707530858327 -0.11916426372194353
000250 a9 46 1c f0 a5 e9 a8 3f 2c e0 5a e5 36 ff c5 3f
       0.0486575942615109 0.17185102652524742
000260 cb 7a 12 1e fc 68 b9 3f 83 98 3c d3 e4 15 c1 3f
       0.09925819143470986 0.13348064722339723
000270 ce e7 7a 49 df 1e af bf ae b2 1c 48 77 59 c1 bf
       -0.060782411308039394 -0.13554278393839553
000280 33 bd b4 36 d0 27 c4 bf 87 84 88 e8 e7 ba c5 bf
       -0.1574650065535735 -0.1697664151588791
000290 e5 43 4f b8 12 bc 96 bf ba a7 97 70 58 6f ac 3f
       -0.02220181703507142 0.055536998504819704
0002a0 bb 89 01 fb 1e 1f 7a 3f 84 85 d4 2c f2 ca a1 bf
       0.006377335565135696 -0.03475148007624809
0002b0 a7 aa 1d 9a d6 62 b7 3f 02 71 de fb 9c 9e bb 3f
       0.09135190260500768 0.10788899563926083
0002c0 9a 2e 83 6d a9 08 b4 bf cf cf c7 08 d9 3d ad 3f
       -0.07825716899531657 0.05711248619255082
0002d0 1a 1e 27 b1 2e 65 ac 3f 84 41 0e b6 28 f3 c4 bf
       0.055459460377786665 -0.1636706246322427
0002e0 6b d0 ca 6d 39 98 b5 3f 86 8d f0 07 a8 32 af bf
       0.08435400896525073 -0.060933352441021646
0002f0 b2 f0 40 90 9a 02 ad 3f 42 01 b7 a9 8c 59 77 bf
       0.05666049014004794 -0.0057006353994782395
000300 1c cf f4 ea 64 71 c3 bf 21 59 c8 f1 af 2f a3 3f
       -0.15189801666712632 0.03747320009658695
000310 e2 af 03 bf 70 63 b0 bf 9c e6 90 41 d7 23 be bf
       -0.06401734031140863 -0.11773438788159257
000320 8a 9c 92 4b 8c 90 b8 3f 9e 75 41 71 b5 76 b2 bf
       0.0959556278709092 -0.0721238519194771
000330 12 30 8f c9 41 9d b5 3f 1e d8 8a 38 1a c9 bd bf
       0.0844308011139108 -0.11634982948712078
000340 1d b9 38 e4 59 97 c0 3f d3 d7 c5 46 58 42 ae bf
       0.12961887019759724 -0.059099920882473754
000350 44 36 c7 39 76 90 c6 bf 92 63 fa d7 13 57 b6 bf
       -0.17628362485122484 -0.08726619742300404
000360 6a 86 88 dc 64 c3 c5 3f 19 e3 58 6e 25 a8 bf 3f
       0.17002545135715091 0.12365945762656984
000370 3f 54 8d aa 21 ae bd 3f 1c 9b f0 0f fd 8d c0 3f
       0.11593828595990006 0.12933314588846023
000380 e8 7d ed 7c 78 ab a5 bf d3 3b a5 31 2d 3a b0 bf
       -0.04232384228702896 -0.0633877035336206
000390 87 3f 8d 95 dc 0d bd 3f 51 40 fd 56 3a ec c5 bf
       0.11349276209989344 -0.17127160308382597
0003a0 55 bc f1 a8 74 5c b8 bf 24 a2 76 b5 1e aa b0 bf
       -0.09516076206794939 -0.06509582453021118
0003b0 44 84 ce 98 eb e8 84 3f 59 cf a2 f3 ac 1d c2 3f
       0.010209885216513233 0.14153062721527013
0003c0 89 bc f6 f1 23 57 98 bf 6a 7e c3 66 d0 bd bd 3f
       -0.023769914286898817 0.11617758282545201
0003d0 44 09 e4 e9 ec e6 97 bf f7 b6 da 97 47 93 bb bf
       -0.02334184815936992 -0.10771605927831361
0003e0 da e6 0e bb 7a a4 bb 3f 3e 25 92 88 66 90 c2 3f
       0.10797850672579604 0.14503175419330633
0003f0 89 e3 49 9f 20 06 be 3f 36 6a 54 8d fe 8e c3 bf
       0.11728099717028163 -0.1528013410650872
000400 e1 8b ca 5c 3a cd bf bf 31 4a e8 04 2c 8d b2 3f
       -0.12422528043184357 0.07246661300477154
000410 4a c5 73 1e d1 22 b3 3f fe 82 f6 e3 f7 5d c4 bf
       0.07475001328909517 -0.1591176856136584
000420 87 86 ec 41 7d 41 c3 3f b4 c1 e4 19 7d 2c 9f 3f
       0.1504360744375399 0.030443148332041495
000430 21 47 10 d9 a1 79 b7 3f e0 c0 43 2b 52 88 a4 bf
       0.09169971036342563 -0.04010254648335532
000440 d6 2d a0 74 88 ba 75 bf b9 1b c8 0f 90 3c b1 3f
       -0.0053048448844594445 0.06733036408705474
000450 05 8e e9 62 a3 15 bf 3f 35 7c 6c 12 eb 66 a1 3f
       0.12142392315723079 0.03398832893275775
000460 c7 3b 6f 0f e6 ff c4 bf 09 17 78 0b e3 5a bc 3f
       -0.16405940774572356 0.1107618239403473
000470 15 d7 98 f3 70 fa c3 3f b5 52 01 7d e9 6f b5 3f
       0.15608035940538714 0.08373889257320395
000480 b7 0c 94 48 4b 4f c3 bf 2a 43 97 ed 0e d1 a7 3f
       -0.15085736316550477 0.04651686334876211
000490 f0 66 b5 a4 8f 52 ac 3f 3e 0c e4 ff 4c 23 c2 bf
       0.055317391258268844 -0.1417022942988257
0004a0 4c 00 82 a2 e6 a5 ae 3f ac 3f ef 81 eb 81 bb bf
       0.05985947355020524 -0.10745117113333319
0004b0 5f a0 de d4 20 6b c2 3f 0a 82 54 f2 63 34 b4 3f
       0.1438942946817887 0.07892441431295807
0004c0 c8 0e a2 e6 cb e3 66 3f a0 e6 29 6f b4 9c c5 3f
       0.0027941687049536125 0.1688447516242393
0004d0 49 c8 f1 40 0a da c5 bf d3 b8 f8 7d ad 0a ae 3f
       -0.17071655436626745 0.058675214412106456
0004e0 85 1b 8e 4d 50 32 c0 bf bb 34 08 ef 5e 70 c3 bf
       -0.12653545176382522 -0.15186678573119203
0004f0 8e 9f ae 06 89 c9 c1 bf 4e 92 5c 22 63 c1 b0 bf
       -0.13896286798739904 -0.06545085514933044
000500 09 9f 59 74 88 5d b8 bf 80 69 5b f6 23 59 90 bf
       -0.09517720070436665 -0.0159650439371517
000510 80 48 8e b5 ce c3 29 bf 5c ae 3f f7 d9 31 c5 bf
       -0.00019657038026516319 -0.16558384487813071
000520 ba 37 e6 20 ad e6 7d 3f b0 1f 38 f7 ed 03 a5 3f
       0.007300068171742719 0.041045605114106265
000530 96 bc 3e f9 5b 62 c2 3f e5 45 c9 ec 1d 4f 93 3f
       0.143626686765377 0.01885649450043116
000540 ab 2e 2f 0a f4 ee c0 3f 5e b0 c6 40 ae 02 c3 bf
       0.13229227540283736 -0.1485193077363673
000550 96 8f 9c 3b 34 2f 4c 3f e0 dd 54 f5 5f 5a af 3f
       0.0008601193469286335 0.061236380288786085
000560 74 fd 42 46 dc 01 b9 bf e3 c3 53 e8 7b 8c b5 bf
       -0.09768463816998524 -0.08417486593295069
000570 37 9a b0 05 59 cd 94 3f 1d 2a 8d 72 bd 30 c2 bf
       0.02031458947399242 -0.1421124276478886
000580 43 4b 91 0d fe 9f b6 3f 39 9a a0 06 d6 9f ae bf
       0.08837879019965293 -0.05981320219898518
000590 d4 d7 89 a4 53 ca b9 bf ae d6 c4 19 54 80 c2 bf
       -0.10074351088573447 -0.14454127557990176
0005a0 9a c2 c4 52 02 d9 c1 3f ed d8 dc b8 df 4b c1 bf
       0.1394350914138343 -0.1351279881143407
0005b0 93 38 33 b6 57 c3 a9 3f 97 81 58 d4 60 5e b8 3f
       0.05031847094652266 0.09519009765836582
0005c0 99 53 34 03 b0 9d b3 3f d8 bb e8 16 b3 29 bb bf
       0.07662487104637562 -0.10610503491692158
0005d0 5c f8 76 c9 a9 6b ba bf 4c 3d 3f c4 d7 45 6f bf
       -0.10320531052181664 -0.0038174833480081657
0005e0 11 e2 d1 50 33 c8 b1 bf e5 b7 9a d8 7b 4e a1 3f
       -0.06946106646672258 0.033801908675158455
0005f0 80 6f d1 65 b6 57 95 3f 15 df 6c 1a c7 1d ab bf
       0.020842409100040538 -0.052961561179868756
000600 a4 fa 18 00 8f bd bf 3f b8 c4 36 d8 e7 c8 c4 bf
       0.12398618461973371 -0.1623811536533475
000610 66 a4 d8 0e dc f1 91 bf 3d d2 80 eb 09 2d 82 bf
       -0.017524183660644253 -0.008874967097747372
000620 e7 99 77 f7 4f 1d b2 3f 19 db 2c 22 13 b6 b0 3f
       0.07075977126769538 0.06527824005466377
000630 c8 44 a4 e9 2e a2 ba bf d9 87 2a 24 c5 f3 8c 3f
       -0.10403722004072613 0.014136829534724104
000640 fa 4a aa 37 2a 94 c3 3f 1e 9e 4e 2c 48 eb c5 bf
       0.15295913427379287 -0.17124273456032396
000650 15 7b dd c3 de f4 ad 3f 15 19 9d 28 78 ad bb 3f
       0.05850883618290063 0.10811568252129107
000660 c8 c9 2a 28 bf 37 c0 3f 69 bd ea f6 f8 92 b8 bf
       0.126701254475462 -0.09599262264486232
000670 83 2f 2e b0 df fd b7 bf 83 df 42 50 d5 40 85 bf
       -0.09371755648879625 -0.010377565872076172
000680 8b 62 e2 39 1e 66 c4 bf a6 ad 2b 2d 15 57 86 3f
       -0.1593663962019217 0.010908284607885243
000690 7b 49 a4 f3 57 96 a2 bf 0e d7 06 e7 2f ae 99 bf
       -0.036303280345367527 -0.02507853362631978
0006a0 16 e9 7a c4 f5 18 94 3f 3d 44 7a ff f4 c7 af 3f
       0.019626464955515642 0.062072426019888806
0006b0 40 47 b2 47 ee a8 c6 bf 13 01 36 1d d1 74 b1 3f
       -0.17703035832215086 0.06818873370321325
0006c0 e8 78 87 93 a2 92 c3 3f 69 e9 27 50 52 4b 7a 3f
       0.15291244700978912 0.006419488463956882
0006d0 1f ad fe cc d3 51 c3 bf e6 43 73 31 c1 c9 ac bf
       -0.15093467244637623 -0.0562267659057694
0006e0 72 99 c7 f3 21 0b 92 3f 3c 07 84 c3 fd 0c c3 3f
       0.017620592598086522 0.14883396193186538
0006f0 f5 0a e7 a9 2d bd a7 bf 95 c2 a1 49 f4 e0 77 bf
       -0.04636519145016919 -0.005829767464192633
000700 9b f6 e2 e1 91 e7 bd 3f 9b d2 e5 b0 25 34 63 3f
       0.11681472554024667 0.0023442016746975775
000710 cf 1d d7 17 34 75 c3 bf 0a eb e1 ce d0 f7 b2 bf
       -0.15201426662518577 -0.07409386683313471
000720 42 bc 10 fe 67 54 9c 3f 04 4e 72 63 d5 b3 b8 bf
       0.027665734178466524 -0.09649404218571794
000730 e1 4a 52 ef 2e d6 b1 bf d5 57 3b ca e9 3c ba 3f
       -0.06967442839440309 0.10249196231174491
000740 cc 16 57 d4 2f 58 af bf 1e d8 6f 0d 33 07 a8 bf
       -0.061219687147553964 -0.04692992724442056
000750 6f a7 2c 02 bd d1 c5 bf 56 2d 80 32 b5 de c2 bf
       -0.1704632053963979 -0.14742150274137583
000760 e0 5c 5d 07 9f 0d 67 bf 45 3d 9f 65 51 e7 b4 3f
       -0.002814112284720602 0.08165463191038665
000770 a2 0e 64 c2 94 a7 b8 bf dc b9 59 86 cc 82 9a bf
       -0.09630708452101058 -0.02588958330164269
000780 6f 89 b5 90 91 82 c6 3f 82 47 57 d0 f9 22 c3 bf
       0.17585963788867384 -0.14950487778565608
000790 50 6b 69 45 ff 18 c1 bf ec aa f2 b8 ac fb a5 bf
       -0.13357535256622066 -0.04293575055756613
0007a0 d0 25 75 cf 6f 15 bf 3f fb a4 e3 06 03 e1 ae 3f
       0.12142084898837102 0.06031045397851106
0007b0 d3 f4 47 c6 f7 65 b2 3f 1e e3 98 63 6c a6 8e 3f
       0.07186840620848338 0.014965864934411818
0007c0 14 69 fc 38 6b 81 bf bf 93 65 96 07 ee 58 b4 bf
       -0.12306852475413549 -0.07948196110955612
0007d0 55 42 43 df c7 86 ac 3f c2 59 39 ad 4d 4b b8 3f
       0.05571579552054532 0.09489903906919664
0007e0 d0 7e 2b c5 31 44 b9 bf 3b f3 09 30 40 ea b8 3f
       -0.0986968141910396 0.0973243825228111
0007f0 d5 e7 b8 45 5e 7f a0 bf 2a 5b 61 58 41 1f c3 bf
       -0.03222174264051573 -0.14939133468097882

bias f8 [32]
000000 ef 1b 39 57 ee d7 bd bf fc 31 5e e2 52 c4 be bf
       -0.11657609586210048 -0.12018316294251713
000010 69 39 80 c0 79 4b a6 3f 30 72 94 28 3d f5 c0 3f
       0.043544583080904094 0.13248409730376087
000020 5c 57 eb a0 9c 11 c3 3f 6f b7 3c ab 37 dc bd bf
       0.14897497041118413 -0.11664150171847408
000030 7c 76 7a b7 17 88 c0 bf aa 13 39 b1 7d 53 47 bf
       -0.12915321787743383 -0.0007118571979353079
000040 56 af 71 6c be e2 b3 bf 8f f2 13 e3 0f e3 c4 3f
       -0.07767858645973766 0.16317938411511476
000050 62 f2 0b 7b 8f 74 9c 3f ed 57 f3 b9 26 76 8c 3f
       0.027788392911121902 0.013897230672608141
000060 c1 44 9c 1b fe 7b c6 3f d0 73 ba a2 81 56 c4 3f
       0.17565895412602653 0.15888996549338552
000070 ee 6f 24 b8 04 1c af bf b4 36 73 ec db 77 c3 3f
       -0.0607606386931535 0.1520953087369229
000080 a9 10 c5 aa 2e 61 b3 bf f3 f7 5c 70 1b 8d c4 bf
       -0.07570163411316123 -0.16055624948961586
000090 3a 6a 0d 59 0b 21 b6 bf 5e 50 1a 64 9c 3d b5 bf
       -0.08644171642428314 -0.08297135776439421
0000a0 25 b7 22 ed c6 91 c3 3f c8 3f 27 cd 9b 3b af bf
       0.1528862626923281 -0.06100165252030326
0000b0 99 45 90 42 ba 85 a0 3f f6 b3 41 f6 46 fb a2 3f
       0.03227026045363885 0.03707334285795831
0000c0 a5 b8 6f 7f 2a 90 c1 3f 41 fd ff 01 26 ae 92 bf
       0.13721209738236442 -0.018242448684757
0000d0 32 f0 93 9a 95 74 c1 bf fe 20 19 3a d0 8a 5b bf
       -0.13637037322757944 -0.0016810449091214093
0000e0 b5 66 05 a5 3a e1 c6 3f 79 aa 56 a5 79 31 b8 bf
       0.17874844606085608 -0.09450493132195871
0000f0 79 b9 9e fd 5a 4b b3 3f db 08 04 8c c6 23 bc bf
       0.07536858264822922 -0.10992089193681258

weight f8 [1, 32]
000000 c2 5c 8b 9f bf c4 a0 bf 6c 7f 0e 9c bf bd c2 3f
       -0.03275107214511187 0.14641566390946126
000010 d0 96 a6 cd 11 79 c3 3f 5d 86 5f 7e ab 31 9c 3f
       0.1521322492746351 0.027533225620464886
000020 e1 af 48 dc eb 84 be 3f c0 d1 ac bf 1e 37 c6 bf
       0.11921571853662229 -0.17355713233122394
000030 a5 72 f9 a1 e9 02 92 3f ef fc 5a a5 64 63 c1 3f
       0.017589235793240694 0.13584573816294873
000040 ed 14 70 ff 38 db b5 bf cb dc 6c b1 ed 9d c2 3f
       -0.0853763221385468 0.14544459498731607
000050 de a2 87 2d 3b 44 b1 bf 03 59 da 83 39 44 b1 3f
       -0.06744737493103112 0.0674472758204026
000060 35 fa 03 22 34 26 b9 bf 9f bd e5 7a 55 1a bb bf
       -0.0982391913457626 -0.10587057352471739
000070 c5 22 13 d3 29 e5 b8 bf 66 1e eb 9d bf ef b3 bf
       -0.09724675563041803 -0.0778770218413399
000080 c8 2e e0 b1 9c 71 c2 bf 2f 7e 49 9f fb aa c0 3f
       -0.1440921658071288 0.13021798398675474
000090 af 38 b3 87 dc 42 91 bf 0f cb c1 49 52 41 90 bf
       -0.016856618673778353 -0.01587418151070624
0000a0 f6 cb 94 67 a5 e8 c3 3f 6c f7 0b 27 cd 77 c2 bf
       0.15553729589154813 -0.14428104788379004
0000b0 cc f8 20 80 c9 86 99 bf 9f 34 7f a0 e7 02 c1 3f
       -0.024928234525071244 0.13290114723932775
0000c0 be 95 9d 85 e7 af c1 bf f2 05 7a 7c 17 a0 c1 bf
       -0.13818067573735776 -0.13769811227761825
0000d0 4c 4e 07 39 b3 b6 99 3f 42 66 ef 27 e6 52 84 3f
       0.025111008029695278 0.009923742383693871
0000e0 68 4d fd de 18 3b b9 bf 6a a3 a2 8a 8d 03 be bf
       -0.09855800098494216 -0.11724171290064836
0000f0 d4 ff a8 83 93 4d a1 3f a9 f3 81 69 0d db bb 3f
       0.0337949846475564 0.10881122423047764

bias f8 [1]
000000 aa 89 e8 91 18 44 c3 3f
       0.15051562427931958
