chignolin/models/model_iter4_z.pt (torch, 77252 bytes, 5 tensors)

weight f4 [64, 210]
000000 d7 58 74 bd 10 17 e3 3d 11 ef ae 3c ec 6d 6c 3c
       -0.059655037 0.11088383 0.02135423 0.014430504
000010 a0 2b d3 bc 9d a0 3b 3d ab 0c e5 bc 12 9f ad 3d
       -0.025777638 0.04580747 -0.027960142 0.08477606
000020 34 55 95 3d 92 3c f2 3d ee dd 4e bd c2 c7 5b 3d
       0.07291642 0.11827959 -0.050504617 0.0536573
000030 0c bd a3 3d 60 6c 9e 3d 71 91 c7 3d cc 3e d9 3d
       0.07995042 0.07735515 0.097445376 0.10607681
000040 d7 98 96 bc b7 ea fa 3c 2c 4b c5 3c 5e 62 29 3e
       -0.018383427 0.030629499 0.024083696 0.1654143
000050 99 7d 11 3d 02 00 02 be 39 54 8a bb c2 57 84 3d
       0.03552017 -0.12695315 -0.004221466 0.06462051
000060 ea a2 0d 3e 7b 17 ae 3c 7b 66 3a 3d 6d 1a b0 3d
       0.13831678 0.02125143 0.04550789 0.0859879
000070 e7 c2 a8 bd 41 e5 b5 3d 02 c7 c9 3d 93 64 e1 3d
       -0.082403 0.08881617 0.09852411 0.11005511
000080 80 2b 25 3d 06 95 43 3e bf d0 cd 3d ad 08 6b bd
       0.040324688 0.19099817 0.10049581 -0.05738132
000090 30 aa 89 bb 97 a0 92 bd 39 f9 22 be 87 ec 55 3d
       -0.004201196 -0.07159536 -0.15915383 0.052227523
0000a0 b6 76 3b 3d 7d 38 01 3e 2b 0d 38 3d dd d9 22 bd
       0.04576751 0.12619205 0.044934433 -0.039758552
0000b0 21 f8 3d bd 43 1e df 3d dc 4e 2b 3e 68 89 25 3e
       -0.046379212 0.10894444 0.16729301 0.16165698
0000c0 fc e4 c5 3d e7 a7 36 bd b7 c8 ca 3d f6 19 fa 3b
       0.09662816 -0.044593718 0.099015646 0.0076324893
0000d0 3c bc 0b 3e b1 34 80 3d b4 27 48 3d fa 50 97 bc
       0.13646024 0.0626005 0.04886599 -0.01847123
0000e0 f9 44 b4 bc bf 4d 4b 3d b8 85 8b 3d 45 46 31 bd
       -0.022005545 0.04963469 0.06812614 -0.043279905
0000f0 0b 97 58 3d d3 b3 43 3d 52 0c 4f 3d 59 87 06 bd
       0.05287842 0.047778916 0.05054886 -0.03284392
000100 86 23 f6 bb e6 f2 b1 3d d1 2e 11 3c ae d9 8e 3d
       -0.007511559 0.08688907 0.00886126 0.06975113
000110 b1 21 c3 3d 9a e0 e1 3d c9 9f b6 3d 70 6e 3e 3d
       0.095279105 0.110291675 0.08917195 0.04649204
000120 f5 2a f5 bd 4e 78 3a bd 06 8f e9 3c 9f 8c fa bb
       -0.11971084 -0.045524888 0.028510582 -0.007646158
000130 1d be d6 3d 11 02 3d 3c d2 33 31 3c 82 ad b0 3d
       0.1048548 0.011536137 0.010815578 0.08626844
000140 cf 90 50 bb df cf e9 bc 67 46 ae bd 4a 94 55 3d
       -0.0031824594 -0.028541503 -0.08509522 0.052143373
000150 ab 23 e8 bd db 24 19 3e ed f2 ea 3c f8 75 aa bc
       -0.11334928 0.14955465 0.02868029 -0.020808205
000160 80 7b 79 bc 8b 05 90 bc af 4a 83 3d 89 b2 d6 bd
       -0.015227199 -0.017580768 0.06410729 -0.10483272
000170 8a 16 e8 3c 19 27 81 bd 9c 75 d1 bd 75 67 87 bd
       0.02833106 -0.063062854 -0.1022751 -0.0661153
000180 30 b3 ca 3c 61 59 7d bd 67 01 2b 3d 5d 4e f8 bd
       0.024743646 -0.061852816 0.041749384 -0.121243216
000190 6b 37 4f bd ca 98 1e 3d 04 40 5b 3d b7 cf b4 bd
       -0.05058996 0.03871993 0.053527847 -0.08828681
0001a0 6a 46 ae bd 58 4d a7 bd d1 14 02 bd cf 4b cf bd
       -0.08509524 -0.08169049 -0.031758133 -0.10121881
0001b0 78 04 97 bc 1c 6a 13 be 1b 0a ff 3c 1c 06 5f 3d
       -0.018434748 -0.14395946 0.031132748 0.054449186
0001c0 2b 6e f6 3c 99 80 07 3d 07 a4 d7 3c cd 94 aa 3d
       0.030081829 0.033081625 0.026323332 0.08329163
0001d0 1a 8b 4f 3d a2 c5 c8 3d 40 42 fb bc a5 26 6b bc
       0.050669767 0.098033205 -0.030671239 -0.014352475
0001e0 1b c8 b5 3c 82 87 bd bb bc 35 a0 3c 53 f8 8a bd
       0.022190144 -0.005783976 0.019556873 -0.06785645
0001f0 5d a8 d9 bc c7 f6 26 bc 9d f6 58 bc 38 24 89 3d
       -0.02656954 -0.010190672 -0.013242391 0.06696361
000200 d9 1b c1 bd bd f0 a3 bd a9 ad 3d 3d f0 2f 11 3d
       -0.0942914 -0.080049016 0.046308193 0.035446107
000210 1d 3e f7 3c 9e 41 01 bd ff 3b 61 bd 4e 67 6a bd
       0.030180985 -0.031556718 -0.054988857 -0.057227425
000220 2f d6 14 bd e5 4e 23 3b 97 88 59 ba 01 08 74 bd
       -0.036337074 0.002491885 -0.00082982465 -0.059577946
000230 d8 fe e9 3c a7 1d 98 3d 18 02 c8 3b a2 90 d2 3c
       0.028563902 0.07427531 0.006103765 0.025703732
000240 98 d1 89 ba 2c f8 76 bd 4c 33 d2 3d fc cc d0 bd
       -0.0010514734 -0.06029527 0.1026369 -0.10195348
000250 14 43 02 bd c2 93 52 bc 45 fa 45 3c 55 ce 75 3c
       -0.031802252 -0.012852611 0.012083595 0.015002807
000260 58 ee 9d bb 9d 80 7b 3b 03 62 4f 3d 93 be 53 bd
       -0.0048196726 0.003837622 0.05063058 -0.051695418
000270 6b ee 91 3d 05 4c 93 bc aa 9a 9d bd 8d b7 ad bc
       0.07125553 -0.017980585 -0.076955155 -0.021205688
000280 8f fc 12 be f1 37 62 3e 73 af a6 bd a9 43 8f 3c
       -0.14354156 0.22091652 -0.08138933 0.017488318
000290 41 7d 7c 3d f5 57 76 bd 49 cf 72 3d 22 f6 8c bd
       0.06164289 -0.060142476 0.059279714 -0.068828836
0002a0 91 3a 40 bd 5a 98 8e 3b 92 03 8e bc b5 52 d6 b9
       -0.046930853 0.004351658 -0.017335687 -0.00040878882
0002b0 de a9 d7 bd 1d bb 27 bb 0a 6c 72 bc 87 e1 d9 bd
       -0.105304465 -0.0025593706 -0.014796266 -0.10638719
0002c0 61 98 7f 3c 14 2d 1c bb 9e 9c 2f bc ab b2 3e bd
       0.015600295 -0.002383058 -0.010718493 -0.04655711
0002d0 6e d7 6d 3d c1 47 7a bc bd 87 2f 3c 61 79 08 bd
       0.058066778 -0.0152758965 0.010713515 -0.03331888
0002e0 07 63 84 3c b5 cb a4 bd 66 46 38 3b 1c 6d 6b 3d
       0.016160501 -0.080466665 0.0028118133 0.0574771
0002f0 35 3d b4 3a d7 38 8f bd d1 ad 7b bd dc 84 31 bd
       0.0013751151 -0.06993263 -0.06144506 -0.043339595
000300 54 f5 13 bd b8 e8 d0 ba bb 91 24 bd 06 b8 81 bb
       -0.036122635 -0.0015938496 -0.040178042 -0.003958705
000310 94 64 30 3d f5 80 5f bc 6e a1 26 bc 58 72 f5 3a
       0.04306467 -0.013641586 -0.010170324 0.0018726094
000320 37 4e cb bd 86 de a3 3d 4a bd e1 3d 9d 7c 2f bb
       -0.09927028 0.08001427 0.11022432 -0.0026777156
000330 7e 4d 10 bc f2 fe 04 be b4 72 64 bd 16 8c 0a be
       -0.008807538 -0.12987879 -0.055773452 -0.13530001
000340 52 49 3e bd 33 9f 80 3c 33 61 ca bc 23 c1 2f bd
       -0.046456642 0.015700912 -0.024704551 -0.0429088
000350 95 e9 a5 bd d0 51 7e bd 87 02 a5 bd 9f 45 02 3d
       -0.08101193 -0.06208974 -0.08057123 0.031804677
000360 35 81 22 be f0 f4 8e bd bc ef 00 3e 1e 5e bb 3d
       -0.15869601 -0.06980312 0.12591451 0.09148811
000370 88 7a ac bd 45 11 2b 3c f4 1c f9 bd e9 90 b3 3d
       -0.084218085 0.010441129 -0.121637255 0.08767874
000380 dd d2 19 3d 69 8e d3 bc 93 a4 51 bb 0b f9 67 be
       0.03755461 -0.025824742 -0.0031988963 -0.22653596
000390 61 2b 63 3d a4 25 15 bd d8 10 b2 bb 5c a6 61 be
       0.05546129 -0.03641285 -0.005434137 -0.22036117
0003a0 bc 33 94 bd e1 67 7c bd b6 0d b0 bd 83 46 0c be
       -0.0723643 -0.061622504 -0.08596365 -0.13698773
0003b0 22 92 72 bd 45 96 0a be c4 e7 31 be 94 47 a8 bd
       -0.059221394 -0.13533886 -0.17373568 -0.082167774
0003c0 12 a3 21 be 3a b9 81 bd 5e 5e 09 be 46 9e 90 3e
       -0.15784863 -0.06334157 -0.13414904 0.28245753
0003d0 92 c6 66 3d 2d 16 5a 3d e4 ba ed bd 44 f7 2d 3d
       0.056341715 0.053243805 -0.11607912 0.04247214
0003e0 ad 38 65 be 93 c1 76 3d f2 c9 d4 bd 4e 94 3a 3d
       -0.22384901 0.0602432 -0.103900805 0.04555159
0003f0 af 51 07 bd 70 80 94 bd dd 0b 1c 3e 22 2d 8b be
       -0.033036884 -0.0725106 0.152389 -0.2718287

bias f4 [64]
000000 59 4c d5 bd 8e aa 8a be d5 31 a4 3d cc 40 e3 3d
       -0.10414953 -0.27083248 0.08017317 0.110963434
000010 01 50 4a 3b 8c d0 fe 3d 32 27 27 be 5f c3 95 3e
       0.003087044 0.12442121 -0.16323546 0.2925062
000020 f2 6d 9e 3d be 21 98 3c c8 0a f1 3c 94 8a 96 be
       0.07735814 0.018570777 0.029424086 -0.29402602
000030 c0 7c d1 bd f2 e6 3d 3e eb 34 87 bd 48 73 e8 bd
       -0.10228872 0.1854513 -0.0660189 -0.11350113
000040 25 e6 89 bd 5a ef 16 be 30 16 03 3d ac 87 bb 3d
       -0.0673335 -0.14739743 0.03200358 0.09156737
000050 68 47 88 3c ba 77 1c be 09 9d 0c bf 85 2f 83 3c
       0.016635612 -0.15280047 -0.54927117 0.01601387
000060 33 73 df bd 20 bd 6e 3d 2b d1 05 3d ca c2 2b 3b
       -0.109106444 0.058285832 0.03267018 0.0026208633
000070 43 1a 70 3d 93 6f 1b 3e b0 88 e4 3d 20 05 b0 bb
       0.058618795 0.15179281 0.111588836 -0.0053717047
000080 3b 9c 3d 3e 26 cf 58 3e ad ad 27 3e 4c c8 7a 3d
       0.18516628 0.21172771 0.16374846 0.061226174
000090 7f 54 62 bd a6 1a 8a be 46 dc 55 3d 21 5c fb 3e
       -0.055256363 -0.26973456 0.052212022 0.49093726
0000a0 b6 7e 5b bc 51 63 d2 bd d8 5e 9d bd 28 29 38 3d
       -0.013396909 -0.10272849 -0.07684106 0.044961125
0000b0 38 39 28 3e f0 92 10 bd 10 b2 76 3b ba 11 52 3e
       0.16428077 -0.03529638 0.0037642755 0.20514575
0000c0 da 0d 3c 3e e5 79 9b bd 01 a0 09 bd ec ff 41 be
       0.18364659 -0.07591609 -0.033599857 -0.18945283
0000d0 0b 0b 7c be eb 42 48 3c 90 1b 14 3c 5e 3a 61 3d
       -0.24613588 0.012222986 0.009039775 0.054987304
0000e0 c9 35 49 3d 1d 0c d7 bd 36 3e a3 3d 6f 75 a9 bc
       0.04912356 -0.10500357 0.0797085 -0.02068588
0000f0 fe 27 2e 3d 04 ef 85 bf c5 5d 33 3e f8 d1 43 3e
       0.04251861 -1.0463567 0.17516239 0.19123065

weight f4 [32, 64]
000000 a3 58 13 3e 43 3b 43 bc ac ea d3 bc 0f 2b 5d 3d
       0.14389281 -0.011915985 -0.025868736 0.053996142
000010 df 48 c6 3c 77 8d d7 bd d2 bf d8 bd 98 7d 75 be
       0.02420467 -0.10525029 -0.10583462 -0.23973691
000020 1e f6 67 bd 7a e5 6a bd 9e d2 97 3d b8 a8 e9 bd
       -0.0566312 -0.057347752 0.07413219 -0.11409134
000030 99 7a 8b 3d ff 2a 34 3e 0c 54 31 3e 04 bd df 3c
       0.06810493 0.17594527 0.17317218 0.02731181
000040 d4 cf 18 3d e4 ed 10 be 48 e0 41 bd 2b 92 90 bd
       0.037307575 -0.14153248 -0.047333032 -0.07059129
000050 fb a8 cd bd 83 d1 0a 3e 32 0d 8f 3d 43 22 30 be
       -0.10041996 0.13556485 0.06984939 -0.1720057
000060 5f 90 89 3d 8b fd 3b bd cb 26 ab 3d c8 b4 87 bc
       0.0671699 -0.045896094 0.083570085 -0.016565695
000070 24 28 8a 3b fc fc fe bc 11 fe f6 bd 90 d4 91 bd
       0.004216211 -0.031126492 -0.12060178 -0.07120621
000080 a3 dd 5d bc 8a e8 e2 bc 44 4b dd bd 21 cf 21 3e
       -0.013541612 -0.027698774 -0.108053714 0.1580167
000090 f9 4a d9 bd 9c ec 06 3c 82 72 1d 3e 48 b4 2a be
       -0.10610003 0.008235123 0.15375713 -0.16670334
0000a0 90 ab af bd 94 8a 24 3e 5d e1 41 3e 7e 14 c9 3d
       -0.08577645 0.16068488 0.18933626 0.09818362
0000b0 f0 5e 11 be 1e b1 6b 3d 57 d8 4d bd 4d 42 67 3d
       -0.14196372 0.05754196 -0.050255146 0.056459714
0000c0 25 8b 16 be a2 b3 a7 bd 4f e7 02 be dd 1c cf bd
       -0.14701517 -0.08188559 -0.1278355 -0.10112927
0000d0 1b b0 00 be 0c 16 0c 3d 97 99 01 3e de e2 7a 3d
       -0.12567179 0.034200713 0.12656246 0.061251514
0000e0 8a 08 3d bd 5f 7e 43 bb 78 5d be bd 9f 07 93 3d
       -0.04615072 -0.0029829962 -0.092951715 0.07179188
0000f0 ca 04 c9 bc c6 6e b9 3d b1 a5 21 bd 02 89 ab bd
       -0.024538416 0.090543315 -0.039464656 -0.083757415
000100 8a 19 35 bd 14 1c 14 3c cf 94 e6 bc d9 ff 41 3d
       -0.04421381 0.0090398975 -0.02814713 0.047363136
000110 8c 13 a8 bd 03 ff f9 3c c1 cf 61 3d 03 70 09 3e
       -0.08206853 0.030517107 0.05512977 0.13421635
000120 9f d5 2c 3e 60 44 34 be b2 b5 cb bd 2a 8f 0b 3e
       0.16878365 -0.17604208 -0.09946765 0.13628832
000130 00 06 91 3d 75 f0 93 be 51 76 c2 3b 42 02 aa 3d
       0.070812225 -0.28894392 0.0059345146 0.08301212
000140 07 c6 2d 3b 8f 49 90 bd 21 92 be bd ba 75 1f 3d
       0.0026515739 -0.0704528 -0.093052156 0.038930632
000150 2a 19 cf 3d e5 76 e3 bd a1 bd c6 bd 0a 47 3f 3c
       0.101122215 -0.11106662 -0.097041376 0.011674652
000160 ac bc 71 3d 22 19 06 3d 86 4b 5d be f9 55 ae 3d
       0.059017822 0.032738812 -0.21610841 0.08512492
000170 8c 9f 74 3c 6c 5d 79 3d 0a 41 0e bd 21 8e 78 bd
       0.014930617 0.06088011 -0.034729995 -0.06068242
000180 10 b3 12 3e a9 3f ec bc 38 de 98 bd 16 e8 04 bd
       0.1432612 -0.02883895 -0.0746426 -0.032447897
000190 5b d8 82 bd 51 a0 5e 3d 34 a8 9e bd cb 71 83 3b
       -0.06388923 0.05435211 -0.07746926 0.004011368
0001a0 cc a4 cf 3c 79 7d 9b 3d d6 af d8 bc 6e 59 07 3e
       0.025347136 0.075922914 -0.026451033 0.13217708
0001b0 dc 3e 82 3d 5f 5b 29 3d 6c 82 21 3d f7 b3 26 be
       0.06359646 0.041346904 0.03943102 -0.16279589
0001c0 9c b3 88 be 2b 2e 28 3e 4a 79 22 3e ce 58 03 3d
       -0.2669953 0.16423862 0.1586658 0.032067113
0001d0 42 81 49 3e 2d c2 23 3e 78 4d 15 3c 76 ea 9d 3c
       0.19678214 0.15992041 0.009112708 0.019276839
0001e0 ec 53 a0 3d 3c 3c 8f 3d 2e d5 f2 3d fb 99 35 3e
       0.07828507 0.06993911 0.11857067 0.1773452
0001f0 bf 1d 27 be 8f 3e ab bc 86 15 bf bc 94 28 04 3c
       -0.16319941 -0.020903854 -0.023325693 0.008066315
000200 b7 19 86 be 49 ea 82 bf 0d 9d 85 3e 91 33 8a 3d
       -0.26191494 -1.0227748 0.26096383 0.06748117
000210 b6 1e e7 3e 10 79 e2 3e 73 73 36 be 7d e7 40 3f
       0.45140618 0.44232988 -0.17817478 0.75353223
000220 d6 c6 1f bc fe b3 cf bd f3 be 43 be 07 6b e6 bf
       -0.009751996 -0.10141753 -0.1911581 -1.8001412
000230 e0 2d 36 3e 77 2a 30 3f 4b 88 c5 3c c3 78 ac bc
       0.17790937 0.68814796 0.024112841 -0.021053677
000240 da 33 68 be 74 40 61 3d 6c 18 34 be 48 b9 51 3e
       -0.2267603 0.054993108 -0.17587441 0.20480835
000250 7e 1e 43 bf 12 be c9 be 41 f0 8d bf f2 f1 89 3d
       -0.762184 -0.39402825 -1.1088945 0.067356005
000260 78 b3 92 be 90 88 41 bd 9c b5 fa be e2 22 04 3e
       -0.2865255 -0.047249377 -0.48966682 0.12903932
000270 7b 5f eb 3c af 37 35 3d af 0d 1c 3e b7 33 ba ba
       0.028732052 0.044242557 0.15239595 -0.0014206086
000280 6f 2b 9e 3e 7a 7d 40 3e 80 15 bd 3d a2 cd fe bd
       0.30892512 0.18797866 0.092326164 -0.12441565
000290 89 d0 11 bc ad 60 0a bf 84 34 4b bd 18 bd 57 bf
       -0.008899816 -0.54053766 -0.04961063 -0.8427291
0002a0 51 cb 54 be f7 f5 84 bf a8 39 07 bf 7b 81 07 bf
       -0.20780684 -1.0387563 -0.5282235 -0.52931947
0002b0 1b 39 49 3f e6 ad 47 3d ef 81 57 3d 53 f3 19 3f
       0.7860276 0.048749827 0.05261415 0.6013691
0002c0 f3 06 40 3f 47 92 22 3f 4e f6 e8 3d 49 16 9a 3c
       0.75010604 0.6350445 0.11375104 0.018809455
0002d0 91 06 21 bf 29 62 6c 3e 5f 6b 80 bf d5 21 85 3e
       -0.62900645 0.2308432 -1.0032767 0.26002374
0002e0 74 3d d7 3e d6 9c dd bd ae e4 26 3d fd 6a e0 3d
       0.42039073 -0.1082093 0.04074543 0.109579064
0002f0 45 ed 19 bf dc d6 c2 bf 8c d4 d4 bd 39 e2 81 3f
       -0.6012767 -1.522182 -0.103921026 1.0147163
000300 8b c2 2d 3c ee f8 bd 3d 41 6c ef 3d 47 15 b8 3d
       0.010605465 0.09275995 0.1169057 0.08988433
000310 4e 30 83 bd ee d8 cd 3d 83 d0 b0 3d f0 48 81 bc
       -0.06405698 0.10051142 0.086335205 -0.01578185
000320 8a 29 40 3e e5 d5 2c bc 85 c9 f3 bc da 59 39 3e
       0.18765846 -0.010549043 -0.029759178 0.18100682
000330 10 92 49 3d 9d 7b cc bd 24 89 36 be 02 85 b8 3d
       0.04921156 -0.09984515 -0.17825752 0.09009744
000340 ae de 7f bb 3f 30 aa 3d 47 6b 03 be 9b 65 8d 3d
       -0.003904264 0.083099835 -0.12833892 0.06904145
000350 fd 68 0b 3e ad 86 5c 3c 4b 74 d9 3d 06 f4 0a 3e
       0.13614269 0.013459844 0.10617884 0.1356965
000360 29 db 6c bd ec 94 c9 3d ae 98 72 be d8 22 31 3d
       -0.057826195 0.09842858 -0.23691055 0.04324612
000370 67 aa 9a 3d 46 9c 05 3e a4 6b 2f bc 5b aa e5 3a
       0.07552033 0.13047895 -0.010706816 0.0017522083
000380 88 57 8d 3d 9f e9 d7 3c 0e 2e 3d 3e 86 bd fd bd
       0.06901461 0.026356516 0.184746 -0.12389664
000390 c6 a0 c2 3d e0 51 40 be 70 b6 e2 bd d0 7b 02 3e
       0.09503321 -0.18781233 -0.110699534 0.12742543
0003a0 8f 07 d2 bd d1 f2 61 bd 4a e9 80 bc 2e 81 18 3e
       -0.10255348 -0.05516321 -0.01573624 0.14893028
0003b0 b6 fc ca bd 81 33 51 3d fa f9 71 3d 0e 35 9a bd
       -0.09911482 0.05107451 0.059076287 -0.07529651
0003c0 95 f7 33 bc 5b 11 8f 3d 66 19 9d 3d 45 9c e1 3d
       -0.010984321 0.06985732 0.0767086 0.11016134
0003d0 9d ca f4 3c f8 e7 a2 3c 13 41 08 be be 13 ae bc
       0.02988177 0.019886002 -0.13306074 -0.021249648
0003e0 cb 32 98 bd 7b 5e 91 bd 0a f8 dc bd b4 8e 7e bd
       -0.07431563 -0.07098099 -0.10789497 -0.06214781
0003f0 ee 4e 19 3d 87 90 10 3d ae 11 1c 3d c2 4a 75 3d
       0.03742879 0.035294082 0.0381028 0.059885748

bias f4 [32]
000000 d8 6d f0 bd f5 37 06 3e d4 1f 61 3e 40 8d d5 3d
       -0.11739701 0.13107283 0.21984798 0.10427332
000010 ab f2 02 be 8d 56 0d 3e 24 7b 2e 3e 13 d6 1e 3c
       -0.12787883 0.13802548 0.17039162 0.009694594
000020 9f 85 8e ba b7 5e 56 3c 22 03 20 3d a7 84 3a bc
       -0.0010873562 0.013084105 0.039065488 -0.011384166
000030 cc 0d e7 3c 5c 77 fb 3d 93 ee 98 bb c2 66 06 bd
       0.028204821 0.12278625 -0.004667112 -0.03281284
000040 44 c7 13 3d 17 fb 1d be 75 02 ce 3c a8 d3 cf bd
       0.036078706 -0.15427814 0.025147656 -0.10147792
000050 29 d3 e4 bc 1f 84 15 3e 9d fd cc bc 76 aa 15 be
       -0.02793272 0.14601181 -0.025023276 -0.14615807
000060 32 6b a3 bd 65 61 d4 3d 23 af 26 3d 64 58 a2 3b
       -0.0797943 0.10370139 0.040694367 0.0049543846
000070 7d 48 63 bd f4 22 9f 3d e2 93 7d 3d c9 9e 04 3e
       -0.055489052 0.07770339 0.06190861 0.12951197

weight f4 [1, 32]
000000 2d c8 74 3e 46 d5 76 be eb b2 7a bf 5d 88 c1 be
       0.23904486 -0.24104795 -0.9792926 -0.3779935
000010 bf 46 9e 3e 32 8f 96 be c6 aa 0c bf e9 3b ae be
       0.3091335 -0.29406124 -0.5494808 -0.34030083
000020 41 01 0e 3f 5b 52 04 bf 4b ab 02 bf 78 af af be
       0.55470663 -0.51688164 -0.5104262 -0.3431356
000030 92 de 63 3e 91 7e 2a bf fa b3 80 be 3d 65 b9 3e
       0.22252873 -0.66599375 -0.2513731 0.3621005
000040 ef 24 79 3e 22 b0 ae 3e 7e 6c 79 be bd e8 ba be
       0.24330495 0.34118754 -0.24357793 -0.3650569
000050 93 9a b1 be c4 fb 53 bf 6d bc aa be 20 63 b3 3e
       -0.34688243 -0.8280604 -0.33346882 0.35036564
000060 f6 55 9b 3e 0e 40 ab be 18 c9 ec be f0 1b 77 be
       0.3033902 -0.33447307 -0.46247172 -0.24131751
000070 05 2e 9d 3e fe e6 ae 3e fb df ac be 7a f6 af be
       0.30699173 0.34160608 -0.33764634 -0.34367734
