chignolin/models/model_iter2_z.pt (torch, 77252 bytes, 5 tensors)

weight f4 [64, 210]
00000000: da1c 1f3d f347 5e3d e0b6 843b 7cb3 143d
00000010: c9f3 373d 5313 1f3d c6f8 cb3c d284 463d
00000020: 8602 e13c d21d 0e3d c160 7a3d 8348 b9ba
00000030: cf71 753c 3796 9a3d f8c8 563d e844 e53c
00000040: bc37 af3d 26e6 b9b9 2ec0 f03c 65b2 a73c
00000050: 7d7b 763d 7c41 9a3c f1b0 c0ba 824b 233d
00000060: 5074 463d b812 2d3d 9a23 843c c47b 953c
00000070: e960 61bb 943d 873d 131b fd3c 68ae 603d
00000080: 7641 863d c191 513c 5fe4 213d e6db 933d
00000090: b582 893d 6f56 813d f8bd 753d 77be 003d
000000a0: d95d 163c 65ec 553c a127 c43c d86c c33c
000000b0: 6231 8d3d 0435 473b 89b4 a83b fecf fb3c
000000c0: 8c58 d33c 9eb9 cb3b 6d44 1e3c 0e2e 8b3d
000000d0: 6e4c 773c b8b9 5e3d 4a16 353d 88fd fb3c
000000e0: 890e 6c3d ac2c 573d d450 c13c 3d8c 2e3c
000000f0: 5d92 383c 5170 983c ecf7 213d 10c5 543d
00000100: a904 3b3c 4395 413d 5f8d 753b f00c 5d3c
00000110: bfad 293d 14ea 563d f1e6 0e3d 6353 66bb
00000120: 20ef f83c 7b42 b6bb a073 05bc f833 673d
00000130: e08d 883c bc93 af3c 4d30 1e3d a1e1 a73c
00000140: 8991 e73c 269b 8b3d dc03 483d 4c7e ce3a
00000150: 824d 383d d6b7 463d e352 ed3b b977 1b3d
00000160: 6982 2b3c 882e 213d 5e88 7c3d 1471 ac3c
00000170: 843c 713c 23b3 673d 7f59 38bb b711 d63c
00000180: 9775 20ba 87ce fe3c 41c0 0c3d f46d 083c
00000190: 1c68 2b3c 3563 6e3c 1ace 2d3d 89a6 8d3c
000001a0: 43bb de3c 2c6b 0e3d ce7a 863d 8e72 833c
000001b0: d40a 6f3d 0963 5b3b c99f 013d e08b 113a
000001c0: 91ed 2639 1d35 9f3b 4fc5 0f3d 6f9c fb3c
000001d0: d022 663c b637 c63c a7b2 ee3c 9468 673d
000001e0: a130 963d 751a c43c 3577 183c 1e75 443d
000001f0: 4299 4c3d b4b6 803c e2b7 8c3c 21fb 6a3d
00000200: 45de 703d 71c2 863d 1d0c 16bb f2af 883b
00000210: 26cd 5b3d 0e01 973a 92c1 803d 00f5 4a3d
00000220: cb0b 323d 909d 4d3c 19bd 393d 773a 5e3c
00000230: 07d5 f6b9 768f 1c3c 3b62 e53b 5bd9 3d3d
00000240: 8699 8e3d 74c2 473d 7776 913d 45a0 163d
00000250: 2641 793c f079 893b d726 653c c137 163d
00000260: 0279 db3b 8d68 663c bfab cd3c a596 653d
00000270: b462 cf3c b4d4 4e3d 83b5 ed3a 27fc 8d3d
00000280: 5c8f 9b3d f56a 313d 88c7 113d 23be 033d
00000290: d0be 283c 0462 fc3c 9073 173b 5afe fc3c
000002a0: 706f a63c d31a 103d c6f7 7b3c 2b8f 1c3b
000002b0: 5ec9 8e3d 6191 433d c431 333d 88c1 c43c
000002c0: 2472 aa3c e6cb 8c3d c833 7b3d b7c9 883c
000002d0: f470 7c3d c9c0 1e3d dc49 c33b e4ed 0b3d
000002e0: d1ff 073c 925a 543c d0d9 c03c 5f69 443d
000002f0: a0f0 8e39 aa7e cf3c b084 273d 8b9f cbba
00000300: a50f e63c 8aa0 6f3d f3d1 8a3c d791 a13b
00000310: 458d fb3c fcdb 4c3c 1f63 c73c 7827 623d
00000320: 72b5 cc3c 2b57 3c3c 7518 973d 9f1e 7b3d
00000330: 13da a43d c721 353d 77ba 1c3d 3d30 ba3c
00000340: 255a 983c a534 893c 0128 7bbe c87e 0a3e
00000350: f4b3 2bbd 3502 49bd d0ef 01be b2ef 07be
00000360: 8ff1 8c3e 1239 ca3d 1da8 3abd 49de 89bd
00000370: 6718 36bd 11be dbbd a486 833e b40f 733b
00000380: 79e0 fabd 0e24 e1bd 4f08 413e 0d09 023e
00000390: 2882 9bbc b4be 24bd f35f 00be a7c1 0e3e
000003a0: fca4 f63d 6b69 d1ba 8bba d9bd 1add 1e3e
000003b0: 0ad0 25ba 007f 89bc a9af 963d 7f89 ee3d
000003c0: 144c 17bd 20f5 b03c c39a e7bd 2f05 c0bc
000003d0: c77c 8bbc 0c40 933d 1e7a 523e 4681 343e
000003e0: 57f4 a4bb e26b 6e3d ad0c 21be e5f7 cc3d
000003f0: 8575 f7bd c8a7 3abc ad1a 9abd 7e0f ab3e
0.038845874 0.054267835 0.0040501207 0.036303982 0.044910226 0.03883679 0.024898898 0.04846651
0.027467024 0.034696408 0.061127428 -0.001413599 0.014980747 0.075481825 0.052437752 0.027986959
0.08555552 -0.00035457424 0.029388513 0.020470807 0.06017636 0.018830054 -0.001470117 0.03986693
0.048450768 0.04225418 0.016130257 0.018247493 -0.0034390038 0.06603542 0.030896699 0.054853827
0.065554544 0.012791098 0.039524432 0.07219677 0.067143835 0.06315314 0.05999562 0.03143164
0.009177648 0.013056849 0.023944678 0.023855612 0.06894185 0.003039659 0.0051484746 0.030738827
0.025799058 0.0062171957 0.009659869 0.067958936 0.015093906 0.054376334 0.04421071 0.030760542
0.05763105 0.052532837 0.023598112 0.010653553 0.0112653645 0.018608244 0.039543077 0.051945746
0.011414685 0.047261488 0.0037468297 0.013491854 0.041425463 0.052469328 0.03488821 -0.0035144917
0.030387461 -0.0055621243 -0.008145243 0.056446046 0.016669214 0.02143275 0.038620282 0.02049333
0.028267639 0.068167016 0.048831806 0.0015754192 0.044995792 0.048515163 0.007242547 0.037955973
0.010468104 0.039351016 0.061653487 0.021050014 0.014723901 0.056567322 -0.0028129516 0.026131494
-0.0006121038 0.03110434 0.034363035 0.008326996 0.010461833 0.01455002 0.042432882 0.017291324
0.027188903 0.034770176 0.06566392 0.016045835 0.058359936 0.0033475778 0.031646524 0.0005552154
0.00015919494 0.0048586265 0.035100278 0.030714242 0.014046386 0.024196487 0.029137922 0.056496218
0.07333494 0.023938397 0.009305765 0.047963254 0.049950846 0.01571212 0.017177526 0.0573684
0.058805723 0.065800555 -0.0022895404 0.004171365 0.05366244 0.00115207 0.062869206 0.049550056
0.043468278 0.012549773 0.045346353 0.013563744 -0.00047079494 0.009555688 0.0070002354 0.046349864
0.06962876 0.04876943 0.071026735 0.03677394 0.0152132865 0.0041954443 0.013986311 0.036674265
0.006697775 0.014063013 0.025106309 0.05605187 0.02531562 0.05049582 0.001813576 0.0693286
0.07595703 0.043314893 0.03559068 0.03216375 0.0102993995 0.030808456 0.0023109652 0.030883003
0.02031681 0.03518183 0.015378898 0.0023889046 0.069720015 0.047746066 0.043748632 0.024018064
0.02080638 0.06874828 0.06132868 0.016697748 0.061631158 0.038758073 0.0059597325 0.034162417
0.0083007375 0.012961047 0.023541361 0.047952052 0.0002726363 0.025328953 0.040898025 -0.0015535218
0.028083632 0.05850271 0.016945815 0.0049307155 0.030707011 0.01250362 0.024339257 0.05521342
0.024988864 0.011495392 0.07377712 0.0613085 0.08049407 0.044221666 0.038263764 0.02272808
0.018597672 0.016748736 -0.24526979 0.13524926 -0.041919664 -0.04907437 -0.12689137 -0.1327503
0.27528045 0.098741665 -0.04557048 -0.06731851 -0.044456866 -0.10729612 0.2568866 0.0037088217
-0.12249846 -0.10993205 0.18850826 0.12698765 -0.018982962 -0.04022093 -0.12536602 0.1394106
0.12043187 -0.0015976852 -0.106312834 0.15514031 -0.0006325251 -0.016784191 0.07357723 0.11647319
-0.036937788 0.02160126 -0.11308815 -0.023439972 -0.017027272 0.0718995 0.20554397 0.17627439
-0.0050340104 0.058208354 -0.15727492 0.1000822 -0.12082962 -0.011392541 -0.07524619 0.33410257

bias f4 [64]
00000000: 23ad 323d 6530 ed3c 036c 18bc 5796 f73d
00000010: 1594 93be a1af 09be b2b5 30be 80b5 d73d
00000020: 20e6 02be 740c 8f3e 1e9f 87bd feb8 ea3d
00000030: 3351 c73e d753 6c3e 51b5 133d ad0c ab3d
00000040: 4c19 b8bd 2981 b5be 2c56 09be 35f9 e3bd
00000050: e761 27be 6434 f3bc 5bf4 1d3e 9e4d 46be
00000060: 2d9d 3bbe 48ef f3bd 182e 2fbe 35e7 46bc
00000070: 7334 91bd 6244 843e 9112 82be ce3c 74be
00000080: c3c0 04bc fa3d 89be 0b60 46be 8636 4cbe
00000090: 5155 9d3d 3b2b c9bd 2e38 56be 8c74 013e
000000a0: b543 0f3e 2e38 1e3c c8c5 383e 3c4e cfbe
000000b0: 48ab 9abd d200 c9bd ed73 f6bd 75ab ca3d
000000c0: bee5 403e 9afe c83d 33a4 b5be bb5e 1ebe
000000d0: 52ba 24bf ffd1 87be e2e3 64bd 3066 1abd
000000e0: 3398 963d 5a4a 333e 2bfd b83d 1fb6 f2bb
000000f0: c99c b0bd 2a9e 333e 36cd 5f3d 5f7c 063e
0.043622147 0.02895374 -0.009303096 0.12089222 -0.28823915 -0.13445903 -0.17256811 0.10532665
-0.12783098 0.27939188 -0.06622146 0.11461066 0.38929138 0.23078857 0.03606159 0.08352027
-0.089892 -0.35450104 -0.13411778 -0.11131517 -0.1634594 -0.029688068 0.15425245 -0.19365546
-0.18321677 -0.11910874 -0.17107427 -0.012140085 -0.07090082 0.25833422 -0.2540479 -0.2385132
-0.008102599 -0.26805097 -0.19372575 -0.19942674 0.076822884 -0.09822699 -0.20919868 0.12642115
0.13990672 0.009656949 0.18044198 -0.40489376 -0.075522006 -0.098146096 -0.1203383 0.09895984
0.1883764 0.098141864 -0.35476837 -0.15465824 -0.643468 -0.26527402 -0.05588139 -0.03769511
0.073532484 0.17508832 0.09032663 -0.0074069644 -0.086236544 0.17540804 0.054639064 0.13133381

weight f4 [32, 64]
00000000: 8cd7 be3c e16e 27bc 53d0 9c3a 1d53 003e
00000010: adf6 4cbe d3a3 ae3d 2392 9fbc d1ec 823d
00000020: 6c1b d1bc 7a84 a33c 142a 9ebd a58e 163e
00000030: 3487 1ebd 678c 9f3c 53c8 b23c c294 f3bc
00000040: 9f62 4fbc 4a02 9ebc 0579 09be a78b 1fbe
00000050: 56ed c63b 16a5 8fbd cb2f b8bd c0bf 8c3d
00000060: 85ec a9bd d3bc 2bbe 8bf9 fcbd ba70 3c3e
00000070: fd84 3bbd 987d 433e 6b20 a8bd c69e 1ebe
00000080: 7845 183e 4e6d dbbd f025 13be 6b1e 11be
00000090: c37b f9bd 1a0e 39be af92 813d 8683 cb3d
000000a0: 8533 ca3d c565 febd 0a6f 033e 0824 143d
000000b0: 149b 35bc 4307 aabd 9257 00be 6e8c 3c3b
000000c0: c7a4 b73d a58b 25be bf99 6abd 9a63 063d
000000d0: 2645 16bd 3932 2dbe ab2c 38bd 84d1 1a3d
000000e0: 9219 bb3d 7552 e93a f2dc 1d3e a4f4 d4bc
000000f0: 2979 023d 6a7e c9bd f09d 6e3c c2a9 9c3d
00000100: 2970 1d3c 8fb7 313e 98bf 31bd 3e57 1bbd
00000110: 6444 23be 5973 7dbd 1767 98bd e48d a93d
00000120: 60d0 a13d f17a c73d 87fa 363c 6406 983e
00000130: 4a02 943e 4158 143e eea6 363d 6043 8a3c
00000140: 975d 7f3e 6bc9 babe fad7 f0bd a6b5 0b3d
00000150: 3b44 13be 198b 9fbd b8e8 5bbe b3f7 48be
00000160: 6d35 04be 4dbd 20bd 3ea4 15be fb7a 173e
00000170: 2481 9b3d 3206 da3e be0b 0cbe 1905 0bbe
00000180: b319 803d db45 37be 3f50 15bb e2d8 4dbe
00000190: 9192 ffbc 8197 b7bd 5a4d 283e aa89 1c3e
000001a0: f8ee 093e b1ec 77be 9345 183e 7e9e 4ebd
000001b0: f93f dc3b c18e bfbd 18b8 57be fe6c 803c
000001c0: a2f3 103e 915d bbbd a8bd b9bc 738b efbd
000001d0: 981c 48be 348b 7abe 1e02 abbd 3f4c 5cbd
000001e0: 353c cf3d a782 323e 9865 403e e91e 0fbe
000001f0: 9223 fdbd 54c5 1ebe a3e3 e0bd 2c1a 223e
00000200: 8dc1 4b3b cb65 03be a1f0 0ebe f783 093d
00000210: f529 4fbd 47a5 083e bbad debc 1181 f73d
00000220: a550 b5bd ff1e 0dbe e5ef 83bd ed05 2a3d
00000230: bfee 86bc 8ff4 46be a7e5 f4bd 54f0 eb3d
00000240: 8435 8b3d 8436 ba3d 4008 acbd 4b6d f5bc
00000250: f9fe 873d a493 483d 86fc aebd 73ae 28be
00000260: 2211 ce3d ab57 f13d 583c 4abc 4484 b5bd
00000270: cb64 f6bd 7bdd 913d aa02 7a3b 9c42 363e
00000280: fc81 403d 1122 f73d d0b6 0f3d e22c 0a3e
00000290: 4be4 38bd fc6c 5b3e e8cd 6a3d a271 fabc
000002a0: 43e4 cebd 8c3f 7e3c 49dc cc3d 1359 55bc
000002b0: a416 253e 4c5e eebd 1fcf 5f3d 8b76 bbbd
000002c0: f526 103a b66c 443d 596b 82bd cf47 1ebd
000002d0: 4ed7 65bc 675b 7c3d b003 b3bc 5041 0a3e
000002e0: cd51 0abd db82 0fbe f4b0 19be f5d3 26bd
000002f0: 7c28 273e e2dd b43d c177 d3bd a2f1 d53b
00000300: ec4b 033d 13a2 3ebe 0fe2 6e3d 9038 b43d
00000310: 3505 673e 54e5 b9bd a992 35bc 025a 843d
00000320: 8fa2 ca3b da4a 293e 7b78 d23c 760e bebd
00000330: 1ea7 babb 8ef1 6d3d 9ada cd3d 4309 543e
00000340: e4bb f13d 6d91 ddbd cfe8 08be 6496 84bd
00000350: fa63 123d 0a65 ac3c 927c 2a3d f701 ecbd
00000360: 9f2c bfbd 1e1f d03c e8a1 d2bc 0c19 d5bd
00000370: 7f9f d7bd 8eb7 f8bd a076 ee3d 152f 993d
00000380: 71f6 a4bd ddec de3c 9b9b 39bc 19b2 c03d
00000390: c90a b33c 73f3 87bd 6e0a a0bd 9f0f cc3d
000003a0: 3be0 763d 3f69 603d fde1 ed3c 9728 92bd
000003b0: 22e8 95bd d372 e63d c843 603d 795e bbbd
000003c0: 5af6 a7bd bc4d 8ebd 66d1 3ebd 6d99 ba3d
000003d0: be29 51bd 0c4b 5e3e b614 98bd a0d1 713d
000003e0: 7ae4 203d 8343 3bbd 9b80 96bd 16e0 953d
000003f0: f6cd 77bd c926 3a3d 7c7a b33d 8e12 86ba
0.02329614 -0.010219307 0.0011963941 0.12531705 -0.20015974 0.08527341 -0.019478863 0.063928254
-0.025525771 0.01996063 -0.077228695 0.14702852 -0.03870316 0.019476129 0.021824038 -0.02973402
-0.01265779 -0.0192882 -0.13425072 -0.15580617 0.006070773 -0.070139095 -0.08993491 0.06872511
-0.08297066 -0.1677125 -0.12352284 0.18402377 -0.045781124 0.19090879 -0.08209308 -0.15490255
0.1487025 -0.107142076 -0.14369941 -0.1417176 -0.12181809 -0.18071786 0.06326806 0.099371955
0.09873108 -0.12421755 0.12835327 0.036167175 -0.011084337 -0.08302166 -0.12533405 0.0028770226
0.08966976 -0.16166551 -0.05727553 0.03280983 -0.03668704 -0.1691369 -0.044964474 0.037797466
0.091357365 0.0017801063 0.15416315 -0.02599556 0.03185383 -0.09838565 0.014564022 0.07649566
0.009609261 0.17355178 -0.04339561 -0.037924998 -0.15944058 -0.061877582 -0.07441538 0.082790166
0.079010725 0.09740246 0.011168129 0.29692376 0.28907996 0.14486791 0.04459279 0.01687783
0.24938045 -0.36481795 -0.11759944 0.03410878 -0.14381497 -0.07790203 -0.21475494 -0.1962574
-0.12911005 -0.03924303 -0.14613435 0.14793007 0.07592991 0.42582852 -0.13676354 -0.13576163
0.06254902 -0.17897741 -0.0022783426 -0.20102265 -0.031197818 -0.08964444 0.16435757 0.1528689
0.13470066 -0.24211384 0.1487029 -0.05044412 0.0067214933 -0.093534 -0.2106632 0.015676972
0.14155439 -0.09148706 -0.022673443 -0.1169652 -0.19542158 -0.24467164 -0.08350013 -0.05378365
0.101189055 0.17432652 0.18788755 -0.13976635 -0.123603 -0.15504962 -0.10980918 0.15830296
0.0031090707 -0.128318 -0.1395898 0.033573117 -0.050577123 0.13344298 -0.02718245 0.12085164
-0.08853272 -0.13781355 -0.064422406 0.041509558 -0.016471265 -0.19429229 -0.11957865 0.11520448
0.06797317 0.09092429 -0.08400011 -0.029959342 0.06640429 0.048968926 -0.08544259 -0.16472797
0.100618616 0.117842995 -0.012343489 -0.08863118 -0.120309435 0.07122322 0.003814856 0.17798847
0.046998963 0.120670445 0.035086453 0.13493684 -0.045139592 0.21428293 0.057325274 -0.030571762
-0.10102131 0.01551808 0.100029536 -0.013021725 0.16121918 -0.116390795 0.054640885 -0.0915347
0.0005498969 0.047955237 -0.06368131 -0.0386427 -0.014028383 0.061610606 -0.021852344 0.13501477
-0.033769418 -0.14014761 -0.15008909 -0.04072948 0.16324037 0.08831383 -0.103255756 0.006529049
0.032054827 -0.18616514 0.058321055 0.08799851 0.2256058 -0.09076944 -0.01108233 0.0646248
0.0061839293 0.1653246 0.025692215 -0.09280102 -0.0056961915 0.058091693 0.100514606 0.20706658
0.118034154 -0.108187534 -0.1337006 -0.06473997 0.035739876 0.021044273 0.041622706 -0.11523812
-0.09334683 0.025405463 -0.025711969 -0.10405168 -0.10528468 -0.12144385 0.1164372 0.07479683
-0.080548175 0.027212555 -0.011328603 0.094089694 0.021855729 -0.06638231 -0.07814489 0.09963917
0.060272437 0.05478787 0.029038424 -0.07136648 -0.073196664 0.1125237 0.05475214 -0.091488786
-0.08201285 -0.069484204 -0.046586417 0.09111295 -0.0510652 0.21708316 -0.07425825 0.059037805
0.039280392 -0.04571868 -0.07348748 0.073181316 -0.060499154 0.045447145 0.087635964 -0.0010228918

bias f4 [32]
00000000: 92bf 423d 9f7b 073e a2a6 1dbe 39e5 c8bd
00000010: d8c3 f43c 6ab2 babd 82ec 71bd 7180 0c3e
00000020: 17c8 e33d 33dd b8bd 3e9b 973d a4ca 513d
00000030: 341a c03e 10e7 d23c 372b b53c d269 653d
00000040: 6883 d7bc 201d 88bb f748 863d 5086 543e
00000050: f052 91bd 6fd1 66bd 41f2 16bd a4af c9bc
00000060: 81d4 3cbc ca1d ab3d c63e 4e3d a272 fa3d
00000070: a31d 3d3d 526b e63c f46a 2dbd e537 49bd
0.047545977 0.13230751 -0.15395597 -0.09809346 0.029878542 -0.09116061 -0.059063442 0.13720872
0.111221485 -0.090265654 0.07402657 0.051218644 0.3751999 0.025744945 0.022115333 0.05600912
-0.026307777 -0.0041538626 0.06556886 0.20754361 -0.07095897 -0.056352075 -0.036852125 -0.024619885
-0.011525274 0.08355291 0.050352834 0.12228896 0.046170842 0.028127346 -0.042338327 -0.04912557

weight f4 [1, 32]
00000000: 37e2 92be 76aa 77be b969 583e e8c2 cc3d
00000010: 00d1 27be ca3c 823d 95e7 26be 8c82 e1bd
00000020: b413 a3be 8604 9a3e 7885 63be 0321 5b3e
00000030: 04f8 6bbf a234 783e c71c 633e 0888 0d3e
00000040: 5b2c 5ebe 618d b83d 86f7 693d 8cbf 1dbf
00000050: db7b 193e d025 59be ab71 16be b09d 2bbe
00000060: 3749 f6be 3b30 6bbe 640c 023e 1ff8 e7bd
00000070: 9c09 37be ff4e b13d 02ae 9dbd 186e 1d3f
-0.28688213 -0.2418612 0.2113408 0.09998113 -0.16388321 0.06359251 -0.16299279 -0.11011228
-0.3185097 0.30081576 -0.22218883 0.21399312 -0.92175317 0.24238828 0.22178946 0.13821423
-0.21696608 0.09011341 0.057120822 -0.616204 0.14988653 -0.2120583 -0.14691798 -0.16759372
-0.48102733 -0.22967617 0.12700039 -0.11326622 -0.1787476 0.086576454 -0.07699205 0.61496115
