chignolin/models/model_iter5_z.pt (torch, 77434 bytes, 5 tensors)

weight f4 [64, 210]
-0.2324896 -0.22775705 -0.09177943 0.10137673 -0.1662125 -0.016359814 -0.12304004 -0.024915243
-0.15583542 -0.16478802 0.09020885 -0.078604095 0.095863745 -0.008648194 -0.095760345 -0.038506202
0.04641246 3.484433e-05 -0.0015262458 -0.027675103 -0.0007297272 0.051082373 -0.011580855 -0.078823246
0.03893856 -0.023035947 0.042412054 0.061167408 0.0116043445 -0.053661533 -0.06279069 -0.065758035
-0.12837988 0.2587134 0.11771972 0.041121915 -0.1822805 -0.040408626 -0.030774245 0.08045126
-0.076021485 -0.10727221 -0.037457645 0.09554238 0.1405063 -0.062386207 -0.10037364 -0.11141105
0.019451588 0.12887545 0.057084333 0.03322281 -0.2681596 0.021157898 0.050898664 -0.042540476
-0.047358006 0.10646439 0.2156641 -0.0495755 -0.021602308 -0.07949825 -0.0020900758 -0.03623851
0.11057356 0.07845214 0.046040066 -0.053501602 0.1816817 0.037898798 -0.047002386 -0.010052098
-0.055409387 0.06618615 -0.06136772 0.13260983 0.008505202 -0.22906855 -0.06266131 -0.055812765
-0.031958755 -0.042851344 -0.06083456 0.28493226 0.1333556 0.006611427 -0.048662733 0.005398499
-0.010758659 -0.119541 -0.052236374 0.015431822 0.06450699 -0.043860838 0.04744735 -0.07612956
-0.021550475 -0.019355182 -0.09667983 0.089042775 0.119083695 0.06008128 0.051764175 -0.07374342
0.023658175 0.07072213 0.20187844 -0.048051026 -0.06823774 0.105329745 0.229133 -0.023507645
-0.043002885 0.024315106 0.08379399 0.026596615 -0.0071769888 0.14814925 -0.05730335 0.008649146
0.04949257 0.0042941812 0.010563076 -0.06345952 -0.07431125 -0.12661307 0.0059050354 0.10575035
-0.07833617 -0.08402953 0.16545253 -0.07376387 -0.055698887 -0.034556337 -0.021879228 -0.11862496
-0.23847471 0.00318284 -0.009020447 -0.08932362 -0.017845046 0.023712596 0.08263856 0.020562798
-0.076580696 0.065010294 0.04591776 -0.049182937 -0.043516986 -0.027403919 -0.10422245 0.124505326
0.021686057 -0.049231853 0.00036180267 -0.07617054 -0.042754114 -0.10419195 -0.07890649 0.12096292
0.09661257 -0.23577954 -0.34745762 0.08149126 -0.006441881 -0.008064057 -0.04970108 0.029990066
0.09569996 0.035742562 -0.17424867 0.026567707 -0.21020176 -0.10212204 -0.08174716 -0.060323264
0.016023135 -0.113621645 -0.12587017 -0.24033387 -0.17519088 -0.079521686 0.042485196 0.052378166
-0.080550425 0.0149910245 0.09334922 -0.060351796 0.04120063 -0.016009048 0.0318935 0.04531804
-0.047768705 0.041699067 0.008113292 -0.044670757 0.0069252276 0.14456426 -0.059600268 0.0679387
0.08396608 0.05502024 0.114890166 0.030030316 0.113166414 -0.06952974 -0.020261226 -0.06102427
-0.018475436 0.008051629 -0.009225596 0.21289478 0.054396406 -0.10942336 0.056133777 0.010156504
-0.044407178 0.23355693 -0.041531928 0.037368152 -0.061058283 0.004709092 0.0053683356 -0.080784485
0.035873108 -0.00046022376 -0.041652832 0.027267585 0.014417462 0.03376665 0.10033477 0.026086066
0.043959994 -0.023960937 0.06023688 0.06414092 0.03636617 -0.0081537515 -0.05016808 0.15277912
0.13249613 0.09686831 0.088460185 0.045638405 0.05235351 -0.16090827 -0.13586314 -0.12621471
0.15205766 -0.079279356 0.15851419 0.28197804 -0.06157095 0.033230525 0.1866201 0.02990077
00000000: c111 6ebe 2539 69be dbf6 bbbd 9a9e cf3d
00000010: 9c33 2abe 0405 86bc 6bfc fbbd 0d1b ccbc
00000020: 5293 1fbe 31be 28be 6bbf b83d 2ffb a0bd
00000030: 3654 c43d 28b1 0dbc 001e c4bd aeb8 1dbd
00000040: fe1a 3e3d d025 1238 500c c8ba e6b6 e2bc
00000050: 2a4b 3fba c03b 513d a0bd 3dbc 156e a1bd
00000060: 0a7e 1f3d e2b5 bcbc 43b8 2d3d ad8a 7a3d
00000070: 2620 3e3c 32cc 5bbd 6898 80bd 26ac 86bd
00000080: 0476 03be 1576 843e 0917 f13d 746f 283d
00000090: bda7 3abe 8483 25bd 451a fcbc a1c3 a43d
000000a0: 27b1 9bbd 88b1 dbbd 306d 19bd b9ab c33d
000000b0: e2e0 0f3e ae88 7fbd b290 cdbd 7a2b e4bd
000000c0: f058 9f3c edf7 033e 43d1 693d a414 083d
000000d0: 374c 89be 5453 ad3c 1e7b 503d ec3e 2ebd
000000e0: 78fa 41bd 010a da3d 0dd7 5c3e ae0f 4bbd
000000f0: 53f7 b0bc facf a2bd a7f9 08bb d56e 14bd
00000100: 6474 e23d 84ab a03d 8294 3c3d 7f24 5bbd
00000110: c40a 3a3e c53b 1b3d 9385 40bd 8eb1 24bc
00000120: f4f4 62bd 9b8c 873d b85c 7bbd dfca 073e
00000130: 6759 0b3c f290 6abe 9354 80bd ed9b 64bd
00000140: 2fe7 02bd e484 2fbd a92d 79bd a4e2 913e
00000150: 5f8e 083e aba4 d83b 9352 47bd e4e5 b03b
00000160: 1645 30bc e9d1 f4bd cff5 55bd c1d5 7c3c
00000170: 3e1c 843d 6ca7 33bd 2758 423d d1e9 9bbd
00000180: 9f8a b0bc c28e 9ebc 1300 c6bd 0f5c b63d
00000190: 27e2 f33d ca17 763d ac06 543d ca06 97bd
000001a0: cace c13c c4d6 903d 39b9 4e3e 27d1 44bd
000001b0: 3ac0 8bbd 1fb7 d73d d7a1 6a3e 1b93 c0bc
000001c0: cb23 30bd 7930 c73c 2f9c ab3d 25e1 d93c
000001d0: f22c ebbb 70b4 173e ebb6 6abd 26b5 0d3c
000001e0: b9b8 4a3d 34b6 8c3b c010 2d3c 11f7 81bd
000001f0: 7f30 98bd dba6 01be 077f c13b a493 d83d
00000200: b76e a0bd ad17 acbd 636c 293e 8311 97bd
00000210: 8424 64bd f28a 0dbd 113c b3bc a5f1 f2bd
00000220: b732 74be 3297 503b 7fca 13bc 4def b6bd
00000230: c62f 92bc eb40 c23c 683e a93d 5073 a83c
00000240: 57d6 9cbd 1e24 853d 4314 3c3d 0c74 49bd
00000250: de3e 32bd 2f7e e0bc 9472 d5bd a6fc fe3d
00000260: f5a6 b13c 57a7 49bd 55b0 bd39 4dff 9bbd
00000270: f01e 2fbd 9762 d5bd ba99 a1bd 68bb f73d
00000280: d0dc c53d 3170 71be f7e5 b1be e4e4 a63d
00000290: 6a16 d3bb 1b1f 04bc 5c93 4bbd baad f53c
000002a0: 57fe c33d cb66 123d 3e6e 32be 85a4 d93c
000002b0: 213f 57be 5c25 d1bd 0e6b a7bd 8715 77bd
000002c0: f342 833c 77b2 e8bd 1ce4 00be 151a 76be
000002d0: 3d65 33be 44dc a2bd f504 2e3d 7d8a 563d
000002e0: 9ff7 a4bd ea9c 753c e02d bf3d 7233 77bd
000002f0: fec1 283d 6825 83bc c2a2 023d 699f 393d
00000300: 1ea9 43bd a4cc 2a3d 9ded 043c aff8 36bd
00000310: 05ed e23b a708 143e 691f 74bd 7223 8b3d
00000320: 68f6 ab3d e75c 613d 894b eb3d 2302 f63c
00000330: cbc3 e73d 9c65 8ebd dffa a5bc 96f4 79bd
00000340: cc59 97bc fbea 033c f426 17bc 1701 5a3e
00000350: c4ce 5e3d 5b19 e0bd 88ec 653d 7767 263c
00000360: 4de4 35bd 8c29 6f3e 621d 2abd 590f 193d
00000370: 4018 7abd ba4e 9a3b dde8 af3b 5672 a5bd
00000380: aeef 123d 304a f1b9 299c 2abd 4560 df3c
00000390: 3837 6c3c e64e 0a3d 517c cd3d 72b2 d53c
000003a0: 650f 343d ba49 c4bc f2ba 763d 515c 833d
000003b0: b1f4 143d 5097 05bc 0b7d 4dbd 2172 1c3e
000003c0: 11ad 073e e462 c63d 9d2a b53d 56ef 3a3d
000003d0: a270 563d 23c5 24be b51f 0bbe 6e3e 01be
000003e0: 01b5 1b3e 375d a2bd 8b51 223e 6d5f 903e
000003f0: d231 7cbd bb1c 083d 5719 3f3e 76f2 f43c

bias f4 [64]
0.04585263 -0.46628293 0.50237083 -0.028704923 0.09782298 0.051266126 -0.24996611 0.11887698
0.04442967 0.07646966 0.4277562 -0.048517276 -0.09101977 -0.0639502 0.44033593 0.48745906
-0.048287306 0.21364997 0.338102 0.4247866 -0.09197848 0.3036545 -0.3344526 -0.31442326
-0.46851096 -0.1974411 0.29083508 -0.15283486 -0.0594731 -0.12839426 0.045983545 0.09972883
-0.43771538 -0.1474144 0.26664874 -0.16721888 -0.24586721 0.16317686 0.12608594 0.060829934
-0.01594617 0.16347665 0.32286152 0.113818124 -0.01749039 -3.3065688e-05 -0.39651257 -0.03214454
0.18377326 -0.10112416 0.03344778 0.23604022 -0.12085985 0.26645026 0.17493647 -0.27965832
-0.49338698 0.118781835 -0.14642896 0.056155782 0.27624354 0.2580431 -0.1307496 -0.024399212
00000000: f8cf 3b3d a3bc eebe 609b 003f 9626 ebbc
00000010: 6a57 c83d 6efc 513d 1ef7 7fbe c675 f33d
00000020: e3fb 353d 209c 9c3d dc02 db3e 0dba 46bd
00000030: 9368 babd 53f8 82bd b673 e13e 3c94 f93e
00000040: e9c8 45bd 0fc7 5a3e b51b ad3e a17d d93e
00000050: 375f bcbd 9a78 9b3e 5f3d abbe 16fc a0be
00000060: abe0 efbe 002e 4abe 56e8 943e be80 1cbe
00000070: 119a 73bd c979 03be 3e59 3c3d a13e cc3d
00000080: 3b1c e0be cdf3 16be 2f86 883e 6d3b 2bbe
00000090: 9dc4 7bbe d617 273e ac1c 013e cf28 793d
000000a0: 8ba1 82bc 6c66 273e 1b4e a53e 7a19 e93d
000000b0: 0248 8fbc 03b0 0ab8 b203 cbbe fea9 03bd
000000c0: 0f2f 3c3e 2f1a cfbd 8a00 093d 87b4 713e
000000d0: 5e85 f7bd 2b6c 883e 8c22 333e 602f 8fbe
000000e0: 389d fcbe e443 f33d 79f1 15be 9b03 663d
000000f0: cb6f 8d3e 3a1e 843e 39e3 05be dbe0 c7bc

weight f4 [32, 64]
0.11748835 -0.05437882 0.4079228 0.09888244 0.14680322 -0.29648814 0.10036348 -0.3272341
0.11190523 -0.0051678605 -1.1298405 -0.044155207 0.04356076 -0.022230765 0.25721157 0.3333701
-0.013502105 -0.4197338 -0.2593395 -0.5537714 0.7185168 0.277393 0.42098182 0.08572911
0.29107532 0.22829784 -0.11826174 0.015544323 0.042352844 0.283226 -0.12990738 0.4625599
0.13221619 -0.20018812 -0.06593106 0.11187059 0.16901822 -0.060747445 -0.20949115 -0.13445356
0.07551748 0.111797675 -0.07089946 -0.36278078 0.20154762 -0.10335224 0.14410864 -0.10010407
0.3026379 -0.4900974 0.030357296 -0.31465086 0.19950739 0.20488186 -0.27450287 0.46938765
0.8606495 -0.3183318 0.29543647 -0.22455548 -0.46250892 -0.5611061 0.39972937 0.47712955
0.069642216 -0.21798724 -0.0641854 -0.097849056 0.15107878 -0.05613586 -0.37702775 -0.11539554
0.04246212 0.032626856 0.2341278 0.057205264 0.025041303 0.043406717 0.045391973 -0.0027537262
-0.12751079 0.10794555 -0.14074261 -0.26212916 0.025436383 0.31182405 -0.06016234 -0.3289848
0.73321843 -0.30958003 0.13275018 -0.020324964 -0.090937465 -0.1603127 0.20904908 0.4171639
0.027543878 0.07613814 0.1046003 -0.06655829 -0.035206467 0.16113241 0.11986921 0.035719678
0.08589543 0.17856798 0.27648643 0.10983912 0.08233914 0.06351754 -0.21149802 -0.115448095
0.062981516 0.14808571 0.4210795 0.18837972 -0.0067418637 -0.17843439 -0.051516194 -0.28937995
0.13324213 -0.12649064 0.2917812 -0.12407581 -0.28855446 0.19999923 0.061010953 -0.08251571
0.09565589 0.19696744 0.8392144 -0.09775845 0.32966998 -0.13976052 -0.99824375 -0.2594833
-0.09429941 0.20136534 0.73668236 0.19657148 0.006801372 -0.18757157 1.2361352 -0.43685085
-0.1292853 -0.037650738 0.42752534 0.23261751 0.030577898 -0.10297912 0.42251655 -0.05969433
0.7910651 -0.21520342 -0.09843688 -0.5702464 0.078930944 -0.12661174 -0.27807346 1.1601173
-0.050443225 0.168185 0.3831048 -0.291649 0.90976614 -0.2088594 0.2994711 0.00952984
-0.1526782 -0.31998438 1.5587426 0.12458619 0.3583996 0.24896757 0.18162942 -0.1678087
0.66933817 0.5532891 0.22069404 1.3302118 -0.26664773 0.0025449325 0.36581245 0.706003
0.7071319 -0.31160253 -0.08585864 0.04643946 -0.5165927 -0.4274812 0.3763826 0.07914555
-0.25624782 -0.9957124 -0.22497116 -0.103985876 0.38177186 -1.0565941 -0.7851447 0.17728256
0.026593829 0.29702464 0.5303938 -0.27588007 -0.11009316 0.07604796 0.14449452 0.72436965
0.10507646 0.40512133 0.029147409 -0.13515902 -0.10221948 1.2025933 -0.78496116 -0.9990808
-0.3430525 -0.8836138 0.7758812 0.32513645 -0.21365367 -0.23273654 0.04657883 0.69461393
-1.1619086 0.91765326 0.13045575 -0.044409122 -0.5537742 -0.20393662 0.16662626 0.14044774
0.30592343 0.41719395 0.065325044 0.060968094 -0.40066922 0.3373304 -0.22203839 0.33362317
-0.07203514 0.69555014 -0.13886048 0.432701 -0.556261 0.2905132 0.802702 -1.0335633
0.25092736 0.22792865 -0.10833871 0.20263875 0.17381302 0.2929467 -0.12077307 0.091840215
00000000: bb9d f03d 53bc 5ebd 42db d03e e082 ca3d
00000010: 9553 163e 4bcd 97be 5e8b cd3d 3a8b a7be
00000020: 922e e53d 2857 a9bb 9d9e 90bf 17dc 34bd
00000030: c46c 323d 4b1d b6bc 3cb1 833e 7caf aa3e
00000040: ef37 5dbc 59e7 d6be 26c8 84be f6c3 0dbf
00000050: b8f0 373f 7506 8e3e ee8a d73e be92 af3d
00000060: d307 953e e9c6 693e 3633 f2bd 9ead 7e3c
00000070: 2d7a 2d3d 0003 913e 7106 05be a7d4 ec3e
00000080: ae63 073e 1dfe 4cbe dd06 87bd 681c e53d
00000090: 1d13 2d3e 50d2 78bd d984 56be 32ae 09be
000000a0: e9a8 9a3d 2ef6 e43d bc33 91bd 67be b9be
000000b0: 8062 4e3e 57aa d3bd 3791 133e 5d03 cdbd
000000c0: 5bf3 9a3e 0cee fabe ddaf f83c eb19 a1be
000000d0: aa4b 4c3e 8dcc 513e a48b 8cbe 9453 f03e
000000e0: 8753 5c3f 63fc a2be 7343 973e dff1 65be
000000f0: f8cd ecbe a6a4 0fbf 54a9 cc3e 534a f43e
00000100: 94a0 8e3d 0c38 5fbe a373 83bd 1665 c8bd
00000110: 65b4 1a3e b7ee 65bd c809 c1be 7f54 ecbd
00000120: c3ec 2d3d bda3 053d 33bf 6f3e 1150 6a3d
00000130: 6b23 cd3c 3ecb 313d efec 393d dc77 34bb
00000140: 3092 02be 8e12 dd3d d51e 10be cb35 86be
00000150: f65f d03c 67a7 9f3e c96c 76bd b270 a8be
00000160: 34b4 3b3f 4681 9ebe aaef 073e 8a80 a6bc
00000170: 6c3d babd 0329 24be f610 563e 8296 d53e
00000180: b3a3 e13c 50ee 9b3d af38 d63d b64f 88bd
00000190: a834 10bd e5ff 243e fd7d f53d cc4e 123d
000001a0: f1e9 af3d 86da 363e a18f 8d3e 55f3 e03d
000001b0: 6ca1 a83d 7c15 823d f092 58be 0d70 ecbd
000001c0: 74fc 803d c8a3 173e bb97 d73e 9de6 403e
000001d0: daea dcbb 81b7 36be a502 53bd 9c29 94be
000001e0: a070 083e c386 01be 5864 953e 751b febd
000001f0: 69bd 93be 99cc 4c3e 9fe6 793d fffd a8bd
00000200: 3ce7 c33d d5b1 493e c1d6 563f 9535 c8bd
00000210: 81ca a83e 621d 0fbe e78c 7fbf ffda 84be
00000220: 0d20 c1bd b732 4e3e 3797 3c3f 094a 493e
00000230: 0bde de3b c312 40be ae39 9e3f eaaa dfbe
00000240: 5e63 04be a937 1abd 9ae4 da3e 4933 6e3e
00000250: 807e fa3c b8e6 d2bd 1754 d83e 0b82 74bd
00000260: 3e83 4a3f 495e 5cbe 4699 c9bd abfb 11bf
00000270: 8ca6 a13d 82a6 01be a55f 8ebe b97e 943f
00000280: 8e9d 4ebd b038 2c3e 5026 c43e 0553 95be
00000290: 6fe6 683f 3ddf 55be 4754 993e 0c23 1c3c
000002a0: ad57 1cbe fed4 a3be e184 c73f 0b27 ff3d
000002b0: 2780 b73e 5bf1 7e3e 10fd 393e 0bd6 2bbe
000002c0: bf59 2b3f 5ba4 0d3f 9efd 613e 6144 aa3f
000002d0: 0d86 88be e2c8 263b c54b bb3e 9dbc 343f
000002e0: 9906 353f 5e8a 9fbe a8d6 afbd 4e37 3e3d
000002f0: 6b3f 04bf d1de dabe 38b5 c03e 1017 a23d
00000300: ea32 83be 02e7 7ebf d75e 66be 8cf6 d4bd
00000310: 9a77 c33e 7a3e 87bf 3eff 48bf 8f89 353e
00000320: 4ddb d93c 9d13 983e e3c7 073f 2740 8dbe
00000330: 8678 e1bd 08bf 9b3d 5ff6 133e 4a70 393f
00000340: 5432 d73d 106c cf3e 8cc6 ee3c 2067 0abe
00000350: 7258 d1bd 94ee 993f 37f3 48bf c2c3 7fbf
00000360: 94a4 afbe 8434 62bf 26a0 463f 4978 a63e
00000370: 07c8 5abe 7d52 6ebe 71c9 3e3d 38d2 313f
00000380: 6cb9 94bf 53eb 6a3f 3196 053e 57e6 35bd
00000390: 25c4 0dbf c3d4 50be 13a0 2a3e 88d1 0f3e
000003a0: ffa1 9c3e 729a d53e 23c9 853d aeb9 793d
000003b0: 8424 cdbe 92b6 ac3e 085e 63be a8d0 aa3e
000003c0: 2987 93bd 930f 323f 7131 0ebe fc8a dd3e
000003d0: 1f67 0ebf 25be 943e e17d 4d3f cd4b 84bf
000003e0: 8d79 803e 2166 693e b0e0 ddbd 8880 4f3e
000003f0: 0afc 313e 1cfd 953e df57 f7bd b916 bc3d

bias f4 [32]
-0.085759476 -0.14132968 -0.30118054 0.3186975 -0.019374223 0.16819502 -0.10083546 -0.05313984
0.056739807 -0.15229195 0.04662996 -0.086581565 0.012013274 0.045101702 0.09912023 -0.06136624
-0.081292324 -0.05488226 -0.06590526 -0.045782425 -0.04891361 -0.06858768 0.031444155 -0.10007265
-0.010272268 0.006166406 -0.05316479 0.11037679 -0.1510781 -0.08117087 0.022969117 0.0808634
00000000: aaa2 afbd bab8 10be 5634 9abe 522c a33e
00000010: b1b6 9ebc 513b 2c3e d282 cebd 29a9 59bd
00000020: 0068 683d 6cf2 1bbe 0fff 3e3d ad51 b1bd
00000030: 53d3 443c 90bc 383d 8cff ca3d 2b5b 7bbd
00000040: 977c a6bd 38cc 60bd 56f9 86bd 5a86 3bbd
00000050: a359 48bd b377 8cbd 96cb 003d e4f2 ccbd
00000060: 044d 28bc 900f ca3b 53c3 59bd 3a0d e23d
00000070: 38b4 1abe ea3c a6bd bb29 bc3c b69b a53d

weight f4 [1, 32]
0.40587968 0.5057141 0.25312087 -0.8908137 0.31575996 -0.4748466 0.49488276 0.5387699
-0.5950525 0.26936167 0.39225456 0.68250704 -0.57405096 0.43292552 0.28852573 0.6005886
-0.32187843 -0.40143672 0.55969816 -0.32499507 0.3667421 0.39117658 0.5170968 0.47625783
0.51765466 -0.33338374 -0.58478856 -0.50949925 0.55585474 0.54479235 0.51508904 -0.40251413
00000000: 76cf cf3e 7b76 013f 0f99 813e 5e0c 64bf
00000010: 4aab a13e 181f f3be 4661 fd3e d3ec 093f
00000020: 5c55 18bf c6e9 893e 97d5 c83e c8b8 2e3f
00000030: 01f5 12bf 6aa8 dd3e a5b9 933e 2dc0 193f
00000040: 40cd a4be 1d89 cdbe 6148 0f3f c165 a6be
00000050: 9fc5 bb3e 4c48 c83e 7560 043f 11d8 f33e
00000060: 0485 043f 46b1 aabe b4b4 15bf 8b6e 02bf
00000070: 7f4c 0e3f 8377 0b3f e0dc 033f 5516 cebe
