chignolin/models/model_iter0_q.pt (torch, 76615 bytes, 5 tensors)

weight f4 [64, 210]
000000 a8 fd aa 3d a0 ee 40 bd a4 2e 11 bc 73 bb cc 3d
       0.08349162 -0.04710257 -0.008861218 0.099966906
000010 16 1f 64 bc f1 5d 97 3d 8e 63 a4 bd 7d 1a 99 3c
       -0.013923427 0.07390965 -0.08026801 0.018689388
000020 d7 31 ed 3c 73 3c 3a 3c e0 85 95 3d fb 27 49 3c
       0.02895443 0.011366951 0.07300925 0.0122775985
000030 ef 59 7c bd b7 db 62 bd 8d ae 8f 3d fd 71 1f 3d
       -0.061609205 -0.055385318 0.07015715 0.038927067
000040 05 70 4b 3d e2 c4 af 3c 0b 04 63 3c cb 0b 73 3d
       0.049667377 0.021456186 0.013855944 0.05933742
000050 a8 71 87 bc c2 f3 a4 bd 51 41 b0 bd 0b 2d 9e 3d
       -0.016533688 -0.080543056 -0.08606208 0.07723435
000060 bd b1 d4 3c d6 fa 18 bc a0 47 f5 3c 64 7b d0 bd
       0.025963658 -0.009337148 0.02994138 -0.10179785
000070 6c 9a a9 3c e2 56 d4 3c cf 2b 05 3d 90 21 5a bb
       0.020703517 0.025920335 0.032512482 -0.0033284165
000080 3e 2e 31 3d ed 43 82 3c 84 fe b5 3c 70 15 9e 3c
       0.04325699 0.01590153 0.02221609 0.019297332
000090 53 2d 91 3c 2b 4a cf 3c ab 2d ef 3c 66 a5 5d 3c
       0.017721808 0.02530392 0.02919658 0.013528204
0000a0 7f fd e5 3d 4d 48 21 bd 13 ad f6 3c 04 87 e3 bb
       0.11229991 -0.039375592 0.030111825 -0.0069435854
0000b0 63 c9 82 3c db 27 96 bd b1 16 ad bc 37 b4 95 bc
       0.01596517 -0.073318206 -0.021128984 -0.01827441
0000c0 02 dc 11 3c e4 78 ff 3c 05 ae 6e 3c 5c 47 b3 3b
       0.008902552 0.031185575 0.014567857 0.005471153
0000d0 53 6e 01 bd a0 94 c0 bc 15 3e 86 3c af ce 42 3c
       -0.031599354 -0.02350837 0.016387025 0.0118900975
0000e0 d7 44 d2 3c f1 d3 90 bd 7e 39 71 3c 17 d5 82 3c
       0.025667591 -0.070716746 0.01472318 0.01597075
0000f0 52 57 55 3d 8e 5c 4a 3b 8d a6 a8 3c dc 83 7c bd
       0.05208523 0.003087792 0.02058723 -0.06164919
000100 68 7b a1 bd 34 ee 97 bc ef 61 42 bd 56 d7 a4 3c
       -0.07884866 -0.018546201 -0.047456678 0.020122211
000110 44 b9 6f bd be 48 a1 3c 6a 6a 8d bd ef 68 aa 3b
       -0.058526292 0.019688006 -0.069050625 0.0052004973
000120 2c e5 0b bd bd 35 a8 bd 15 c2 3c bc 0e 1d ac bd
       -0.034154102 -0.08213375 -0.011520882 -0.08403979
000130 24 76 d2 3c 05 1e a7 bd 9e 5d 63 3c 27 d8 75 bd
       0.0256911 -0.08160023 0.013877301 -0.060020592
000140 f4 78 24 3d f7 71 4c bd 55 ea e1 bc 3c 6c 01 3d
       0.040154412 -0.049913373 -0.027577559 0.03159736
000150 0f 25 82 3c 2d 5c 72 bb d4 5b 7b bd 2d 6f ab 3d
       0.015886812 -0.003698121 -0.06136687 0.083708145
000160 bd 3b 44 3d 39 11 7b 3a be 7d 1f 3d c7 a5 77 39
       0.047908533 0.00095774565 0.038938276 0.00023617512
000170 ec d3 ea 3c 30 fb eb 3b dc 13 05 bd 22 00 18 bd
       0.028665505 0.0072015747 -0.032489643 -0.0371095
000180 85 0e 50 bd c5 c9 7f bd 5f 97 41 3d 55 2b ad bd
       -0.050795097 -0.06244828 0.0472635 -0.084555306
000190 69 39 19 3d 84 3c d6 bc c7 03 9e 3b e8 25 43 bd
       0.037408266 -0.026151903 0.0048222276 -0.047643572
0001a0 c7 60 77 bd 67 bb d1 bd e9 a6 36 bd 20 95 d2 bd
       -0.06039503 -0.10240822 -0.04459277 -0.102823496
0001b0 ee d6 8d bd b7 9e 9e bd 74 53 e6 bc e4 c7 29 bc
       -0.0692576 -0.07745116 -0.028115965 -0.010362599
0001c0 69 be a2 bd 10 55 75 bc d8 6a 8f 3d 49 f9 ff bc
       -0.07946474 -0.014973894 0.07002801 -0.031246798
0001d0 ea 09 60 bd 9d 60 f8 3c 04 48 6c 3d d7 19 17 3c
       -0.054696955 0.030319506 0.057685867 0.009222469
0001e0 14 14 9b bc 9f 60 99 bd a6 2d 42 3d e8 61 2a bc
       -0.018930472 -0.07489132 0.047406815 -0.010399319
0001f0 57 ca fe bc 69 c7 c6 bc be c6 65 bc 9b 04 bd 3d
       -0.031102343 -0.024265008 -0.014024435 0.09229394
000200 68 3c 56 bc e2 93 94 3d a1 7c d4 bc 4f 1d 03 3d
       -0.013075925 0.07254769 -0.025938334 0.032010373
000210 6f 69 14 3c a8 3c 53 bd 34 ab 49 bd 10 32 0c bd
       0.00905834 -0.05157152 -0.049235538 -0.03422743
000220 0b 21 d2 3c a6 ea 36 3d a2 cf ba bc dd f4 45 3d
       0.025650522 0.044657372 -0.022804085 0.048329223
000230 28 64 9b 3d 61 9b 22 bd 1e 31 a5 bc 1c 93 67 bd
       0.07587463 -0.039698962 -0.020165022 -0.05653678
000240 cd aa 18 3c 86 0f 9a bd bb a1 e1 bc 9d ff 21 3b
       0.009318066 -0.07522492 -0.02754294 0.0024719008
000250 11 66 53 bd ae d8 68 bd a4 fe 1a 3d 4e dc ca 3d
       -0.05161101 -0.056847267 0.0378405 0.09905301
000260 3c 32 e9 3c 17 57 84 3c 55 9c 34 3c 89 07 04 bd
       0.028466336 0.016154809 0.011023601 -0.03223375
000270 ff 41 22 bd ee 80 97 bd 44 ee 63 bc d5 2f 81 3d
       -0.03961372 -0.07397638 -0.013911787 0.06307951
000280 8c d5 29 3d 35 cc 5a bd a2 ac 50 bd 62 20 a6 bd
       0.04146342 -0.053417403 -0.050945885 -0.08111645
000290 4d 5b 6f bd a5 ba 77 bd 36 68 30 bd e8 cb c1 bc
       -0.05843668 -0.060480732 -0.043068133 -0.0236568
0002a0 8b f6 16 3d d2 00 7e 3c 6b ec 54 3d e4 e9 31 bd
       0.036856215 0.015503125 0.05198328 -0.043435946
0002b0 fe d6 5e 3d 23 33 2a bd 31 a6 00 bd 6a 6a 2d 3d
       0.05440425 -0.041552674 -0.031408492 0.042337812
0002c0 e2 2e 0d 3d 19 7f d2 3c 73 24 2e bd 6a fd 45 3c
       0.03446854 0.02569537 -0.04251523 0.012084344
0002d0 90 1d 32 3d c7 4b ae bd e5 96 ff 3c 66 3b 19 bd
       0.043485224 -0.08510547 0.031199882 -0.037410162
0002e0 86 94 1b bd 35 5a 92 bb de c7 25 3d 5c 82 7d 3d
       -0.03798344 -0.00446632 0.04047381 0.0618919
0002f0 8e 86 0a 3d 23 d2 ad bb 75 22 8e 3d 12 dc a7 3d
       0.033819728 -0.0053045913 0.06940166 0.08196272
000300 dc d8 85 3d 23 e0 26 3d 1f fb a8 3d c0 33 2b 3d
       0.06535503 0.040741097 0.082510225 0.0417974
000310 a2 20 23 3d 46 6c dc 3c ec 8c 71 3d a8 5a 73 3d
       0.039826043 0.026907098 0.058972284 0.05941263
000320 8c c4 79 3d cf 65 37 bd 9c 1b a6 3d 0c aa b3 3c
       0.060978457 -0.044774827 0.08110735 0.02193167
000330 ce 4b cf 3c 12 eb ec 3a 5c 62 45 3d e7 a3 25 3c
       0.025304701 0.0018075428 0.048189506 0.010109878
000340 ee 35 cc bc 90 73 5c 3c 2b 0f 0e bc b9 d2 e3 bc
       -0.02492806 0.013455287 -0.0086706085 -0.027810441
000350 ef 92 f5 bc b7 d4 11 3d 40 61 3f bb ad a9 26 3d
       -0.02997729 0.03560325 -0.0029202253 0.04068916
000360 31 3e 56 3c e1 0d cf 3c 5d 68 ee bc c0 d6 9a 3c
       0.013076351 0.025275173 -0.029102499 0.018901229
000370 5a ef 10 3d b8 14 74 bc fe 1b 75 3d 19 7d 55 3d
       0.035384513 -0.014897518 0.05984115 0.052121256
000380 87 9e 8c 3d 6d c1 33 bd 5a 75 1d 3c 95 19 7f bd
       0.06866174 -0.043885637 0.009610498 -0.062280256
000390 0d 13 b8 bc a5 34 69 bd 68 03 c0 bb 57 6c 09 bd
       -0.022470022 -0.05693497 -0.005859781 -0.033550587
0003a0 9f 45 dc bc 6a 45 96 bc dd 59 87 3d 73 5e 38 bd
       -0.026888667 -0.018343646 0.06608937 -0.04501195
0003b0 53 8a 5c bd 91 b4 16 bd 72 d0 80 3c d6 73 23 bb
       -0.053842854 -0.036793295 0.015724394 -0.002494087
0003c0 fa 78 44 bd 92 60 6f bd dc a5 92 bc 00 57 43 bd
       -0.047966935 -0.058441706 -0.017901354 -0.04769039
0003d0 ca 06 30 3c 29 f1 de bc da 70 3f bd 48 2c 1c 3d
       0.010743806 -0.027214603 -0.046738483 0.038128167
0003e0 dd 8c 17 bd 9f ba 8c 3b 90 ac 61 bd ae db 8a 3b
       -0.036999572 0.004294708 -0.05509621 0.0042376136
0003f0 0d 53 08 3d 82 f5 e2 ba b1 31 24 bd e9 17 98 bd
       0.03328233 -0.0017315599 -0.040086452 -0.074264355

bias f4 [64]
000000 a5 b4 bd 3c 52 2d 37 bd d4 76 c7 bd cb f7 72 bd
       0.023157427 -0.044720955 -0.097394615 -0.059318345
000010 f0 21 9d bc ad 9c 9b bc a3 e0 88 bd 6f 1b d0 3c
       -0.019181222 -0.018995607 -0.06683471 0.025403706
000020 a4 31 c2 bd 0d 59 28 bc 5c 6c f0 3c 41 9a 39 bd
       -0.094821244 -0.010275138 0.029348545 -0.045313124
000030 ff 3b a3 3c b5 b9 03 3d f0 d0 01 bc c9 46 06 3c
       0.01992607 0.032159526 -0.00792335 0.008195587
000040 2a dc 51 bc a2 e3 7f 3d c7 51 4b bd ab 76 99 3d
       -0.012808839 0.062472947 -0.049638536 0.07493337
000050 ca ee bc 3b 86 92 53 3d 74 c6 c4 3b 90 31 8d 3c
       0.0057657706 0.051653408 0.006005103 0.017235547
000060 6e 5f 82 3d e4 14 da 3b 39 87 d0 bc 32 df 94 3b
       0.06365858 0.0066553224 -0.025455104 0.0045432085
000070 fd a0 e2 3c b4 01 eb 3c 5c a1 ae 3c eb ed 17 bd
       0.027664656 0.028687336 0.021317177 -0.03709213
000080 b6 d6 ec bc b3 f8 7d bd fe 56 3c 3d 87 c1 16 3d
       -0.028910976 -0.062004756 0.0459814 0.036805656
000090 b7 c7 42 3d a4 1a b1 3d 7c 95 7d bc 59 48 b9 3d
       0.047553744 0.086476594 -0.015477534 0.09047002
0000a0 9a 66 33 bc 01 95 9c 3b ff 6a 5b bc 75 70 86 bc
       -0.010949755 0.004778505 -0.013392209 -0.016411046
0000b0 f9 ea 96 3d f6 e5 f7 3c 03 73 02 bd f8 e4 82 bd
       0.07369036 0.030261021 -0.031847965 -0.063913286
0000c0 d9 91 ca 3c 04 ca 90 bb 1b 36 2b 3c 37 fc 79 3d
       0.024727749 -0.0044186134 0.0104499115 0.061031546
0000d0 36 ab 01 bd 8c 23 51 bd ce a1 ef bc bc 91 7e 3c
       -0.03165742 -0.05105929 -0.02925196 0.0155376755
0000e0 75 d3 47 3d e5 22 86 3a 38 66 c1 bc d2 f8 68 3b
       0.048785646 0.0010233788 -0.023608312 0.00355487
0000f0 d1 b1 80 bd c2 11 98 3c 7e 34 95 ba bc ce bd bc
       -0.06283916 0.018563155 -0.0011383442 -0.023169868

weight f4 [32, 64]
000000 d3 43 66 3d b5 5f bf 3c b5 46 5c 3d fd 31 d4 bd
       0.056217026 0.023361066 0.05377837 -0.10361097
000010 ba 08 e4 3d 50 a7 0e bc 45 63 e7 bd 10 04 52 bd
       0.11134477 -0.008706883 -0.11298231 -0.051273406
000020 25 d7 7c bc 36 af ce bc cb 47 e8 3c 4d 36 3a bc
       -0.015432154 -0.025230031 0.028354546 -0.011365485
000030 50 35 ec bd 2a 55 4e bd bd bd 80 3d 4e f9 24 3e
       -0.11533606 -0.050374188 0.0628619 0.16110727
000040 20 0d 3b 3c 36 b3 f0 3d 19 10 c8 bd 5e 80 b0 bc
       0.011416703 0.11752932 -0.097686954 -0.021545585
000050 29 e8 b4 3d fc e2 eb 3d 0e 46 a4 bd 26 f7 05 be
       0.088333435 0.11517903 -0.08021174 -0.13082561
000060 89 18 5a bc 44 2e 0c bc 77 bb 93 bd 40 fe 85 3c
       -0.013311514 -0.008555952 -0.072134905 0.016356587
000070 9b c0 ea bd c9 f4 e5 3d e0 8b 81 bd 6e 0a 10 3e
       -0.11462518 0.1122833 -0.06325507 0.14066479
000080 67 f5 0a 3d b5 f3 52 3c ec 87 b0 3d 0e 7c f8 3d
       0.03392544 0.012875487 0.08619675 0.121330366
000090 d6 8e 9d bd bb 1c 8b bd 2d fc 09 3e a3 a5 80 3d
       -0.076932594 -0.06792589 0.13475104 0.06281593
0000a0 af 7d 01 bd c2 58 1a 3e 00 bc 0f be 70 73 05 be
       -0.031614 0.15072921 -0.1403656 -0.13032317
0000b0 02 7c 6b bd cd e0 ce 3d 9d d8 62 3c da 1d ab bd
       -0.05749131 0.10101471 0.01384559 -0.08355303
0000c0 8a b5 92 bd f7 c4 11 bd 2b 5b 13 3e 8c e0 6b 3d
       -0.07163532 -0.03558823 0.14390247 0.05758719
0000d0 ba b7 a0 3d de 8b 1e be f5 54 0f 3e c6 bd 02 be
       0.07847543 -0.15483043 0.13997252 -0.12767705
0000e0 e2 7c 4b 3c d4 b0 97 bd b9 44 9c bd c8 51 b8 bc
       0.012419911 -0.07406774 -0.07630295 -0.022499934
0000f0 f3 5c 9e bd 16 39 32 bc d2 d0 bb 3c 9c f0 9c 3c
       -0.077325724 -0.010877868 0.022926722 0.0191577
000100 95 8e f0 3d 0c 9d 37 3d 20 64 96 bd fc 31 9d 3d
       0.11745945 0.044827506 -0.07343316 0.076755494
000110 96 bd 11 3e 61 7c fa 3d 9c d7 72 bd 29 5e b5 bd
       0.14232478 0.12230755 -0.059287652 -0.0885585
000120 a0 7e db bd a5 eb fb bd 76 19 93 3d 03 46 09 3e
       -0.10717511 -0.12300805 0.07182591 0.13405614
000130 00 c0 ea 3d bb a6 b1 bd 19 be 1b bd d9 e9 49 3c
       0.11462402 -0.086743794 -0.038023088 0.01232382
000140 1e d0 cf bd 6a c3 88 3d 6c f7 e0 bc 74 f4 9c 3d
       -0.10147117 0.06677897 -0.02746173 0.07663813
000150 54 8d 56 bc 03 d3 95 bd 6d 9f ca bd 67 ce 1a be
       -0.013095219 -0.07315638 -0.09893689 -0.15117799
000160 d3 0d 26 3e bd 56 f7 bd 64 d0 aa 3d 49 a1 af bb
       0.16216211 -0.12077091 0.083405286 -0.005359803
000170 22 61 9b bd de 4a c6 3d 92 2b dc bc 7d 3b ff bc
       -0.07586886 0.096822485 -0.026876245 -0.031156296
000180 80 58 f9 3d d5 1a d6 bd 54 92 de 3d 6a c2 9f 3d
       0.12175083 -0.104543366 0.108677536 0.078007534
000190 c4 23 a6 3d 7d a6 d7 3d 5a 4e c9 bb f8 5c c5 3c
       0.081122905 0.10529802 -0.0061433734 0.024092183
0001a0 74 74 14 3e dd fa 15 3e fb 6c 53 3d bb 5a ca bc
       0.14497548 0.14646478 0.051617604 -0.024701467
0001b0 62 f2 a2 3d 1c 1e de bc 2a 7b ce bd 1c 5a d9 bd
       0.07956387 -0.027113967 -0.100820854 -0.1061289
0001c0 ad 71 c2 3d b5 87 33 bb 6a b5 0c 3e 4c 9a 2b bd
       0.09494338 -0.002739412 0.13741079 -0.041895196
0001d0 2f 08 5a 3d 1d 16 80 bd ca b2 f1 3d ee 2e 22 be
       0.05323046 -0.06254218 0.118016794 -0.15838215
0001e0 69 e4 17 3e 05 ac ab bd c4 54 64 bd 3e ba 29 bc
       0.14833225 -0.083824195 -0.0557449 -0.010359345
0001f0 f1 2f d4 bd 92 76 a2 3d ed d9 de 3c 76 53 6c 3d
       -0.103607066 0.07932772 0.027203524 0.057696782
000200 f0 30 9f 3c f8 52 24 bc fb 51 06 3d d2 6e 0f 3e
       0.019432515 -0.010029547 0.032793026 0.14007118
000210 ee 18 1a be 19 51 21 be 09 37 97 bc fb ca a4 bd
       -0.15048572 -0.15753593 -0.01845886 -0.08046528
000220 4a 0a f5 bc 93 08 6b bd eb 67 14 be df 12 31 3d
       -0.029912133 -0.057381224 -0.14492767 0.043230888
000230 71 b1 bd 3d e1 f1 bd bc f5 eb 22 39 e8 e8 ea bd
       0.0926236 -0.023186626 0.00015537425 -0.114702046
000240 78 3d 2a 3d b6 f9 4f bd 13 a1 aa 3b 25 3d 51 bd
       0.041562527 -0.050775252 0.00520719 -0.051083703
000250 1b 0f 0f be 0d c3 8e 3d ad 14 bc 3d 60 4d dc 3c
       -0.13970606 0.06970797 0.09183631 0.026892364
000260 a5 bd 09 be 93 1c 34 3d 6d ec 22 3d 4b 73 f0 3d
       -0.1345125 0.043972563 0.039776254 0.117407404
000270 7d 5e 06 3e 89 b1 3f 3b d7 5d 27 3d b6 27 c6 bd
       0.13121982 0.0029250106 0.040860977 -0.09675543
000280 fa 99 a0 3c 11 db b3 3c 62 87 99 bd 0e bc 0d be
       0.019604672 0.021955045 -0.07496525 -0.13841268
000290 c0 06 20 be 81 87 85 bd 9f 58 2e 3d 28 78 b9 bd
       -0.15627575 -0.06519986 0.042564984 -0.09056121
0002a0 0e 6b 9e bd 0c d9 d2 3c 70 1b 42 bb 49 88 2a bd
       -0.07735263 0.025738262 -0.0029618405 -0.041633878
0002b0 ff 22 1f 3d 79 6d 1f bd e5 8c f0 3d 53 fc 25 3d
       0.038851734 -0.03892276 0.117456235 0.04052384
0002c0 6d d2 9f bc 99 f1 2c 3d 31 2c 6d 3d 51 4b 05 3d
       -0.019509519 0.042222593 0.057903472 0.03254253
0002d0 1b 2f cf 3b ff 74 e8 3d 3a cd b8 3d e2 e9 94 3d
       0.006322754 0.1135044 0.09023519 0.07271172
0002e0 c7 51 30 be 39 0c 83 bc ca dc fc bb f8 a0 b8 3d
       -0.17218696 -0.01599704 -0.00771675 0.09015077
0002f0 8c 71 43 3c b2 7b b9 3d d9 33 d7 bc d9 8b d9 3b
       0.011928927 0.09056796 -0.02626984 0.0066389856
000300 78 f8 6a bc b0 a5 ae 3d 11 5a 23 bd 81 ea 17 be
       -0.014341466 0.08527696 -0.039880816 -0.1483555
000310 ba 1b ec 3c 59 18 42 3d 78 de 39 be a3 36 82 bd
       0.028821815 0.0473865 -0.18151271 -0.063580774
000320 ac 52 5f bd cd 79 b6 bd cf 2d 34 3e 2d ba b0 3c
       -0.0545222 -0.089099504 0.175956 0.02157315
000330 79 d4 8c bd aa 7f a1 3d 3e ec 1e be 74 21 87 3e
       -0.068764634 0.07885678 -0.15519807 0.2639271
000340 60 5d d2 bd cf 58 e5 3d 70 4c 3e be 84 6f 87 bc
       -0.10271716 0.111985795 -0.18583846 -0.016532667
000350 45 ed 84 bc bf 84 8f bd 52 0e 0c bc 4d c1 24 be
       -0.01622642 -0.07007741 -0.008548336 -0.16089363
000360 f1 bf 55 3e 85 02 26 bd b3 cc 90 bc 37 5b 14 be
       0.20874001 -0.040529747 -0.017675733 -0.1448792
000370 2e 09 10 be 8c ea 23 bd 7e 5b d0 bc 08 41 53 3d
       -0.14066002 -0.040018603 -0.025434252 0.05157569
000380 ed 66 11 3e 47 c0 79 3d ed 86 fb 3d c9 9a 12 3e
       0.1419942 0.060974386 0.122815944 0.14316858
000390 a7 8f b2 bb 8b 14 44 3d 45 fb c4 3d d8 a9 1f 3e
       -0.0054492536 0.047871154 0.09618238 0.15592134
0003a0 39 fb ce bb 88 ff 9c 3d 1a 1f 01 be 37 64 d1 3c
       -0.006316569 0.07665926 -0.1260952 0.025560481
0003b0 69 90 ea 3c 80 64 cb bd d2 87 1d bd e7 12 49 be
       0.028633313 -0.09931278 -0.038459606 -0.19636117
0003c0 85 7a d0 3d 73 45 19 be 54 75 9b 3d d6 35 02 3d
       0.10179619 -0.14967899 0.07590738 0.031789623
0003d0 1c ca fc bd 84 45 8c bd eb 42 11 bd 5b 09 1d be
       -0.12343237 -0.068491966 -0.03546421 -0.153356
0003e0 2f 4c 39 3e 08 35 15 3d 58 bf 1f bd d9 89 db bc
       0.18095468 0.036427528 -0.03900084 -0.02679913
0003f0 d8 66 1b be f1 5f b3 bc 39 d2 ce bd a1 7a 00 3d
       -0.1517595 -0.021896334 -0.100986905 0.031366948

bias f4 [32]
000000 0e 3e be 3c 7f ce cc bd 51 e2 85 bd 92 3f b3 bd
       0.02322295 -0.100003235 -0.06537307 -0.087523594
000010 99 ad 90 bb c4 e9 05 be 11 3b 92 3d da 09 3c 3d
       -0.0044152257 -0.13077456 0.07140172 0.045907833
000020 31 18 92 3d 84 ad ca bd 70 44 a8 3d e4 9f c7 bd
       0.071335204 -0.09896377 0.082161784 -0.097472936
000030 98 13 ad 3d 39 ec db bd e8 be 96 3c 48 63 bf bd
       0.08451003 -0.10738415 0.018401578 -0.09345108
000040 c6 91 41 bd ec 1f 2f bd 34 5c ae 3d 92 a8 69 bb
       -0.04725816 -0.042755052 0.0851368 -0.0035653454
000050 57 c6 0c 3e 6f 14 93 3d 56 10 26 bd 05 39 3e bd
       0.13747536 0.07181632 -0.040542923 -0.046441097
000060 2f e4 4e bd c4 22 a3 bd 64 1b 05 3e c1 a7 04 bd
       -0.05051058 -0.079656154 0.1299873 -0.032386545
000070 59 72 ac 3d 94 c2 c3 bb a5 42 ac 3d b8 52 b4 3d
       0.084202476 -0.0059741233 0.08411149 0.0880484

weight f4 [1, 32]
000000 a2 9f 62 be 60 1a dc bd 4d 7c b8 3d 3f 61 5f bd
       -0.22131208 -0.10747218 0.090080835 -0.0545361
000010 f8 ff 2c be 7e 59 6c 3e c3 13 04 3e 8d 96 b4 3d
       -0.1689452 0.23081014 0.12898163 0.08817778
000020 57 b7 dd bd 72 22 26 be 60 43 02 be 6b 40 3e 3e
       -0.10825985 -0.16224077 -0.12721014 0.18579261
000030 b2 28 54 be 7c f5 40 3e 9d b9 60 be 00 a4 3e be
       -0.20718649 0.18843645 -0.21945806 -0.18617249
000040 a6 e5 7a 3d a5 dc 61 be 72 1c 53 3e e4 db 04 bd
       0.061254166 -0.22056825 0.2061632 -0.032436267
000050 07 af 37 be 48 28 5c 3e e2 9b b7 3d 3a 13 e9 bd
       -0.17937861 0.21499741 0.08965279 -0.1138062
000060 12 da 2f be e3 8c 4b be 27 1b 74 bd ec 83 15 be
       -0.17173031 -0.19877963 -0.059596207 -0.14601105
000070 35 5b ec 3d a4 4b b8 3d b2 df 55 be c9 99 0f be
       0.11540834 0.08998802 -0.20886114 -0.14023508
