chignolin/models/model_iter3_z.pt (torch, 77858 bytes, 5 tensors)

weight f4 [64, 210]
000000 cc 18 a9 bd 70 57 0e bd e3 14 46 bd ea 42 4e bd
       -0.08256683 -0.034751356 -0.048359763 -0.050356783
000010 57 4c 60 bc d5 62 24 bd 1e e2 c1 bc f7 57 6d bd
       -0.013690076 -0.040133316 -0.023667391 -0.057945218
000020 3b ba ba bc 74 c9 21 bc 89 5c c9 bd 12 17 d5 3c
       -0.02279388 -0.00987469 -0.09832103 0.026011977
000030 fd d6 dd 3c dc 5b 0a bd 26 23 b1 bc 8d 8b 2f 3c
       0.027080053 -0.03377901 -0.021623205 0.010714424
000040 71 e2 75 bd 22 3a 3f bd 5d 12 60 bc 5f c7 a3 3c
       -0.060030404 -0.0466863 -0.013676253 0.019992528
000050 8a 24 31 bd fa 0d 6f bd 91 1c a3 bd 84 66 31 bd
       -0.043247737 -0.05836294 -0.07964433 -0.043310657
000060 a4 69 97 bd 01 53 13 bc df 36 a7 bd e7 c7 04 3c
       -0.07393196 -0.008991958 -0.08164763 0.008104301
000070 54 ae 09 3c 12 8b 8c bd 80 5d 80 bd 5b 73 88 b8
       0.0084033795 -0.06862463 -0.06267834 -6.506472e-05
000080 1c 27 86 bd 66 84 28 3c 59 2f 53 bd c5 c2 25 bd
       -0.06550428 0.0102854725 -0.051558826 -0.04046895
000090 10 6a 03 bd a6 82 86 bd a4 5d a4 bd 8f 84 7d bc
       -0.03208357 -0.06567888 -0.08025673 -0.015473499
0000a0 fd 10 a3 bd 66 50 47 bd dd 2e b2 bd 5e 77 a2 bd
       -0.07962225 -0.04866066 -0.08700345 -0.07932924
0000b0 64 ea 58 bd 88 49 42 bd 07 20 32 bd f8 a1 a6 bc
       -0.052957907 -0.047433406 -0.043487575 -0.020340905
0000c0 18 9c be 3c 73 65 8f bd d7 02 02 bd 9b ab 84 3c
       0.02326779 -0.07001772 -0.03174099 0.01619511
0000d0 5c 5f ba bb 15 e0 a1 bc 0d 53 a0 3c 4f 92 87 bd
       -0.0056876373 -0.019760171 0.019570852 -0.06619703
0000e0 3a 63 c7 bc 82 e8 5b bd 21 89 49 3c 33 d5 9d bd
       -0.024339307 -0.053688534 0.0123007605 -0.0770668
0000f0 7b 61 f0 bb 44 d4 d6 3c 05 68 7e 3c 79 4a 95 bc
       -0.0073358393 0.026224263 0.01552773 -0.018223988
000100 07 fc 3d 3d 53 23 bd bc 39 5e 13 3d 96 2c 94 3c
       0.04638293 -0.023088133 0.03597853 0.018087666
000110 43 b3 4f bd 75 b2 a7 bd 95 36 05 bd af 41 fb 3c
       -0.050708067 -0.08188335 -0.032522757 0.030670969
000120 31 78 7d bd 04 44 26 bd 5c 8b 5a bd 67 fd 51 bd
       -0.0618822 -0.04059221 -0.05335556 -0.051267054
000130 2a f1 67 3c ab 84 85 bd e1 62 05 bd a6 f2 62 bd
       0.014156619 -0.06519445 -0.032565 -0.05540719
000140 44 4a c0 bd 86 06 a7 bc ba c5 4c bd f3 62 ad bd
       -0.09389165 -0.020388853 -0.049993254 -0.08466139
000150 c9 c6 70 bd 0e 80 80 bd b1 84 cf 3c e5 e6 b6 3c
       -0.058783326 -0.062744245 0.025331827 0.022326896
000160 96 eb c9 3c 90 a5 9f 3c 4b 4e 26 bb f9 e1 1a bd
       0.024648469 0.019488126 -0.0025376256 -0.03781316
000170 29 27 78 bc b8 2d 76 bc 71 94 25 bd b0 8a a2 bd
       -0.015146055 -0.015025549 -0.040424768 -0.07936609
000180 74 85 ad 3c 30 50 06 bd 6d 0d 3a bd ef 31 b7 bd
       0.0211818 -0.032791317 -0.04542296 -0.08945071
000190 ca 57 ae bd bf 77 c4 bd 12 77 9f bd 55 0f af bc
       -0.08512838 -0.09593152 -0.07786383 -0.021369616
0001a0 a3 ce 09 ba ff 32 76 bd 22 9c 1a bd 76 5e 09 bd
       -0.00052569265 -0.060107227 -0.037746556 -0.03353735
0001b0 71 56 a1 bd a3 6e 66 3c ec e8 a6 bd 81 ce 7a bd
       -0.078778155 0.014064464 -0.08149895 -0.061232094
0001c0 57 20 d9 3c 50 c2 4b bd a1 fd b3 bd 08 83 bd 3c
       0.026504679 -0.049745858 -0.0878861 0.02313377
0001d0 8f 96 25 3c 08 d8 92 bd b5 87 9c bd 19 44 85 3c
       0.010106697 -0.07170111 -0.076430716 0.016267823
0001e0 d5 f8 bc bd 4f e5 6d bd 91 12 90 bd 96 51 ea bc
       -0.092271484 -0.058080014 -0.07034791 -0.028603356
0001f0 a5 aa 69 bd 13 0a ff bc c6 2b c3 bd 4e c9 55 bc
       -0.057047505 -0.031132733 -0.095298335 -0.013048483
000200 e9 c1 cf bc c6 64 84 bc a1 a6 2d bc 23 63 bf bd
       -0.025361018 -0.016161334 -0.010598809 -0.09345081
000210 15 1b ac bd 5f c1 63 bd 0d 28 9d bd ba 1c 16 bd
       -0.08403603 -0.055604335 -0.07673655 -0.03664849
000220 8c 4b cc bd 3c 56 a5 3b 1c d4 88 bd d5 a5 5f bd
       -0.09975347 0.0050456803 -0.06681082 -0.05460151
000230 a9 07 a8 bc 74 2c b3 bc 2c 40 cc bd 86 a2 b0 bc
       -0.020511465 -0.021871783 -0.09973177 -0.021561872
000240 c8 ad bb bb 8e 66 6e bd 28 5f 9d bd d4 e5 b6 bd
       -0.0057275034 -0.058203273 -0.07684165 -0.08930555
000250 40 b8 38 bc 66 39 31 bc aa 96 1c 3c cb fb 5c bc
       -0.011274397 -0.0108169075 0.0095574055 -0.0134877665
000260 04 33 5b bd 06 7b 3a bd 60 16 ae bd 02 d6 c9 bb
       -0.05351545 -0.04552748 -0.085003614 -0.006159545
000270 06 7d b8 bd 7f fa 38 3c 5e d2 bf bc 36 f1 cf bc
       -0.09008221 0.011290192 -0.02341574 -0.025383573
000280 8e 6e 9b bb 26 42 b1 bd 97 8b fe bc dc 0c d2 bd
       -0.0047434038 -0.08655195 -0.031072421 -0.10256359
000290 05 9c ac 3c 36 20 1f bd f9 e2 ee 3c 0c 2b 48 3c
       0.02107049 -0.038849078 0.029160963 0.012217294
0002a0 9c d4 9b bd 61 7f af bd 70 ab 2d bd 9a 75 37 bd
       -0.076089114 -0.085692175 -0.042399824 -0.044789888
0002b0 09 27 c6 bc 1b 39 43 bd bc 83 83 b9 ed 5d a4 bc
       -0.024188535 -0.047661882 -0.00025084417 -0.020064319
0002c0 2f 99 99 bb fc ac 3d 3a f7 b0 0b bd 90 17 36 bd
       -0.0046874504 0.00072355545 -0.034104314 -0.044456065
0002d0 43 cc 27 bd ec 98 06 bd 33 5a a9 bd 13 ea 9a bc
       -0.040966284 -0.03286068 -0.08269157 -0.018910443
0002e0 d0 e4 dd 3b cd 99 0e bd ca 22 43 bd 09 8c 68 bd
       0.0067716613 -0.034814645 -0.0476406 -0.056774173
0002f0 c4 cd 98 bc bd ff bc bd 5b 98 c1 bc be 4c 13 3c
       -0.018652804 -0.09228466 -0.023632219 0.008990465
000300 74 cf d3 bd d5 13 b9 3c 85 08 56 3c 44 18 54 bb
       -0.10342303 0.022592464 0.013063555 -0.0032363096
000310 13 f2 4c bd 24 fc b0 bd 07 e7 bf bd 42 9d c7 bd
       -0.050035547 -0.08641842 -0.09370237 -0.097467914
000320 4d 7d ff bb f7 17 83 bc 09 a8 0d 3d 8c 8e a0 bd
       -0.0077969194 -0.016002638 0.03458408 -0.07839689
000330 ec 10 92 bc 5b e9 c6 3c cf 02 99 3c 00 fc 03 3c
       -0.017830335 0.024281194 0.018678097 0.008055687
000340 94 a7 b7 bd db 55 d4 3c 5c 0e 92 bd 37 16 41 3d
       -0.0896751 0.025919845 -0.07131645 0.047140326
000350 2b bf 08 be 86 ef 3d 3c 65 92 19 3d 28 10 4f bc
       -0.13354175 0.011592751 0.03749313 -0.012638129
000360 ac 0e 84 3d eb c2 85 bc 03 35 71 3c 13 82 20 bd
       0.06448111 -0.016328296 0.014722112 -0.03918655
000370 f4 db 8b 3d 65 20 8b 3d 17 13 e1 3c c9 1e e3 3d
       0.06829062 0.06793288 0.027474923 0.11089856
000380 82 e2 4e 3d 29 e6 b3 3c 86 ac c5 bc 4d ac 9a bc
       0.050508983 0.021960335 -0.024130117 -0.018880988
000390 4e 20 ec bc 4d 3d 37 bc de 17 3e 3a b4 20 b1 bc
       -0.028823998 -0.011184049 0.00072514813 -0.02162204
0003a0 4b bb 3d bc 99 77 67 be 3b 9e 72 bd 2a d4 4d bd
       -0.011580299 -0.22604217 -0.05923293 -0.050251164
0003b0 0f 86 1d 3c 9a 9c 96 bc 02 86 3b 3c fe 57 0e bd
       0.009614482 -0.01838522 0.011445524 -0.034751885
0003c0 36 dc a5 bc 70 a3 d7 39 d3 d8 23 be 6f 04 a2 bc
       -0.020246606 0.00041129766 -0.1600068 -0.019777505
0003d0 7c 0a 55 bd 67 31 dc 3c f2 99 b5 3b 14 a8 de bc
       -0.05201195 0.026879026 0.0055420334 -0.027179755
0003e0 07 51 81 3d 1b 1d 31 3c fd 11 14 bd f4 0a 49 bb
       0.06314283 0.010810162 -0.036149967 -0.0030676695
0003f0 4a 67 e6 bd 98 64 36 3c 58 9d db bc 0b 5c 29 3c
       -0.112501696 0.011132382 -0.026808426 0.010336886

bias f4 [64]
000000 2e 24 b4 bd 54 59 52 bd f8 fe 92 3d 5d 24 81 3e
       -0.08795963 -0.05135472 0.07177538 0.25223055
000010 0f 28 31 bd ee d4 83 bd 5e 14 15 be f9 de 27 3e
       -0.043251093 -0.064370975 -0.1455855 0.16393651
000020 07 c6 9a be cd fc 85 3d f2 ac 85 bd 42 7f 81 be
       -0.30229208 0.065423585 -0.06527127 -0.25292403
000030 59 6d 91 3e a4 0a b6 be cd 0e 35 3d 74 e3 36 3c
       0.28403738 -0.35554993 0.04420357 0.0111626275
000040 c7 ea 7c bd 03 49 4f 3e 2f ef 89 3d 35 50 30 3e
       -0.06174734 0.20242696 0.06735074 0.17218097
000050 97 8f a3 3d 39 9a 6d bd 40 e7 7f bd 16 88 83 3d
       0.07986372 -0.058008406 -0.062476397 0.06422441
000060 37 bf 29 bc bb 55 88 bd ff 26 00 3e 0f 5f 15 be
       -0.010360531 -0.06656977 0.12514876 -0.14587043
000070 6b 85 c6 3d 7d 16 cf 3d 9e 1f 07 3f f5 6e 27 3e
       0.09693416 0.10111711 0.5278262 0.1635092
000080 f0 84 3a bd 2e 8a 90 bd b7 60 e4 3d 62 33 7b bc
       -0.045536935 -0.07057606 0.111512594 -0.015332075
000090 d5 dd 08 be 51 a0 3a be 89 b4 0a 3e 0c b6 0f 3e
       -0.13365872 -0.18225218 0.13545431 0.14034289
0000a0 df 16 c9 bc 22 4b bb 3d b5 87 8c 3d e0 da dc bd
       -0.024547039 0.0914519 0.068618216 -0.107839346
0000b0 29 98 83 3e 78 3b 85 bc fd 99 e4 be 8a 27 30 3e
       0.25702026 -0.016263708 -0.44648734 0.17202583
0000c0 59 60 f2 bd 96 aa a6 bd 96 07 88 3e aa 38 a4 3d
       -0.11834783 -0.081380054 0.26568288 0.0801862
0000d0 02 6b ac be 4c 74 aa be 62 cd 23 3e 95 b4 4c bd
       -0.3367539 -0.33291852 0.15996316 -0.049976904
0000e0 41 20 3a bd fc 6b 3c be d1 4b b3 bd 57 d2 2b 3e
       -0.045440916 -0.18400568 -0.08754695 0.16779457
0000f0 36 bf 83 bc b1 eb bc 3d 75 6d 4e bd a2 35 b2 3d
       -0.016082387 0.09224642 -0.050397355 0.08701636

weight f4 [32, 64]
000000 d4 7c 0d bd 02 22 7b be 4d af d5 bf ac 75 59 bf
       -0.034542874 -0.24524692 -1.6694123 -0.8494518
000010 b8 5d d4 bc f4 76 81 be 5a 35 9e bf dd 0d 10 be
       -0.025923595 -0.25286067 -1.2360032 -0.14067788
000020 b1 f4 32 3e a1 eb 61 3e d9 77 83 3d f3 76 5c bf
       0.17476155 0.22062542 0.064193435 -0.86119
000030 d1 d9 df 3f b5 88 ca be c3 68 45 3e c2 96 1f bd
       1.7488347 -0.39557424 0.19278245 -0.038962133
000040 87 f2 3a be 2d 60 1f 3f 2a e8 87 3f a4 fc 17 3f
       -0.1825658 0.6225613 1.0617726 0.59369874
000050 91 f4 87 3e de 0b a0 3d a9 12 f4 3d 03 af 9a 3d
       0.26553777 0.078147635 0.11917622 0.07552912
000060 aa 34 b7 3d ea 82 60 3d 38 6a 8a 3d f8 24 2b bf
       0.08945592 0.05481235 0.06758541 -0.66853285
000070 3c b5 2a 3e f9 83 ed 3d 7d 3c d2 3f a2 66 3b bf
       0.16670698 0.115974374 1.642471 -0.7320348
000080 b0 82 e0 bd 60 40 44 bd 4a d5 7c be 15 87 a6 3e
       -0.10962427 -0.047912955 -0.24690738 0.32524934
000090 7b 33 b2 3d df c2 55 bf 4e 13 20 3f 6a 78 fb bd
       0.08701225 -0.83500475 0.62529457 -0.122788265
0000a0 20 56 84 3f 27 83 2c 3e 8d 34 ab bb b7 e4 42 bd
       1.0338783 0.16846906 -0.0052247704 -0.0475814
0000b0 73 db 81 3f 31 38 90 bd 7a 6a f7 bf 95 fd 16 3e
       1.0145096 -0.07041968 -1.9329369 0.14745171
0000c0 38 e7 75 be 69 6c 3d bf 67 5f be 3f a0 05 18 bd
       -0.24013984 -0.73993546 1.4872864 -0.03711474
0000d0 31 24 75 bf 89 4f ae bc ef d6 b3 bd d7 7a 34 3f
       -0.9575835 -0.02127816 -0.0878123 0.7049994
0000e0 8f 26 58 bd e7 f7 b4 3d 59 29 f9 be 94 3b 18 3f
       -0.052771147 0.08836346 -0.48664358 0.5946591
0000f0 1a ad d1 3b c0 cc 48 3e bf c5 4d be b6 2a d3 be
       0.006398809 0.19609356 -0.20094965 -0.41243523
000100 87 d8 a9 bc 5e 14 a1 bd db 0d 08 be fa f2 46 3e
       -0.020733131 -0.07865213 -0.13286535 0.19428626
000110 38 a0 83 bc 45 17 92 3e a6 da a1 3e 5c f9 06 3d
       -0.01606761 0.28533378 0.31612128 0.03295265
000120 e3 f0 5a be b3 9e b4 3d dd 1b e1 3b 74 de 4f be
       -0.21380953 0.08819332 0.0068697766 -0.20299703
000130 68 84 47 bd 55 40 88 bd 05 ef 8a 3d 6e 36 76 bc
       -0.048710257 -0.06652895 0.067838706 -0.0150276255
000140 72 ba 47 be 19 fb 1b be ab 07 10 3e ee 78 47 3e
       -0.19504717 -0.15232505 0.14065425 0.19479725
000150 18 6f 95 be 83 e1 b5 3d 65 80 ec 3c 43 33 8a 3a
       -0.2918632 0.088809036 0.028869817 0.0010543842
000160 f0 a8 3d 3d 51 8e 2c be 48 53 07 3e 56 a6 35 be
       0.04630369 -0.16851164 0.13215363 -0.17739233
000170 63 95 15 3e ca 07 f2 3d 05 e7 5e bd 35 02 56 be
       0.14607768 0.11817892 -0.054419536 -0.2089928
000180 86 bb 0d be b6 76 07 3e 21 b6 86 bd 9d f7 91 bd
       -0.13841066 0.13228878 -0.06577707 -0.071273066
000190 5e 11 4b be 00 28 39 3b 22 d8 93 3e f0 0f 3e 3e
       -0.19830844 0.0028252602 0.28875834 0.18560767
0001a0 df f9 87 3e 31 55 e2 3d ab d3 75 3d 53 4d 07 be
       0.26557824 0.11051405 0.060016315 -0.1321309
0001b0 26 6c 94 bd 50 ce a8 bc 26 cb b4 3d cf d7 17 be
       -0.0724719 -0.02060619 0.0882781 -0.14828418
0001c0 09 2c 34 be cd 3e 60 3e bf e2 4d 3f d0 eb 0a be
       -0.17594923 0.21898957 0.8042411 -0.13566518
0001d0 c0 d4 e0 3d b9 ed dd bd bd 1b 79 3d d4 ee 4a 3e
       0.10978079 -0.108363576 0.06081747 0.19817668
0001e0 76 51 ef 3d b8 02 3f bd 8c 74 ca 3c 3c f2 f4 bc
       0.11685459 -0.046633452 0.024713777 -0.029900663
0001f0 8f e3 11 3d bb fa 0a 3e 45 89 bc 3d 4b b2 7f be
       0.035617407 0.13572209 0.092058696 -0.24970357
000200 4b bd af bd cc b2 3b be aa 0d 6d 3e 7e 0f 1f 3e
       -0.08581027 -0.18329924 0.23149744 0.15533254
000210 2e 24 bd 3c 4d 3a 4c 3c a6 04 00 bf 94 f2 26 3f
       0.02308854 0.012465072 -0.5000709 0.65213895
000220 27 bd b0 be 9e 0c 85 3d 6b 53 64 bd b2 f6 48 be
       -0.34519312 0.06496547 -0.055743616 -0.19625357
000230 68 05 03 3f 54 38 fd bd fb 9e 85 3c 09 55 4d 3d
       0.51180124 -0.12364259 0.01631116 0.050129924
000240 12 31 89 bc 37 e4 8f 3e bc be f1 3e 30 0a 8d 3d
       -0.016747031 0.28103802 0.4721583 0.06886709
000250 0b 5a ef 3d 3f 30 dd bd 1f e7 36 bc e2 2d 19 3d
       0.11687096 -0.10800218 -0.011163502 0.037397273
000260 57 81 8d be 8c f1 a2 be 39 01 23 3e fd 07 b8 bd
       -0.2763774 -0.3182491 0.15918435 -0.08985899
000270 a6 fd 8c 3d be ca b0 3c d3 83 3d bc f7 39 1d 3e
       0.06884317 0.02158105 -0.011567074 0.15354143
000280 6c 38 10 be 53 39 06 be 00 54 7b 3d 2e de ee 3d
       -0.14084023 -0.13107805 0.061359406 0.11663471
000290 c0 9b 29 be 77 5e 6d be 6b 82 73 3e 60 86 e8 3d
       -0.1656332 -0.23180567 0.2378022 0.11353755
0002a0 67 79 97 3d a3 9f e0 3e 8a 21 7c bc fc 46 46 be
       0.073962025 0.43871793 -0.015388856 -0.19363016
0002b0 e2 f8 08 bc 1d 7d a5 3c a9 f4 10 3e 28 da 8a 3e
       -0.00836012 0.02020126 0.1415583 0.27119565
0002c0 94 ae 2d be f3 1b 88 3b b9 0d 8f 3c 30 7a 46 3e
       -0.16961128 0.0041537224 0.017462598 0.19382548
0002d0 5d 24 6b be 18 04 18 be f9 a7 76 3e 5d f5 88 3d
       -0.2296309 -0.14845312 0.24087514 0.06687424
0002e0 f3 b1 e1 bd 64 6a 2a be 95 0d 87 be 01 1b 6e 3e
       -0.11020269 -0.16642147 -0.2637755 0.23252489
0002f0 a9 b8 64 3d 18 28 d4 bd 46 c0 53 be a6 3c 4f 3e
       0.05584017 -0.1035921 -0.20678815 0.2023798
000300 42 32 e6 3c 3b 8a 1c bb 88 9e 01 be c0 29 65 bd
       0.028100137 -0.0023886103 -0.12658131 -0.05594802
000310 56 29 b5 bd ff f0 fe 3d fe 7c 9d 3d 38 4b cb bd
       -0.08845775 0.1244831 0.07689856 -0.09926456
000320 fe a3 97 bd b4 f7 21 3d 2f e6 28 be 33 31 17 3e
       -0.07404326 0.03954287 -0.16494058 0.14764862
000330 41 a9 9e 3d 85 b9 4b be b2 0c c0 bc 6b 76 0a be
       0.07747126 -0.19894989 -0.023443554 -0.13521735
000340 74 77 9d bd ee ed 6c bd 07 de 0c 3e 28 b4 05 3e
       -0.076887995 -0.057844095 0.13756572 0.13057005
000350 b8 4f 91 be f0 18 7c 3d c7 84 f2 bd ad 5b 80 bc
       -0.28381133 0.06154722 -0.118417315 -0.015668714
000360 da 62 94 3c f5 22 e7 3d 7d c8 42 3d 57 b7 2a be
       0.018113542 0.112859644 0.04755448 -0.16671501
000370 89 93 77 3d 67 17 6e 3d 28 24 7d 3d fc 89 fb 3d
       0.060443435 0.058127787 0.06180206 0.12282178
000380 8b 9b 91 3d d7 8b 1c 3e 9e 99 e3 bd 0b 7b 26 be
       0.071097456 0.1528772 -0.111132845 -0.16257875
000390 c2 9b 8e bc 01 9c 62 bd bd e2 f5 3d dd a8 80 bd
       -0.017408255 -0.05532456 0.120061375 -0.06282208
0003a0 e2 76 95 3d 80 19 6e bd 2a 42 88 3c 18 e4 01 3d
       0.07298066 -0.058129787 0.016633112 0.031711668
0003b0 ec dc 33 bd 4a c2 52 3e 34 21 7e bc 5a 0e 01 be
       -0.04391186 0.20581928 -0.015510846 -0.12603131
0003c0 d4 7f 3c 3a 42 6a 85 3e 99 33 d0 be 49 1c bd bd
       0.0007190679 0.2605763 -0.40664366 -0.092339106
0003d0 1d 12 7d bc b9 5a c6 3d eb 3e df 3c 7f 80 e8 3d
       -0.015446213 0.09685273 0.027251681 0.11352634
0003e0 14 a4 10 3d 21 34 81 bc cf 77 cd bd 18 2d 3f 3d
       0.035312727 -0.015771927 -0.10032617 0.046673864
0003f0 38 1c ec bd 2d 56 d8 3c 63 c5 92 bd 3f f6 25 3c
       -0.1152882 0.02640828 -0.07166555 0.01012951

bias f4 [32]
000000 38 28 2d 3e e7 78 27 bd 6d 27 f5 3d fa dd e8 bb
       0.16909873 -0.040886786 0.119704105 -0.00710654
000010 df 6e e4 bd cf 39 3e 3d 1f 14 bf bd 13 39 72 3d
       -0.111539595 0.04644185 -0.0933001 0.05913646
000020 6d c2 9e bd 7c 04 d0 bc b3 26 19 3d bd 0d 76 bd
       -0.077519275 -0.025392763 0.037390422 -0.060071696
000030 9c e7 a7 3d 7a f7 02 3e a4 68 d6 3d 3d 0e 11 3d
       0.08198473 0.12789717 0.10469177 0.03541397
000040 68 67 9b bb ec 91 fc bc eb 92 65 bd fc e8 5d 3c
       -0.0047425516 -0.0308313 -0.056048315 0.013544317
000050 f9 bd 84 bd e0 b0 ce 3d 54 a7 b7 bd bd 9f 79 bd
       -0.06481547 0.1009233 -0.08967462 -0.060943354
000060 47 5b 7c 3d d4 41 71 3d cc c6 4d 3d c4 27 5b bd
       0.061610486 0.05890067 0.050238416 -0.05350472
000070 be 3d 15 be e5 a7 60 3d 53 58 9b 3d 51 be ff bd
       -0.14574334 0.054847617 0.07585206 -0.12487472

weight f4 [1, 32]
000000 0d 9e 84 bf 07 b6 ca be 91 53 af be 48 bb 9e be
       -1.0360733 -0.39592 -0.34243444 -0.3100226
000010 9d 1c af be 1e 58 a3 3e 8a 6b ca 3e 84 bc f1 be
       -0.34201518 0.31903166 0.3953517 -0.47214139
000020 7c a8 9e 3e 8b 0c 0b 3f 5b 89 4d 3f 57 2a 96 be
       0.30987918 0.54316014 0.8028771 -0.29329178
000030 8b db 4f be 5b 90 a1 be e7 7c 2f bf 64 e7 29 bf
       -0.20298593 -0.31555447 -0.6854996 -0.663687
000040 aa 42 f9 be 28 f0 db 3e 30 6f 92 3e 78 39 c5 be
       -0.48683673 0.42956662 0.28600454 -0.38520408
000050 ac db b1 3e b6 19 2d 3f bb 1d 8d 3e d4 ac 8c 3e
       0.3473791 0.67617357 0.27561745 0.27475607
000060 82 24 c5 be 7c da c0 3e 69 d2 b8 3e 9d 86 b1 3e
       -0.38504416 0.3766669 0.3609803 0.34673014
000070 12 c9 c1 3e bb ef bc be 0d 74 99 be 8c bf 22 bf
       0.37848717 -0.3690165 -0.29971352 -0.6357353
