chignolin/models/model_iter1_q.pt (torch, 76695 bytes, 5 tensors)

weight f4 [64, 210]
000000 84 18 52 3d 42 42 04 3e 54 94 30 3b 72 bb 09 bd
       0.05129291 0.129159 0.002694388 -0.033626027
000010 ed 57 0c 3d 44 6a 1e 3c 2d b8 36 bc f3 f9 bd bc
       0.03426354 0.00966889 -0.011152309 -0.023190474
000020 05 3c 5e 3c c0 92 b8 3d 58 80 9d bc 2a 74 26 3d
       0.013564114 0.09012365 -0.019226238 0.040638126
000030 a8 65 69 3d 0b b7 cc 3b 03 57 30 bd 52 b3 c3 b9
       0.056981713 0.0062474064 -0.04305173 -0.00037326902
000040 5d ed 5c 3d d1 87 79 bc d3 5b 58 bd 8a 53 7f 3c
       0.053937305 -0.015230135 -0.052821945 0.015583882
000050 b8 e4 9d 3d 3c 20 a2 3d ac 44 02 bd 4a 6c 82 39
       0.0770964 0.079163045 -0.03180377 0.00024876214
000060 16 51 d0 3c 45 bf a7 3d 54 a3 2e bd d6 6d 29 3d
       0.02542929 0.08190779 -0.04263623 0.041364513
000070 23 6f 2e 3c 5a 30 5f 3a 49 cb c5 3c 48 d0 fc ba
       0.010646614 0.000851398 0.024144785 -0.0019288147
000080 a8 ee d3 bc 7b 32 ad 3c 89 25 3f 3c ed 27 bb 3d
       -0.025870636 0.021142235 0.011666664 0.091384746
000090 0b ec ed 3d 21 bb 45 3d aa 14 f2 3d f5 21 ac bd
       0.11617287 0.048274163 0.118203476 -0.08404914
0000a0 a8 d0 b0 bc fc f1 18 bc a9 16 c5 bd ba b6 1c 3d
       -0.02158387 -0.009335037 -0.09623463 0.0382602
0000b0 92 04 7d 3d b4 a2 43 bc e0 dd 01 bd 21 9d a2 3d
       0.061771937 -0.011940647 -0.031705737 0.07940126
0000c0 72 25 d0 bd f2 b6 62 3d 28 e9 08 3d e3 28 8a bc
       -0.10163392 0.05535025 0.03342548 -0.0168652
0000d0 43 3f bd 3d 28 f0 50 bd ae 96 d9 bc d6 de 1e bd
       0.09240582 -0.05101028 -0.026561107 -0.03878673
0000e0 1f c0 ac bc 62 d9 55 bd fe 16 2e 3c 2e e7 1a 3b
       -0.021087704 -0.052209266 0.010625599 0.002363633
0000f0 cd e7 9a bc 6f 1c 10 bc 9c 51 14 3d 78 4d d5 3b
       -0.01890936 -0.008795842 0.03621064 0.006509479
000100 a7 25 9d bd 0f c4 32 bc fb ba 8a bc 1e 1a 32 bd
       -0.07673197 -0.010911002 -0.016934862 -0.04348194
000110 d9 f0 8b 3c ec aa 9e bd 99 ff 96 3c 77 24 9e bc
       0.017082619 -0.077474445 0.018432425 -0.019304497
000120 55 c4 b8 bd ef f1 9c bd da 3a b2 bc 19 12 03 3c
       -0.09021822 -0.07663333 -0.021756578 0.00799992
000130 d9 88 33 bc 1d da 76 3d 4c 1d 4b 3d 0f 36 ad bc
       -0.01095792 0.060266603 0.049588487 -0.021143941
000140 0a ec 78 bd 5e a2 5d bd cc dd ca 3c 8f 8e 82 bd
       -0.06077198 -0.054109924 0.024763964 -0.06374847
000150 6b e7 38 3d 6e b4 c6 bc 36 a9 bb bc 8d 9a 02 3b
       0.045142572 -0.024255957 -0.022907835 0.0019928545
000160 1c f2 eb 3c eb ea 96 bc 08 db 02 bc dd ba 93 bc
       0.02880197 -0.018422564 -0.007986791 -0.01803344
000170 32 d4 3e bc 76 4c 74 3d 82 da be bd 32 44 a8 3d
       -0.011647271 0.05964323 -0.09319021 0.08216132
000180 31 2f 1f 3d 80 08 2b 3d a9 95 46 3d 65 1c 2d 3d
       0.038863365 0.041756153 0.04848257 0.042263407
000190 7b 09 ef 3c 19 e6 ed bd 7c d3 24 bd 9d bd a5 bb
       0.029179325 -0.11616153 -0.04024075 -0.005058004
0001a0 59 92 97 3d 77 1f 4a 3d 3c cf ea 3c 97 b9 1a 3c
       0.074009605 0.049346413 0.02866327 0.009443662
0001b0 9f 28 a1 3c 04 fe 61 3d b0 5f c9 bd eb 5d 43 bd
       0.01967269 0.05517389 -0.09832704 -0.04769699
0001c0 d4 23 e2 bc 7e 64 60 bd c2 c7 08 3d b4 c0 38 bd
       -0.027604975 -0.054783337 0.03339363 -0.04510565
0001d0 f8 f9 7a 3c a5 f9 64 3c ea d5 a3 3d 92 4a ba bc
       0.015318386 0.0139755355 0.07999785 -0.022740636
0001e0 29 cb 70 3d 1f af 30 3d 5e ab a0 bc 7d e8 13 ba
       0.0587875 0.04313576 -0.019612964 -0.00056422484
0001f0 e9 56 7c 3d f2 fd 1f bd 07 57 10 bc e8 ab 85 3b
       0.06160632 -0.03906054 -0.008809811 0.0040793307
000200 51 48 f0 bc 79 cb ba 3c 49 34 12 bd fa dd a9 3d
       -0.029331358 0.022802101 -0.035694394 0.08294292
000210 39 49 ff bb 07 f4 3b bd 3b ff 8c bd a0 97 5f 3d
       -0.0077907112 -0.04588702 -0.06884619 0.05458796
000220 e2 af 55 3d 4a 83 10 bd f5 6b 38 3d 16 25 6e 3c
       0.052169688 -0.035281457 0.04502483 0.014535209
000230 e4 5a 94 bc be 66 7b bc d4 32 a6 3c 55 a7 c9 bc
       -0.018109746 -0.01534432 0.020287909 -0.024615923
000240 2d 76 a1 bd 10 03 b3 3b 3b f2 ec bd 2f 13 70 3d
       -0.07883868 0.0054630116 -0.11569639 0.058612045
000250 94 f3 2f bd 7d 93 4b bb c9 12 17 bd 30 a8 0f 3c
       -0.042956904 -0.0031063252 -0.03688315 0.008768126
000260 46 86 4a 3c 39 5f 24 bd d3 1c 18 3d e4 9d 0b 3d
       0.012361115 -0.040129874 0.037136864 0.034086123
000270 30 c4 6c bd dc 49 d9 3c 52 39 8d 3d 4e 45 e9 3b
       -0.057804286 0.026524477 0.068956986 0.0071188575
000280 6d 24 c2 3d d0 36 b7 3c ad df 27 bd 60 57 9f bd
       0.09479604 0.022365004 -0.0409848 -0.07780337
000290 ba 38 28 bc 66 bc 94 3c 84 aa 4c 3c 49 bf d4 3d
       -0.010267431 0.018156242 0.012491826 0.10388047
0002a0 88 b1 19 3e 0a 67 19 bd f0 79 ba 3d 8b 67 8b 3c
       0.15009129 -0.03745178 0.09105289 0.017017147
0002b0 f9 fe ce bc 2c e2 1b 3d e3 46 b2 3d 2d 08 21 3d
       -0.025268065 0.03805749 0.08704927 0.039314438
0002c0 0e 03 95 bd ae 34 8a bd 10 53 40 bd 83 50 19 3d
       -0.07275973 -0.06748329 -0.046954215 0.037430298
0002d0 e2 6c 37 3d 90 c6 9e 3c ce 18 16 bd 32 14 eb 3c
       0.044781573 0.019381791 -0.03664475 0.028696153
0002e0 f1 79 55 3d 4d 07 86 3d 7d 2c b1 bc ff 35 ec 3b
       0.052118246 0.06544361 -0.021627659 0.0072085853
0002f0 c3 3d 53 3c a0 d3 b4 bb 73 d1 9d bd c1 25 bc bc
       0.012893143 -0.0055183917 -0.07705965 -0.022967221
000300 3c 57 b5 3d b9 02 38 bd 62 52 ec bc 24 7a 1a bd
       0.08854529 -0.04492447 -0.028847877 -0.03771414
000310 24 b0 fd bb 87 a1 f6 3b 09 8c c7 3d 0c 11 ca bb
       -0.007741945 0.00752658 0.097435065 -0.006166583
000320 b6 e9 e3 bc 38 f9 9a bc 15 cd 67 bd c1 d9 21 bd
       -0.027821403 -0.018917665 -0.056592066 -0.039514307
000330 e5 84 3b bd 63 7b 49 bd bb 01 87 3d 80 aa 9a 3d
       -0.045781035 -0.049189936 0.06592127 0.075520515
000340 45 e2 d5 ba fd cc 53 3d 9d 35 c2 b9 06 b8 0a 3d
       -0.0016318044 0.051709164 -0.00037042508 0.033866905
000350 52 96 08 bc dd 47 b4 3c 81 05 5c bd 09 8e af 3d
       -0.00833662 0.022006923 -0.053716186 0.08572013
000360 80 bf c9 3d 45 aa 55 3d a6 51 b5 bd c4 85 60 3d
       0.09850979 0.052164335 -0.08853464 0.05481507
000370 78 31 ac 3d c8 04 f5 3d 44 92 a5 3d e0 fb 89 b9
       0.08407873 0.119638026 0.080845386 -0.00026318338
000380 28 fa a1 3c 2c 44 94 3d cf 20 6a 3d a1 26 3f bd
       0.019772604 0.07239565 0.057160195 -0.0466677
000390 bc 9a 93 bd ec 8e 76 bd b1 b5 6c 3b e0 42 7a 3d
       -0.072072476 -0.060194895 0.0036119039 0.061098933
0003a0 0b b9 00 3e bb 17 44 bc be 40 80 bd 81 d3 3a bd
       0.12570588 -0.011968548 -0.062623486 -0.045611862
0003b0 45 44 68 3b 8b c2 03 be cf d2 82 3c 8c 97 7c 3d
       0.0035441082 -0.12867181 0.015969662 0.061667964
0003c0 eb cd 89 3d 46 02 8c 3c 1f ff 73 bd 0e 80 3e 3d
       0.06728729 0.017090928 -0.059569474 0.04650884
0003d0 ed 27 b4 bd 32 df 61 bd e0 b5 82 3c 62 fb 06 be
       -0.08796678 -0.055144496 0.015955865 -0.13181832
0003e0 f9 c0 74 3d 23 1d 42 3c e9 f3 81 3d 38 2e af 3d
       0.059754346 0.011847767 0.0634535 0.085537374
0003f0 f3 d1 ab 3d 61 ba 5d bd c5 4f d5 bc f0 b9 56 3d
       0.08389654 -0.054132823 -0.026039014 0.052423418

bias f4 [64]
000000 ec 86 5f 3d 31 57 4b be 21 1b 9d bd ed 08 a5 3d
       0.05457203 -0.1985748 -0.0767119 0.08058343
000010 c2 3a a9 bc ec d9 e2 bd b1 6c be 39 53 00 49 3e
       -0.0206579 -0.110767215 0.00036320605 0.1962903
000020 60 1d 11 3d 3a 35 8e 3d 5a e5 c9 bd 93 42 66 3d
       0.035428405 0.06943746 -0.098581985 0.056215834
000030 01 8c 4e be dc fe 86 bd e8 90 36 bc d5 54 ad bc
       -0.20170595 -0.06591579 -0.011142947 -0.021158615
000040 75 2e 1d 3f 1a bb d5 3d 5d da b2 bc 49 98 23 3e
       0.6139901 0.104360774 -0.02183264 0.15976061
000050 c8 b0 32 bd 30 00 89 3c d0 36 0d 3e 54 da f3 bd
       -0.043625623 0.016723722 0.1379044 -0.11906877
000060 b5 cf 9d 3d 80 4c e6 3c 4d e2 8b 3a 18 68 eb 3d
       0.077056326 0.02811265 0.0010672301 0.11494464
000070 5c 05 a2 bd 7b b2 25 3e a1 47 72 bd c6 77 04 bd
       -0.079111785 0.16181366 -0.059150342 -0.032340787
000080 b1 bb 8f bd f2 25 ad 3e c5 f9 a9 be 73 e1 76 be
       -0.07018221 0.33818012 -0.33198372 -0.2410944
000090 f8 01 b9 3c bc db 10 3d 3a 00 d0 bd 2e 97 df bc
       0.022583947 0.035365805 -0.10156293 -0.027293768
0000a0 99 e0 9f 3d 92 8d 05 be b8 63 1e 3d 13 1d 15 be
       0.078065105 -0.13042286 0.038669318 -0.14561872
0000b0 b3 20 ae bd 26 cb 6b 3c 26 a8 9f bd a5 a9 33 3e
       -0.08502331 0.014391696 -0.07795744 0.17545183
0000c0 ec e5 69 bc f7 ad d9 bd 3b da 94 bc 26 36 36 be
       -0.014276009 -0.10628884 -0.018170467 -0.17794093
0000d0 52 9c a7 3c ea 08 f2 3c cb ab 07 3e 38 90 bf 3d
       0.020460282 0.029545266 0.13249128 0.093536794
0000e0 c3 8a 1c 3e 5f 85 2d 3d 3f 8f c1 3d d5 a3 ed 3d
       0.15287308 0.04236352 0.0945115 0.11603514
0000f0 da 03 97 bc ed 63 b2 bd 4c fd 34 bd 9e 95 83 bd
       -0.018434454 -0.087104656 -0.044186875 -0.064250216

weight f4 [32, 64]
000000 7d 43 23 3e d6 67 fb bd c4 71 19 be ef 5f 41 bd
       0.15943713 -0.122756645 -0.14984804 -0.04721063
000010 f7 23 c5 bc 8f 1d 1d bc 45 36 bd bb ef 76 3a 3c
       -0.024065001 -0.009589567 -0.0057742917 0.011380895
000020 78 e8 70 3b d9 04 c0 3c 14 c0 8b bd a3 1e cb 3d
       0.0036759656 0.023439812 -0.06823745 0.09917953
000030 5a aa 05 bd ee 44 b3 bd 64 66 a0 bd bc f0 96 3d
       -0.032633163 -0.08753382 -0.078320295 0.07370135
000040 15 b4 81 3e 66 45 d4 3c b1 61 6c bc 2d f6 1d 3d
       0.25332704 0.025911998 -0.014427588 0.03856485
000050 af 73 c2 bd 5e 05 17 bc 2b 5b 7e bd a1 73 e1 bd
       -0.09494721 -0.009217588 -0.062098663 -0.110083826
000060 02 70 81 3d 2a 35 c5 3d 52 35 a1 3d 53 5b 63 ba
       0.06320192 0.09629281 0.07871498 -0.0008672971
000070 cf cb 83 bd 49 24 a6 3d c7 40 67 3d 83 0a f0 bd
       -0.06435358 0.081123896 0.05645826 -0.11720755
000080 8c b5 ad 3c f0 98 ff 3d c7 b1 1b 3d a9 68 dd 3c
       0.021204732 0.124803424 0.03801134 0.027027445
000090 00 d3 4e bd 91 6e 66 3d 3f 8f 81 bd af ca 72 3d
       -0.050494194 0.056257788 -0.0632615 0.059275325
0000a0 22 c4 93 3d b3 21 fa 3b 4f da 68 bd 9d 68 37 be
       0.07215144 0.007633412 -0.05684882 -0.17911
0000b0 38 6e 00 bd 34 0c 53 3d 71 da 96 3d 89 12 53 3d
       -0.031355113 0.05152531 0.07365883 0.05153135
0000c0 1d 11 bf bd cf a0 57 3e 48 cd f5 3a 7d 2e 82 3e
       -0.09329436 0.21057437 0.0018753195 0.25426093
0000d0 a1 15 90 3d 0e ad b2 3d 24 d7 8a 3c b4 93 bc bd
       0.070353754 0.08724414 0.01694829 -0.0920786
0000e0 d2 0c 85 3c 79 7a 75 3d f5 2a 9b 3d 16 97 49 bd
       0.016241465 0.059931252 0.07576553 -0.049216352
0000f0 cc 0d 67 bd 49 9f 07 be 13 80 1e be 31 60 45 3d
       -0.056409642 -0.13244356 -0.15478544 0.04818744
000100 1a e1 9f 3c f5 6c 86 3e 85 15 3d bd 50 6b 75 bd
       0.019516516 0.26255003 -0.0461631 -0.059916794
000110 8c d5 81 ba 1f bc 23 3d dc 7a b1 3e 85 4b 4b be
       -0.0009905561 0.039974328 0.34664047 -0.19853027
000120 59 56 b7 bd b8 2a 74 be 9d de 24 3e 22 26 99 bd
       -0.089520164 -0.23844421 0.16100545 -0.074779764
000130 b7 e8 98 3d 8f 9c 23 3e 7b 77 8d 3d 93 6b 80 be
       0.07466262 0.15977691 0.06907555 -0.25082073
000140 9a a4 c7 be 0e dd 0b 3c 88 46 c5 3e e0 6b 91 bd
       -0.3899277 0.00853659 0.38530374 -0.07100654
000150 f9 a9 b9 3d 82 9c db 3d 8b b8 07 bd a8 e2 a5 3c
       0.09065623 0.10723211 -0.03313498 0.02024968
000160 4c f6 81 bc 3a 3e c1 3d 2f 42 cd 3c ff 4a 3d be
       -0.015864514 0.09435697 0.025055973 -0.1848564
000170 e2 59 96 3e 73 fc a5 be 0e 78 1d 3d 56 d7 ff bd
       0.2936545 -0.32419166 0.03844457 -0.12492244
000180 7a 38 02 bb 04 fa 61 bf f7 2d 85 be ec db b8 3d
       -0.0019870088 -0.8827212 -0.2601163 0.09026322
000190 aa af 15 bd e6 0b 3d bd 74 1d 23 bd e4 28 8b 3c
       -0.03654448 -0.046153925 -0.03982301 0.016987272
0001a0 1d 27 8f bd ba b7 a3 3e ec 55 86 be 4d ec fd 3d
       -0.06989882 0.3197611 -0.26237428 0.123985864
0001b0 bb 91 1d 3e 14 50 67 be cf 26 fc bc 7a ce a6 be
       0.15387623 -0.22589141 -0.030780224 -0.32579404
0001c0 9c 47 34 bd 88 e7 0c 3e 27 aa 32 be 83 75 28 be
       -0.044013605 0.13760197 -0.1744772 -0.16451077
0001d0 85 59 1c 3d f2 40 87 bd c9 74 87 bd ce 08 8b be
       0.03817131 -0.06604184 -0.06614072 -0.27155155
0001e0 0a 5e ef bd 57 87 14 be 28 d3 01 be 24 fd 66 bf
       -0.116878584 -0.14504753 -0.12678206 -0.9023001
0001f0 7e 33 44 3d b5 32 ab 3e 16 bc 6c 3e 26 2d b3 ba
       0.04790067 0.33437124 0.23118624 -0.0013670071
000200 98 ca d2 3b d2 ff 40 3d 60 f1 80 3c f1 1a b1 3d
       0.0064328425 0.04711897 0.015740097 0.08647717
000210 c8 bd eb 3b 20 02 95 3d 33 1f f8 bd cb fd 7b bd
       0.0071942545 0.07275796 -0.12115326 -0.061521333
000220 3b f5 68 3d 8d ce 4a bd 42 3b f1 bd 75 cc 8c 3d
       0.056874495 -0.04951339 -0.11778881 0.068749346
000230 ee 16 0a be 6a 91 91 3d 34 27 fe bd 76 35 98 3d
       -0.1348531 0.07107814 -0.12409821 0.07432072
000240 b7 50 3a 3e 8d 2f 4a 3d 35 35 74 3b 24 eb 06 3d
       0.18194853 0.049361754 0.003726316 0.03293909
000250 36 fd 39 bd c4 11 75 bd db ab 43 be 25 51 f0 bc
       -0.045407496 -0.059831396 -0.19108526 -0.029335568
000260 bd cb a7 3d 1d f3 0b 3d 83 52 98 bc 63 19 54 3e
       0.08193157 0.034167398 -0.018594032 0.2071281
000270 dd e3 ab bb 75 b0 b0 bd ff 5c dc bd 2b 88 b3 3b
       -0.0052456693 -0.086274065 -0.10759925 0.005478879
000280 11 1c a9 bc b5 7d 3f be b0 0b 80 3e 7b d6 c7 bd
       -0.020643266 -0.18700297 0.25008917 -0.09757706
000290 55 0f bc 3d 09 9d 41 3d ac 30 9d bb f5 08 5c be
       0.09182612 0.0472689 -0.004797062 -0.21487792
0002a0 03 70 1e bd 44 35 45 bd 14 3e 55 be fd 89 a6 bd
       -0.03868104 -0.0481465 -0.20824462 -0.08131788
0002b0 f7 6c b8 bd 9e e9 4b ba 06 67 1b 3d 8b 39 93 3d
       -0.090051584 -0.0007778647 0.037940048 0.0718871
0002c0 67 3b 57 bc fb 23 5f 3e 7a 29 42 be 55 68 74 3c
       -0.013136721 0.21791069 -0.18961135 0.014917453
0002d0 65 eb 98 bd fc 1f 10 be c0 4c 76 3d 64 7d 8b be
       -0.07466773 -0.14074701 0.06013179 -0.27244103
0002e0 2a 68 c7 3d a7 16 db 3d 7f 98 66 bc 85 40 3a 3e
       0.097366646 0.1069768 -0.014074444 0.18188675
0002f0 d1 c4 a3 bd d0 dd f8 bd fa 53 09 bd ce 54 e3 bc
       -0.07996524 -0.121516824 -0.033527352 -0.027750399
000300 f6 39 99 3d da ea 47 3e 9d de 91 be e2 29 fd bd
       0.07481758 0.19523183 -0.28490153 -0.12361504
000310 ea 42 31 bd 60 f5 7b bc b8 64 88 3e f4 62 eb bd
       -0.043276705 -0.015378326 0.26639342 -0.11493483
000320 b7 56 b1 bd 1a b2 ed bd 53 db 35 bd ef c6 10 bd
       -0.08659118 -0.11606236 -0.044398617 -0.035345968
000330 30 7c 0b 3e e7 f7 b3 bd 8e 63 b6 3d 14 f7 aa bd
       0.13621593 -0.08787518 0.08905707 -0.08347908
000340 e9 5b d6 be 95 9c 0f be d9 b4 56 be 57 d9 75 be
       -0.41866997 -0.14024575 -0.20967425 -0.2400869
000350 62 58 35 bd 03 57 19 be d9 c9 f5 bb 97 18 36 bc
       -0.04427374 -0.14974599 -0.0075008688 -0.011114261
000360 ae 8b 8e bd 0f 6e 7e bd 23 d0 8c 3d c7 66 86 bd
       -0.069602355 -0.06211668 0.068756364 -0.06562572
000370 87 fc 8e 3d b4 f7 15 be 63 cd 24 3e a2 7a 6f 3e
       0.069817595 -0.14645272 0.16093974 0.23386624
000380 56 c6 48 bd 97 be b3 bc 0f ad 13 3f 65 a7 7f 3e
       -0.049017273 -0.021941466 0.5768594 0.249662
000390 01 0f e0 3c 2f 31 ba bd b2 3f f0 bc 48 e6 44 3e
       0.027350904 -0.09091412 -0.029327247 0.1922847
0003a0 99 da 47 bd 36 66 b2 3d 8e e3 22 3e 69 4c 88 3e
       -0.048792455 0.087109014 0.15907118 0.26620796
0003b0 12 83 5e 3e 1e da fa bd c3 a9 b1 3d 5b 25 2c bd
       0.21729687 -0.12248634 0.086749576 -0.042027812
0003c0 11 2b 65 3c c1 39 00 bc 4b 20 c8 3e 53 58 fc 3e
       0.013987319 -0.00782627 0.39087138 0.49286136
0003d0 f4 5f d7 3d 81 ad 0e 3e 74 86 4a be be ca 9a 3d
       0.105163485 0.13933374 -0.19777852 0.07558201
0003e0 2d c8 63 3d e9 f4 ba 3d 5d 6f 7d 3c a3 66 9e be
       0.055610824 0.09128744 0.015468446 -0.3093768
0003f0 9d 94 00 3e a3 3c 0a 3e a7 63 c9 3d 41 de d4 3c
       0.12556691 0.13499694 0.0983346 0.025984885

bias f4 [32]
000000 7d 8e ab 3c dc 28 a1 bd f0 20 c7 3c 98 e6 e3 bd
       0.020941967 -0.078691214 0.024307698 -0.11127967
000010 2b da 7d 3d 2c a7 78 bd 8b 4f d1 bd 95 cb cc bd
       0.06197564 -0.060706303 -0.1022025 -0.09999768
000020 f7 a1 a0 3d 5b 3c 95 3d b5 2a 56 3d 76 76 ef bd
       0.07843392 0.072869025 0.052286822 -0.116925165
000030 aa ce 0f 3e 6b 35 06 bc 3b 14 04 3c b6 0d 97 bd
       0.1404368 -0.008191447 0.008061464 -0.07375662
000040 41 90 2d bd e6 49 a9 3d 33 eb 51 3a 9b 96 b6 3d
       -0.0423739 0.08266048 0.00080077647 0.089154445
000050 b8 c4 26 bd 72 fb 13 3e 6d ae 09 3e 51 17 cf bd
       -0.04071495 0.14451388 0.13445444 -0.10111869
000060 1a 2c 99 3c cf c0 8f 3c af 13 3e 3e 67 cb a0 bc
       0.018697787 0.017547993 0.18562196 -0.01962824
000070 c1 07 cd 3d 7e 19 84 bd 59 72 03 be 47 cd 4b bd
       0.100112446 -0.06450175 -0.12836589 -0.049756315

weight f4 [1, 32]
000000 f1 20 87 be db 47 dd 3e ce 4f ac be 57 0d 21 3f
       -0.2639232 0.43218884 -0.33654636 0.6291098
000010 dd 46 17 3f 09 21 90 3e e2 59 4c be 48 77 99 3e
       0.59092504 0.28150204 -0.19956163 0.29973817
000020 4b 51 b1 be 46 94 5f be a4 d4 99 be 66 8e 33 3e
       -0.34632334 -0.21833906 -0.30045044 0.1753479
000030 a9 71 fd be 33 a1 e1 be b6 8b 8a be c0 08 a1 3e
       -0.49500778 -0.44068298 -0.27059716 0.31451988
000040 b6 44 99 3e 00 eb 33 3e 77 3c be be 09 0c 84 be
       0.29935235 0.17570114 -0.37155506 -0.25790432
000050 4f a5 91 be 08 20 b0 be c7 23 a6 be 88 c3 97 3e
       -0.28446433 -0.34399438 -0.3244917 0.29641366
000060 83 7f 9f be 38 0a 72 3e 54 60 1e bf 0a 44 79 3e
       -0.3115197 0.2363671 -0.61865735 0.24342361
000070 9c 4c 40 3e a3 e4 de 3e 7a ae 7b 3e 04 68 53 be
       0.18779224 0.4353381 0.24578276 -0.20645148
