muller/models/model_0_q.pt (torch, 23117 bytes, 6 tensors)

mass f4 [2]
0	0x3f800000	1.0
1	0x3f800000	1.0

weight f4 [32, 2]
0	0xbf1e6f10	-0.6188822
1	0xbf2356ca	-0.63804305
2	0xbf1070d4	-0.5642216
3	0xbf19be36	-0.60055864
4	0x3cdff5d8	0.027338907
5	0xbd3a3dc2	-0.045469053
6	0x3f29b7c7	0.66296047
7	0x3f0e93d3	0.5569431
8	0xbeb3e01b	-0.35131916
9	0xbf62229a	-0.8833405
10	0xbf05fedd	-0.52342016
11	0xbd8a9f08	-0.06768614
12	0x3ed2f57d	0.41202918
13	0x3f195411	0.598939
14	0xbdecdb81	-0.115653045
15	0x3dd8b111	0.10580648
16	0xbf347e13	-0.70504874
17	0x3ee52fe7	0.4476311
18	0x3e72ef09	0.23723997
19	0xbe15198f	-0.14560531
20	0xbf2ea3f4	-0.6821892
21	0x3eb40ffc	0.35168445
22	0xbe8ef434	-0.27920687
23	0xbe605f8b	-0.21911447
24	0xbf10cd24	-0.5656302
25	0xbf476582	-0.77889264
26	0x3f300fd7	0.6877417
27	0xbf0eccc6	-0.5578121
28	0xbec42c46	-0.38315028
29	0xbef1eaa4	-0.4724933
30	0xbecf8834	-0.40533602
31	0xbea814ab	-0.32828268
32	0xbef26284	-0.47340786
33	0xbe2a6b17	-0.16642414
34	0x3ead3181	0.3382683
35	0xbd844f9c	-0.06460497
36	0x3f1231a2	0.57106984
37	0xbf35d37f	-0.7102584
38	0xbebde32d	-0.37087384
39	0x3e1bbdc4	0.15209109
40	0x3f30e527	0.6909966
41	0xbf1bf344	-0.6091807
42	0xbd5881bb	-0.052858096
43	0xbec872c3	-0.39150056
44	0x3f48a3e6	0.7837509
45	0x3eb1ed75	0.34751478
46	0xbe2a9b0f	-0.16660713
47	0xbf1253df	-0.5715923
48	0x3e0b8907	0.1362649
49	0x3e5c6f0a	0.21526733
50	0x3eb8aa97	0.3606765
51	0xbdc7c488	-0.09754282
52	0xbf0720d5	-0.5278447
53	0x3de0ad62	0.1097057
54	0xbc4fc7e8	-0.012681939
55	0x3f2768a9	0.65394074
56	0xbec6e169	-0.3884385
57	0xbe0fb76f	-0.14034818
58	0x3e737220	0.23774004
59	0xbec13f18	-0.3774345
60	0xbf3ba801	-0.7330323
61	0x3e981575	0.2970387
62	0xbeeefdea	-0.46678096
63	0x3ea82fc1	0.32848933

bias f4 [32]
0	0xbe89613e	-0.26832002
1	0xbcd23259	-0.025658773
2	0x3e498ea9	0.19683327
3	0x3edd9e7d	0.4328498
4	0x3f1ca546	0.6118969
5	0xbf048c99	-0.51777035
6	0x3c61a320	0.013771802
7	0x3f366694	0.7125027
8	0xbf1bce32	-0.60861504
9	0xbf0f792e	-0.5604428
10	0x3c3b9552	0.011449175
11	0xbf2d7564	-0.6775725
12	0x3e6eedfa	0.23332968
13	0x3ec8a9c5	0.39192024
14	0xbf130512	-0.5742961
15	0xbea12fdd	-0.3148183
16	0x3e0f410a	0.13989654
17	0x3e54e843	0.20791726
18	0x3ef8fd6c	0.48630846
19	0xbf003e68	-0.50095224
20	0x3f236696	0.6382841
21	0x3f30c3b0	0.69048595
22	0xbe92bf13	-0.28661403
23	0x3ec91658	0.3927486
24	0xbf3cd5ef	-0.73763937
25	0xbf02eed5	-0.5114568
26	0x3f2631e2	0.64919865
27	0x3dacf7c9	0.08445699
28	0xbf27f6f0	-0.6561117
29	0x3e40244f	0.1876385
30	0x3ef435be	0.47697252
31	0xbed1cf0a	-0.4097827

weight f4 [32, 32]
0	0xbce425b0	-0.027850002
1	0xbd31ac73	-0.04337735
2	0xbe92ce55	-0.28673044
3	0x3e325940	0.17416859
4	0xbf0cf601	-0.5506287
5	0x3d218546	0.03943374
6	0x3e54db6c	0.20786828
7	0x3ca1f020	0.01976782
8	0x3e6e2998	0.23258054
9	0x3979c9bb	0.00023821641
10	0x3da5954e	0.08085118
11	0xbd03c682	-0.032171734
12	0xbe0b35fe	-0.13594815
13	0xbd97e772	-0.074171916
14	0xbd3c270f	-0.045935687
15	0xbe06df5b	-0.13171141
16	0xbdf842dc	-0.121221274
17	0xbeb34e7c	-0.35020816
18	0xbe7067e9	-0.23477139
19	0x3e4ea3a8	0.20179617
20	0xbc5052f6	-0.012715092
21	0xbeb70952	-0.35749298
22	0x3e56f45a	0.2099165
23	0xbe0c4565	-0.13698347
24	0x3ddb554d	0.10709629
25	0xbe09de30	-0.13463664
26	0xbd59a5fa	-0.053136803
27	0x3cfbb2f9	0.03072499
28	0x3e20d4d8	0.15706193
29	0xbd3a4b40	-0.04548192
30	0xbcedf0ca	-0.029045481
31	0x3e937e46	0.28807276
32	0xbd7cae61	-0.06168974
33	0xbe03a494	-0.1285575
34	0x3e202136	0.15637669
35	0x3df2de15	0.11858765
36	0x3e3ed4f0	0.18635917
37	0xbd3bf44b	-0.045887273
38	0xbe4eb12e	-0.20184776
39	0x3e03ea98	0.12882459
40	0xbdac9e75	-0.08428661
41	0x3e015ef9	0.12633885
42	0x3c7960f4	0.015220869
43	0xbdc346ba	-0.095349744
44	0xbd90fb9a	-0.07079239
45	0x3dfd0760	0.12354922
46	0xbcd9d89e	-0.026592549
47	0xbdb10a41	-0.08644534
48	0xbdd7fcb4	-0.10546246
49	0x3d7b4586	0.0613456
50	0x3d01a4f1	0.03165144
51	0xbd05e925	-0.032693047
52	0x3d5be4e8	0.0536851
53	0x3df332c1	0.11874915
54	0xbdd0034b	-0.10156878
55	0x3dfa4e94	0.12222019
56	0x3da58cd1	0.08083499
57	0xbb633669	-0.0034669882
58	0x3b8c145b	0.0042748875
59	0x3d0999cc	0.033593938
60	0x3b8d7813	0.0043172925
61	0x3e2ff7b7	0.1718434
62	0x3cb809f1	0.022465678
63	0xbe0102ca	-0.1259872
64	0xbdabba0c	-0.08385095
65	0x3e4bc6da	0.19900075
66	0x3d2d94d2	0.042378254
67	0xbda4f2ca	-0.08054121
68	0x3eb89abb	0.3605555
69	0x3cf11bf7	0.02943228
70	0x3df31fcb	0.118712984
71	0x3e2f5608	0.17122662
72	0xbda9fb69	-0.08299906
73	0xbdeaea6e	-0.11470495
74	0xbb9a4ee7	-0.004709113
75	0x3e1f03f1	0.15528847
76	0x3e2797d1	0.16366507
77	0x3e4f3283	0.20234112
78	0xbd7c1de4	-0.061551943
79	0xbe0b91f2	-0.13629892
80	0xbe50c31b	-0.20386927
81	0xbdcd4ba5	-0.10024194
82	0x3d43af2c	0.04777448
83	0x3b87d98b	0.004145806
84	0x3db24ef8	0.08706468
85	0x3d2b78c8	0.041863233
86	0x3dca4c57	0.09877842
87	0x3e414380	0.18873405
88	0xbde1fc4a	-0.110344484
89	0x3d8da8a0	0.06916928
90	0x3d196d39	0.03745768
91	0xbe4af97b	-0.19821732
92	0x3d524973	0.051339578
93	0x3b1e8399	0.0024187325
94	0x3cf39cfd	0.029737944
95	0xbdc2865e	-0.09498285
96	0xbe2de8a7	-0.16983281
97	0x3d77ad55	0.060468037
98	0x3cd11305	0.025521765
99	0xbd9da802	-0.076980606
100	0x3ee55891	0.44794133
101	0xbe169692	-0.14705876
102	0x3d549a4e	0.05190497
103	0xbd8bfb77	-0.068350725
104	0x3ccbff43	0.024901992
105	0xbdc30539	-0.095224805
106	0xbe774a0e	-0.24149343
107	0xbe1359be	-0.14389703
108	0x3e840c11	0.25790456
109	0x3e59e08e	0.21277067
110	0x3d9e55bd	0.07731197
111	0x3dc360c9	0.09539945
112	0xbd89d42e	-0.06729923
113	0x3d52d86c	0.051475927
114	0x3e525dda	0.20543614
115	0xbe832e32	-0.25621182
116	0x3c051254	0.008122046
117	0x3d214bf4	0.039379075
118	0xbd381710	-0.04494387
119	0x3e83c66e	0.25737327
120	0xbdde02f5	-0.10840408
121	0x3dbd2ef6	0.09237473
122	0xbc6054ab	-0.013692061
123	0xbe0c8951	-0.13724257
124	0x3d1ef466	0.038807295
125	0x3e6e21fc	0.23255152
126	0x3dda50aa	0.10659917
127	0xbe86a17b	-0.26295075
128	0xbe0829ad	-0.13297148
129	0x3db3e082	0.08783056
130	0x3e0ff1c2	0.14057067
131	0xbe0b06c2	-0.13576797
132	0x3eaa6213	0.3327795
133	0xbcbca330	-0.023027033
134	0x3d933d01	0.0718937
135	0xbca48cfe	-0.020086762
136	0xbda31aab	-0.07964071
137	0x3d5c7459	0.053821895
138	0x3d9ab1fe	0.075534806
139	0x3ab12ecb	0.0013517974
140	0xbdf071ba	-0.117404416
141	0x3e31cdcf	0.17363666
142	0x3e0d42a0	0.13794947
143	0x3d886007	0.06658941
144	0xbe3aa716	-0.182278
145	0x3de8c050	0.11364806
146	0x3df43445	0.11924032
147	0xbe4b319e	-0.19843146
148	0x3e0955d7	0.13411652
149	0xbcedb1ee	-0.029015508
150	0x3e01a9a9	0.12662376
151	0x3e1d96a9	0.15389504
152	0xbd346667	-0.04404297
153	0x3e27fd0b	0.16405122
154	0xbe33bbdc	-0.17552131
155	0x3d16a969	0.036782656
156	0xbe30f581	-0.17281152
157	0xbdc3d7ee	-0.0956267
158	0xbe1dd11f	-0.15411805
159	0xbe161c44	-0.1465922
160	0xbdd1bfda	-0.10241671
161	0xbd2f542e	-0.04280489
162	0xbd67560c	-0.056478545
163	0xbe322ffd	-0.17401119
164	0xbe395ebb	-0.18102543
165	0x3daf4a81	0.08559132
166	0x3e352116	0.17688403
167	0x3c739ea4	0.014869366
168	0x3e556d81	0.20842554
169	0xbe1af4dd	-0.1513247
170	0x3d515a93	0.05111177
171	0x3da086bc	0.078381985
172	0xbe1ec068	-0.15503085
173	0xbe18e08b	-0.14929406
174	0x3cb959eb	0.022625884
175	0xbe0f0be3	-0.13969378
176	0x3e07adf0	0.13249946
177	0xbdfb0fd5	-0.12258879
178	0xbe2ad347	-0.16682158
179	0xbdc4c5b8	-0.09608024
180	0x3d814995	0.06312863
181	0xbe53a520	-0.20668459
182	0x3d311f0d	0.043242503
183	0x3c9de08d	0.019272113
184	0x3ddc448c	0.10755262
185	0xbdee35e7	-0.11631375
186	0xbdb19680	-0.08671284
187	0x3ce29e1f	0.027663289
188	0xbd1672df	-0.036730643
189	0xbcd0d6bd	-0.02549302
190	0x3d3b8eba	0.04579041
191	0x3d00380e	0.031303458
192	0x3dfc6962	0.12324788
193	0xbe0a84db	-0.13527243
194	0x3d6a1fd7	0.05715927
195	0x3c241bb4	0.010016371
196	0x3eab4ac4	0.3345548
197	0x3bf21649	0.0073879105
198	0xbe0d2f30	-0.13787532
199	0x3d05d0ff	0.032670017
200	0x3d8d0ad9	0.06886835
201	0xbe39b7f1	-0.18136574
202	0x3bfca9ca	0.00771067
203	0x3d9c0f53	0.0762011
204	0x3e485778	0.19564617
205	0xbcd8e544	-0.02647651
206	0xbddd824c	-0.10815868
207	0xbcbc91eb	-0.023018798
208	0xbe413b17	-0.18870197
209	0x3dd222a8	0.102605164
210	0x3d0f2073	0.034943055
211	0xbdb9ac68	-0.09066087
212	0x3dd149a6	0.102191254
213	0x3e19f2c0	0.15034008
214	0xbe4e2565	-0.20131452
215	0x3e1e9644	0.1548701
216	0x3dcf1fd7	0.10113495
217	0x3ba9daf5	0.0051835724
218	0xbe2187f9	-0.15774526
219	0xbdb03b3a	-0.086050466
220	0xbcfce9cc	-0.030873202
221	0x3e5b227f	0.21399878
222	0xbd840d02	-0.064477935
223	0xbdc66396	-0.09686963
224	0x3e15c150	0.14624524
225	0x3d355ec4	0.04427983
226	0xbdf2644b	-0.118355356
227	0xbdb4a77f	-0.0882101
228	0x3e5bd9cb	0.214698
229	0xbdf621d3	-0.1201817
230	0xbdf50a32	-0.11964835
231	0x3db1c5a2	0.086802736
232	0xbe1149bf	-0.14188288
233	0xbcca4bf8	-0.024694428
234	0xbe67ddff	-0.22643279
235	0xbe10a9be	-0.14127252
236	0x3d8ade72	0.06780709
237	0x3e1aaf43	0.1510592
238	0xbd9f1fed	-0.07769761
239	0xbbefd9f2	-0.0073196823
240	0x3df7ec55	0.12105624
241	0xbdd20123	-0.10254123
242	0xbd818c51	-0.06325591
243	0xbd927f28	-0.071531594
244	0x3e4fad3c	0.20280927
245	0x3e011514	0.12605697
246	0x3dc129f3	0.09431829
247	0x3dc18aab	0.09450277
248	0xbe0652eb	-0.13117568
249	0xbd5689b8	-0.052377433
250	0x3cd7237c	0.026262037
251	0x3d55a978	0.05216357
252	0xbdd9a982	-0.10628034
253	0x3e254b5a	0.16142026
254	0xbd8b57f2	-0.068038836
255	0xbe76c656	-0.24099097

bias f4 [32]
0	0xbe241bbd	-0.16026206
1	0xbde8cbe6	-0.113670155
2	0x3d9140bf	0.070924275
3	0x3e50e172	0.203985
4	0x3e448455	0.19191106
5	0xbe134bcb	-0.14384381
6	0xbdaccb39	-0.08437199
7	0x3b0d2e11	0.002154235
8	0xbdbc43ec	-0.091926426
9	0x3e30706a	0.17230383
10	0xbc23e1bd	-0.010002551
11	0x3d1ddb25	0.03853907
12	0x3e252107	0.1612588
13	0x3e1484d3	0.14503793
14	0xbd9f1542	-0.077677265
15	0x3df6123a	0.12015195
16	0xbdb01522	-0.08597781
17	0xbddf192f	-0.10893475
18	0xbe2e5966	-0.1702629
19	0xbe213269	-0.15741886
20	0x3e2231f9	0.15839376
21	0xbd964a17	-0.0733835
22	0xbd35ea05	-0.04441263
23	0x3d396323	0.04526056
24	0x3db7798e	0.089587316
25	0xbd03888a	-0.032112636
26	0xbdb4ba68	-0.08824617
27	0x3dd259e8	0.102710545
28	0x3e1628c3	0.14663987
29	0xbddafa0c	-0.10692224
30	0x3e05a4d9	0.13051166
31	0xbd8dd7a6	-0.06925897

weight f4 [1, 32]
0	0xbe68dff3	-0.2274168
1	0x3e3b7ba6	0.18308887
2	0x3ea48514	0.3213278
3	0x3deb99f4	0.115039736
4	0x3e457501	0.19282915
5	0xbe9cebc9	-0.3064864
6	0x3d812f29	0.06307823
7	0x3e73e8e3	0.23819308
8	0xbe11365b	-0.14180891
9	0x3e18c639	0.14919366
10	0xbe5e5cc5	-0.21715076
11	0x3e418574	0.18898565
12	0xbdd4c293	-0.103886746
13	0xbe054d7f	-0.13017844
14	0xbe528cf1	-0.20561577
15	0xbdf1c878	-0.118058145
16	0xbe1ba2e2	-0.15198854
17	0x3e49caa2	0.19706205
18	0xbe130bbf	-0.1435995
19	0xbe008410	-0.12550378
20	0x3e43e22d	0.19129248
21	0xbe776493	-0.2415946
22	0xbddb2562	-0.107004896
23	0x3e035e14	0.12828857
24	0xbe577447	-0.2104045
25	0xbe05e06e	-0.13073894
26	0x3e136b05	0.14396293
27	0x3e377cc6	0.17918691
28	0xbe4509b9	-0.1924199
29	0xbdfa400e	-0.12219249
30	0x3e3eeda1	0.18645336
31	0x3e1d2815	0.15347321
