muller/models/model_2_z.pt (torch, 21351 bytes, 6 tensors)

mass f4 [2]
000000 00 00 80 3f 00 00 80 3f
       1.0 1.0

weight f4 [32, 2]
000000 0a e1 c5 3e da 15 69 3f f1 78 ae bd c1 eb a3 3e
       0.38648254 0.9104897 -0.085191615 0.32015803
000010 4b 91 3f bf 70 f3 b3 3e 1c bb 33 3f 82 43 af 3d
       -0.74831074 0.35146666 0.7020738 0.08557798
000020 08 42 96 bd 37 e2 fb 3e 80 48 e8 be e9 30 67 3f
       -0.07336813 0.49196026 -0.45367813 0.90309006
000030 2b 53 61 be 1a 81 a3 3e 3e 6e 3e bf 4c 07 0f 3e
       -0.22004382 0.31934434 -0.74386966 0.13967627
000040 ea 18 9d be d3 45 e5 3e f6 1f d4 bd ee 72 29 3f
       -0.3068307 0.44779834 -0.103576586 0.66190994
000050 9f 1c 3e 3d 17 43 1f 3f 0f 5e 78 be bf 64 b2 3e
       0.046414014 0.62211746 -0.2425463 0.34842488
000060 ea 8d 8b 3e 24 62 e9 bd 91 f8 e1 3e 06 20 3f be
       0.2725671 -0.11395672 0.44134954 -0.1866456
000070 0b 77 b0 3e 91 e7 f6 3e 33 fb 15 3f 0c 92 8e 3c
       0.34465823 0.48223546 0.58586425 0.017403625
000080 4c 6c a3 3e 2c 0e 3a 3f 96 a1 12 3f 4b ae 8c 3e
       0.3191856 0.72677875 0.5727781 0.27476725
000090 08 f2 65 3f f8 26 9b 3f dd 68 08 bf 43 17 fb 3c
       0.89822435 1.2121267 -0.5328501 0.03065074
0000a0 40 cf 2a 3f 5d f8 87 bd c8 da 42 3e f7 e8 ba 3e
       0.6672249 -0.066391684 0.19028771 0.36505863
0000b0 c4 39 2c 3f ba 2f 1a be 04 74 25 3e bd f8 1c bf
       0.67275643 -0.15057269 0.16157538 -0.61317044
0000c0 e5 41 56 3e c0 88 91 bf 8a 01 f2 3e 9c 76 6a be
       0.20923574 -1.1369858 0.472668 -0.22896808
0000d0 f2 7d 73 be f5 a2 5a bf 4c 81 26 be c0 51 61 bf
       -0.23778513 -0.854049 -0.1626026 -0.88015366
0000e0 8c 98 a1 3e d8 8c 01 bf f4 3b 06 3f 6b 43 0d bf
       0.31561697 -0.50605536 0.5243523 -0.55180997
0000f0 68 be 3a bf 39 55 20 3e cc 14 1e 3f 84 b2 a3 be
       -0.72946787 0.1565751 0.61750484 -0.31972134

bias f4 [32]
000000 ba c2 e8 be e0 e1 4c 3e 98 31 fa be 01 d4 68 be
       -0.45461065 0.2000804 -0.48865962 -0.22737123
000010 c6 38 c9 3e c8 68 98 bf c4 3a 92 be ba e2 f4 3c
       0.39301127 -1.1906977 -0.2856046 0.029893268
000020 bc 17 a1 3e e8 53 41 bf d4 bd 1c bf f2 f1 04 bf
       0.3146342 -0.75518656 -0.61227155 -0.5193168
000030 45 42 1a 3f 97 6d 63 3e d0 17 fc 3e 70 50 0e be
       0.6025737 0.22209774 0.49236917 -0.13897872
000040 31 0b 75 be 57 02 be 3d 39 dd bc 3c 2a 55 6d 3d
       -0.2393005 0.0927779 0.023054706 0.057942547
000050 13 d1 f9 bd 2d 60 23 bf f0 7c 15 3e 79 13 3e 3e
       -0.12198081 -0.6381863 0.14598441 0.18562116
000060 c8 87 a8 3f 9e 55 e8 be 7d b8 4c 3f eb 0c 63 3f
       1.3166437 -0.4537782 0.79969007 0.88691586
000070 1f dc 30 3f 8d 43 66 3f 70 4e f6 be 5d 09 07 3f
       0.6908588 0.89946824 -0.48106718 0.5274866

weight f4 [32, 32]
000000 ed 3d 77 bd ee f7 1e 3e 47 3a 56 3e a7 8d 3a be
       -0.06036179 0.15524265 0.20920669 -0.18218099
000010 fe ed e5 bd 4c 5d eb bc 00 a9 88 bd 81 66 2a 3e
       -0.11227034 -0.02873101 -0.06672859 0.16640665
000020 6a d1 04 3e 8b 54 05 3e 6e ae 5b bd 43 d1 65 bd
       0.1297051 0.13020532 -0.053633146 -0.05610777
000030 b2 50 4c 3d 59 48 50 be c8 2c 4e bd f1 f1 04 be
       0.049881645 -0.20340098 -0.050335675 -0.12982918
000040 e6 02 a7 bd 22 ed 9a bd 6d 32 b8 be 61 8f 97 3d
       -0.0815485 -0.07564761 -0.35975972 0.07400394
000050 77 f1 43 be 7c 9d 90 bd 5b 26 fd bd 32 84 85 3d
       -0.1913508 -0.07061288 -0.12360831 0.06519355
000060 d5 ba eb bd 75 55 09 3d b3 2e ce 3c d7 1e d0 bd
       -0.11510245 0.033528764 0.025168752 -0.10162132
000070 1f 74 3f bb fa 38 b0 bd 49 ec 51 3d c4 ef 3b 3d
       -0.00292135 -0.086046174 0.05125073 0.045882955
000080 8d d1 b3 3c 12 e1 70 bd 2c 4a c9 3d b4 b3 35 be
       0.021950508 -0.058808394 0.098286 -0.17744333
000090 3d f1 86 3d 2a 5f 82 be 92 0a fa 3c 15 42 b1 3d
       0.06588981 -0.2546323 0.030522618 0.08655182
0000a0 d3 7e 6a 3e 46 af 77 3c 22 ff 89 3d ad 90 bb bd
       0.22899942 0.015117472 0.06738116 -0.09158454
0000b0 39 3a dd 3d 17 8e 2b 3d ff a8 06 bc e6 0b 3a be
       0.10802121 0.041883554 -0.008219003 -0.18168601
0000c0 03 0e 3d be 6d 83 24 3d 78 7d 2a bd 73 17 9c 3d
       -0.18462376 0.0401644 -0.041623563 0.0762166
0000d0 b9 36 a0 bd aa b7 03 bd 13 79 b6 bd 49 6c 55 be
       -0.078229375 -0.032157578 -0.08909812 -0.20842089
0000e0 e5 97 e1 bd 41 37 79 be a7 77 34 bd 95 1e b3 3d
       -0.110153 -0.24337484 -0.044059422 0.087460674
0000f0 c8 8b 31 bd 6e 9b c5 bc 5a af 01 bd 0c 9a b6 bc
       -0.043346196 -0.024121966 -0.03166137 -0.022290252
000100 26 be a8 3c e0 ad c2 3d 44 a7 8d bd 2a 3b 80 3d
       0.020598482 0.0950582 -0.06916669 0.06261285
000110 ae 26 23 3d ae 83 d2 bd 99 a0 4a bc 60 a5 ca 3d
       0.03983181 -0.10279022 -0.012367391 0.09894824
000120 e4 02 3b 3e 71 0c 13 3e d7 c0 cb bc 6d a4 06 be
       0.18262821 0.14360215 -0.024872227 -0.13148661
000130 2f fb de 3d 29 79 77 3d 4d 6a 15 3c 0c dc 90 bd
       0.10887753 0.06041828 0.009119582 -0.070732206
000140 86 b3 d6 3c f1 29 e5 bd eb 34 1d bd 1b d4 81 3c
       0.02620865 -0.1118964 -0.038380545 0.01584821
000150 06 0a 0c be cd 0a 57 3d d2 70 0b be 2a ce 41 bd
       -0.13675699 0.052500535 -0.13617256 -0.047315754
000160 38 ff a0 3d 0d e8 39 be ad 92 bc bc 36 16 30 bd
       0.07861179 -0.18154927 -0.02301916 -0.042989932
000170 fd 36 10 3d 36 26 ec 3c a3 30 df bd a6 da cd 3c
       0.03520869 0.028826814 -0.108979486 0.025128674
000180 ef cb 44 3d 88 9b bb 3d cd db 01 3e d2 3e 0d be
       0.04804605 0.091605246 0.12681504 -0.13793495
000190 2f 5f 75 bd 3a dd 10 3e 2b 48 24 3e 5d a3 95 3c
       -0.059905227 0.14146891 0.16043155 0.018266374
0001a0 8c 5d e7 3d ce a4 58 3e 93 d6 a3 3d e3 3f 3e 3e
       0.112971395 0.21156618 0.07999911 0.18579058
0001b0 fe 2b 5b bd 09 81 44 be c7 ee e3 bc 7e d1 9a 3c
       -0.05350875 -0.19189848 -0.027823819 0.018898722
0001c0 e2 31 2e bd eb 79 f2 3c 45 11 79 be b7 46 f5 3c
       -0.04252804 0.02959915 -0.24322994 0.029940946
0001d0 fd 32 30 be f9 12 11 3e 04 66 c0 bd 88 f7 ed bd
       -0.1720695 0.14167394 -0.09394458 -0.116194785
0001e0 0b 00 31 be 48 93 fd 3d 70 1e 65 be 8e d7 fd bd
       -0.17285173 0.12381607 -0.22374892 -0.123946294
0001f0 30 52 55 be 7c 89 46 be 96 1f 74 bc d8 8c 5c be
       -0.20832133 -0.19388384 -0.014900109 -0.21538103
000200 47 26 26 be 87 f3 d7 3a a5 21 51 3e 18 c9 ef bb
       -0.16225539 0.0016475775 0.2042299 -0.0073176734
000210 f9 0d 47 3e 66 83 66 be dc a4 59 3d 29 09 66 3e
       0.19438924 -0.22511062 0.053135738 0.22464432
000220 eb 84 5a 3d 11 8a 9a 3c e8 12 c2 3c de 1c d6 bd
       0.053349417 0.018864663 0.023690656 -0.10454725
000230 d6 c3 f1 3d 8c 39 b5 bd e2 4b 54 3c 68 62 0c bc
       0.11804931 -0.08848867 0.012957545 -0.008568384
000240 53 2b a3 3c f8 1c 3c bc bc 66 0e be ee d6 43 3d
       0.01991812 -0.011481516 -0.13906378 0.047812395
000250 6f 2e 22 be 9f 23 36 be e1 78 6d be 0e 91 af 3d
       -0.15838026 -0.17787026 -0.23190643 0.08572589
000260 8d 03 4b bd 1e ed 03 be 20 19 9a 3d d0 64 a4 bd
       -0.049563933 -0.12883422 0.075243235 -0.08027041
000270 a9 2c 20 be d0 e8 13 bd 5b 27 9f 3d b9 0c d5 3c
       -0.15642036 -0.0361107 0.07771178 0.026007043
000280 0e 8b db be 22 72 ed bd 43 ae 0e be 85 fb 00 be
       -0.42879528 -0.11594035 -0.13933663 -0.12595947
000290 9c fe 80 3c 8a 6d 2d bf b4 1b ed bd 90 73 92 bc
       0.015746407 -0.6774527 -0.115775496 -0.01787737
0002a0 5a 10 1b be 5a 6b 37 be 7c 3f 8f be 6d 40 ad bd
       -0.15142956 -0.17912045 -0.27978122 -0.08459554
0002b0 ab 4f 84 3e 85 e6 4c 3e 21 dd 33 3e b9 01 83 bc
       0.25842032 0.20009811 0.17564823 -0.015992032
0002c0 ec 7c 88 be 41 6a 8d 3c 2c 5e 12 bd 5b cd 46 bd
       -0.26657808 0.01726258 -0.03573434 -0.048535686
0002d0 b0 98 29 3d c3 8c c3 be b7 50 8e bc 5d 17 8c 3d
       0.04140538 -0.3819333 -0.017372472 0.06840394
0002e0 71 4d 3b 3f c9 8d af 3d 6c dc c3 3e 48 ff 21 3e
       0.7316504 0.08571965 0.38254106 0.15820038
0002f0 0a 54 b7 3e 9d 98 86 3e 84 b0 44 be 9e 96 81 3e
       0.35806304 0.2628831 -0.1920796 0.25310224
000300 04 0c 49 bd ae 1e f6 3d 50 f7 3d 3e 75 ff 0f 3d
       -0.049083725 0.120175704 0.18551373 0.035155732
000310 73 3c 2e 3e db 61 11 be c4 77 8e bd 99 a7 f0 3d
       0.17015247 -0.14197485 -0.06956437 0.11750717
000320 0b b3 22 bd 06 69 29 3e d1 b0 15 bd 62 19 d3 3d
       -0.03972153 0.1654397 -0.03654558 0.10307576
000330 c9 a0 55 3d 92 20 24 be 2f 0b d3 bd ee 22 44 be
       0.05215529 -0.1602805 -0.103048675 -0.1915395
000340 e0 49 32 3d b0 32 e0 bc 60 59 7a be f4 12 f7 3d
       0.043527484 -0.02736792 -0.24448156 0.12064162
000350 3e 86 8d bc 20 a0 b9 bd 87 5d 13 be 97 43 3e bd
       -0.017275926 -0.090637445 -0.14391147 -0.046451177
000360 2e f9 f6 3d 4b be 6e be 8b 73 c5 bc 47 33 c2 3c
       0.12059246 -0.23314779 -0.024102947 0.023706092
000370 fa 07 94 bd a0 9a 23 bd 82 16 9b 3d f4 4a ea 3c
       -0.07228084 -0.039942384 0.075726524 0.028600194
000380 fe 87 ac 3d 8a 44 ee bc 1a 29 6a be 9e 1f 4c 3e
       0.08424376 -0.029085416 -0.22867242 0.19933936
000390 79 e7 0f be d2 39 3b 3d 6c a0 24 bd db 73 95 3d
       -0.14053144 0.04570944 -0.040192053 0.07297488
0003a0 68 05 2a be 3a a8 57 bd 8a 87 c8 3d a8 88 8c bd
       -0.16603625 -0.052650668 0.09791477 -0.068620026
0003b0 8b 39 d4 bd 83 90 37 3e 53 51 55 3e 37 20 2d 3e
       -0.10362538 0.1792622 0.20831804 0.1690682
0003c0 e4 10 54 3e d5 e1 bd 3c 38 ae e8 3e 28 79 24 be
       0.20709568 0.023178974 0.45445418 -0.16061842
0003d0 24 9d 00 3a ff 10 2d 3c 4b dd b0 3d d6 ae a4 bc
       0.0004906228 0.010563134 0.08635958 -0.0201029
0003e0 fa 14 02 bc b0 3b 04 bd 8a 0a 04 3e 94 d3 53 3e
       -0.0079395715 -0.032283485 0.12894645 0.2068618
0003f0 d5 2f 8d 3d 6f 81 4e 3d 41 4e bf bd 09 3a f6 bb
       0.06893889 0.050416406 -0.093410976 -0.0075142425

bias f4 [32]
000000 15 12 f9 bd 9b 42 fa 3b 15 a9 26 3e 99 a2 40 bd
       -0.12161652 0.0076373345 0.16275437 -0.047030065
000010 cd 3c c2 bc 08 fe a8 3e 78 02 b4 bd 8f e1 bd bd
       -0.023710633 0.3300631 -0.087895334 -0.092715375
000020 3d 24 80 3e 16 2a af bd f8 50 b7 be 69 4e f7 3c
       0.25027648 -0.08552949 -0.35803962 0.030188756
000030 0c 31 23 bd b3 89 39 3e 76 ac 54 3b 97 16 82 be
       -0.039841697 0.18118934 0.0032451428 -0.2540786
000040 50 a0 ac 3c 33 3c ce 3e 0d 7b 3a bd f6 03 4b bc
       0.021072537 0.40280303 -0.045527507 -0.012391081
000050 1c d5 45 be 06 43 97 3b 46 c9 31 bd 02 6e 88 bc
       -0.19319576 0.004616144 -0.04340484 -0.016654018
000060 c8 fc 0b be fb 93 b8 bd 45 15 02 3e 8b 5d c6 bc
       -0.13670647 -0.090126 0.12703426 -0.024214527
000070 34 72 b9 3c 49 f0 1a 3d 6c 75 92 3e b7 82 ec bd
       0.022637464 0.03782681 0.2860521 -0.115483694

weight f4 [1, 32]
000000 47 21 62 be a8 73 92 be 39 e1 23 be 3d 70 23 be
       -0.22083007 -0.28603864 -0.16003884 -0.15960784
000010 78 10 6d be d9 d9 db 3e 46 d9 7b be 21 5a 84 3e
       -0.23150814 0.42939642 -0.24594602 0.25850013
000020 00 2c b3 3e 05 a4 0e 3d 4c 0d 1d bf 99 86 58 be
       0.34994507 0.03482439 -0.61348414 -0.21145095
000030 66 ca 98 be d8 65 c1 be ac 99 11 be 0d 13 d9 be
       -0.29841918 -0.37773013 -0.14218777 -0.42397347
000040 1f 6a 42 be db 2d bf 3e 61 9b d7 bd af da 5b be
       -0.18985794 0.37339672 -0.10527683 -0.2147014
000050 87 b9 b1 be c3 e2 b5 be c1 80 cc 3d a3 ea 78 be
       -0.3471186 -0.35524568 0.09985495 -0.24308257
000060 5b 1f 50 3e 3c 7b 12 be 08 a5 42 be 86 7e 3e 3e
       0.20324461 -0.14304823 -0.19008267 0.18602952
000070 ad ed 85 be 80 09 7c be e9 d5 ad 3e 84 28 4a 3e
       -0.26157895 -0.24612999 0.33952263 0.19742018
