muller/models/model_1_z.pt (torch, 21415 bytes, 6 tensors)

mass f4 [2]
1.0 1.0
00000000: 0000 803f 0000 803f

weight f4 [32, 2]
-0.62659824 -0.043867566 0.7010446 -0.45385316 0.44561687 -0.46488005 -0.2508942 0.10351118
-0.6432728 -1.2323467 0.50182545 -0.23426569 -0.59314746 0.22281149 0.408961 -0.348763
0.5072761 -0.1829605 -0.5737434 0.39948985 -0.7382308 0.04234596 -0.15664051 0.94068134
-0.038566113 0.44973865 0.04734996 -0.3611242 0.05639513 -0.5594354 0.71702325 -0.21971856
-0.5877056 0.23373166 -0.117810525 -0.519219 -0.082419984 -0.4500265 0.6568077 -0.56115144
0.1881821 0.11838065 0.27636918 -0.3795351 0.010792101 -0.34048182 0.16429989 0.42442638
0.16414699 -0.22545774 -0.35979646 1.1207209 0.6274459 -0.14402138 0.8511268 1.2465496
0.5935468 -0.18403517 -0.55068463 0.34129304 -0.0076276725 -0.6320698 0.37211445 0.92282254
00000000: be68 20bf 7aae 33bd a977 333f 715f e8be
00000010: e527 e43e c204 eebe 3475 80be abfd d33d
00000020: 87ad 24bf 89bd 9dbf a277 003f 58e3 6fbe
00000030: 83d8 17bf b228 643e 5663 d13e 1091 b2be
00000040: d9dc 013f ff59 3bbe d9e0 12bf ef89 cc3e
00000050: b2fc 3cbf f572 2d3d 5f66 20be 7ed0 703f
00000060: 80f7 1dbd 2544 e63e 08f2 413d 45e5 b8be
00000070: 94fe 663d 2937 0fbf d68e 373f e7fd 60be
00000080: e073 16bf 5a57 6f3e a546 f1bd 89eb 04bf
00000090: cfcb a8bd e069 e6be 8d24 283f 9fa7 0fbf
000000a0: cfb2 403e 8e71 f23d 4380 8d3e 6d52 c2be
000000b0: 5ad1 303c a253 aebe 3b3e 283e 6a4e d93e
000000c0: 2616 283e 65de 66be 3e37 b8be c873 8f3f
000000d0: 4ba0 203f 577a 13be 72e3 593f f08e 9f3f
000000e0: aff2 173f b773 3cbe abf9 0cbf f6bd ae3e
000000f0: 8ef1 f9bb 54cf 21bf c985 be3e 193e 6c3f

bias f4 [32]
-0.338292 -0.5526706 -0.0031037696 0.5548037 0.051315065 0.37297162 -0.36722034 -0.11386036
-0.44512966 0.6649526 -0.042707007 -0.9991674 -0.22043312 0.16014124 0.6550335 -0.2181823
-0.31463167 0.41041484 0.44364962 0.32707027 -0.40519562 -0.37024647 0.23831092 0.13902467
0.01247009 -1.390923 0.28488874 0.07977391 0.20725937 -0.5128788 0.6725524 -0.73745
00000000: 9c34 adbe d27b 0dbf 9d68 4bbb 9e07 0e3f
00000010: bf2f 523d 23f6 be3e 4e04 bcbe 9f2f e9bd
00000020: 09e8 e3be 553a 2a3f 8bed 2ebd 6fc9 7fbf
00000030: 38b9 61be 11fc 233e 47b0 273f 2e6b 5fbe
00000040: 6717 a1be e521 d23e 0b26 e33e c175 a73e
00000050: cd75 cfbe f290 bdbe c707 743e 7c5c 0e3e
00000060: 594f 4c3c c409 b2bf f0dc 913e 8160 a33d
00000070: cd3b 543e 064c 03bf 652c 2c3f 86c9 3cbf

weight f4 [32, 32]
0.05910357 0.15362065 -0.09706332 -0.05664852 -0.20250094 -0.10074381 -0.1364072 0.018539384
0.037819196 -0.17891768 -0.04430683 -0.010355848 0.1381382 0.097165145 -0.13524798 0.056663748
-0.018976081 0.06325262 0.0041200486 0.17599681 0.09274965 0.16538218 0.016870266 0.09004975
0.051318295 -0.05691227 0.040194914 0.20126301 0.07084624 0.08587699 0.051049102 0.037694838
0.073576376 -0.04336002 -0.043549635 -0.18822727 -0.08985279 0.13799654 -0.17549898 -0.04146498
0.13973734 -0.05014867 -0.08038742 0.11967962 0.031878665 -0.026169367 0.06268033 0.025941461
-0.2060148 0.014974066 -0.10614294 0.18003896 -0.0011763809 0.1859895 -0.0052247914 -0.048106436
-0.010153302 0.10408263 0.08054642 0.038777314 0.12739982 -0.14688459 -0.10041879 0.16441594
-0.16840883 -0.10531759 -0.026352683 -0.12861362 -0.56278306 0.124270596 -0.02487303 -0.034707654
0.061996534 -0.062107693 -0.22611158 -7.320276e-05 -0.007720041 -0.0030392366 0.092036076 0.19247712
-0.022694657 -0.0059457314 -0.095707074 0.10873151 0.14061879 -0.032104608 -0.02398274 0.1364048
-0.021498155 -0.1607802 0.18099788 0.5986014 0.16514646 -0.092838645 -0.07914479 -0.1420734
0.117973365 -0.14079706 -0.09737225 0.10286739 0.27148402 -0.037624236 0.19601502 -0.16770558
-0.13684961 -0.078422666 -0.033060376 -0.19605692 -0.024109181 -0.033205517 0.0251363 0.10564507
0.15060352 -0.010725397 0.090765126 -0.11656985 -0.16367765 -0.034569606 0.030128755 0.015526344
0.11007714 0.18552445 -0.17611696 -0.100492656 -0.00955558 0.048592456 -0.055091545 0.14571789
-0.1529008 0.15658163 -0.13405918 -0.0053679934 -0.11342345 0.01934601 -0.21549183 -0.0155092385
0.1709784 0.13862142 -0.14729379 -0.1735553 -0.022518916 0.17091198 0.050857022 0.14804643
0.026676105 0.1253095 0.13721848 0.044655126 -0.11219727 0.043823425 -0.008977997 0.050006147
0.11879335 -0.27890602 -0.0033915027 0.19951493 0.18784617 -0.061800778 0.08591126 -0.061180204
0.0034362124 -0.17477962 0.07011407 -0.018488169 0.057936437 -0.116898194 0.062207203 -0.036157012
0.021724587 -0.039925348 -0.060333423 -0.05631992 0.07709678 -0.060158335 -0.14875667 0.0069188043
0.04027346 -0.112365305 0.11433693 0.12571356 -0.19076344 0.07581598 -0.01604939 0.058233302
-0.12683813 -0.026944762 -0.030701194 -0.07568468 -0.06590194 0.12840693 -0.070604846 -0.040799163
-0.12629384 -0.07041865 0.1343207 0.05136451 0.008378367 0.22169656 -0.1157399 0.09121403
-0.010361645 0.1191681 -0.11857096 -0.2974717 -0.10757652 0.086411156 0.16374737 0.054718744
-0.20045148 0.13319308 0.10431516 -0.018919865 -0.1290531 -0.0062076016 0.06755468 -0.01162249
0.05466175 -0.40910536 0.059603807 0.08375057 0.04305608 -0.20757692 0.22444151 -0.31435162
-0.16761531 -0.12244157 -0.04496471 0.13967448 0.20017645 0.26805922 -0.2694732 0.06744249
-0.091543704 0.20617718 -0.16236421 -0.55265045 -0.162571 0.14146923 0.36125892 0.00018570074
-0.23041047 0.27635786 0.25321093 0.17343059 -0.13286674 -0.10960763 0.14736365 -0.028436853
0.057807684 -0.7529523 0.26226678 -0.25227618 0.21887344 -0.33264938 0.42549857 -0.5070937
00000000: 9616 723d bb4e 1d3e 22c9 c6bd 4708 68bd
00000010: 685c 4fbe c552 cebd 54ae 0bbe e8df 973c
00000020: 4de8 1a3d 3236 37be 147b 35bd 93ab 29bc
00000030: 1a74 0d3e 85fe c63d 727e 0abe 3f18 683d
00000040: ba73 9bbc 978a 813d 7901 873b 8238 343e
00000050: 87f3 bd3d f259 293e 8333 8a3c 016c b83d
00000060: 2233 523d d71c 69bd 6ca3 243d e417 4e3e
00000070: d517 913d 46e0 af3d dd18 513d e765 1a3d
00000080: 36af 963d 479a 31bd 1a61 32bd a6be 40be
00000090: bd04 b8bd f74e 0d3e 01b6 33be 2fd7 29bd
000000a0: 4e17 0f3e b168 4dbd 29a2 a4bd 971a f53d
000000b0: 3493 023d 2461 d6bc 8b5e 803d 3083 d43c
000000c0: 8bf5 52be c955 753c 7861 d9bd 225c 383e
000000d0: cb30 9aba 0874 3e3e ba34 abbb 410b 45bd
000000e0: 095a 26bc 4629 d53d 85f5 a43d f6d4 1e3d
000000f0: 1975 023e ea68 16be 5ea8 cdbd a75c 283e
00000100: 5d73 2cbe c0b0 d7bd 95e1 d7bc 4ab3 03be
00000110: 8d12 10bf 9581 fe3d 86c2 cbbc 9d29 0ebd
00000120: 14f0 7d3d a364 7ebd cb89 67be 6f84 99b8
00000130: 66f8 fcbb ee2d 47bb 697d bc3d b918 453e
00000140: 25ea b9bc 69d4 c2bb 1202 c4bd a0ae de3d
00000150: 5ffe 0f3e 1f80 03bd 7377 c4bc b3ad 0b3e
00000160: e61c b0bc 91a3 24be 8257 393e f13d 193f
00000170: 271c 293e 3022 bebd aa16 a2bd b07b 11be
00000180: 059c f13d 1b2d 10be 1a6b c7bd 23ac d23d
00000190: f4ff 8a3e df1b 1abd 29b8 483e 03bb 2bbe
000001a0: 4e22 0cbe 109c a0bd 516a 07bd 25c3 48be
000001b0: 9e80 c5bc 8202 08bd a4ea cd3c 715c d83d
000001c0: cf37 1a3e 93b9 2fbc 11e3 b93d 2cbc eebd
000001d0: 1d9b 27be dc98 0dbd 94d0 f63c 3562 7e3c
000001e0: 2070 e13d 1ffa 3d3e 0158 34be 18cf cdbd
000001f0: 028f 1cbc e208 473d aca7 61bd 1237 153e
00000200: 0792 1cbe ef56 203e cf46 09be fee5 afbb
00000210: 8e4a e8bd 867b 9e3c e4a9 5cbe 761a 7ebc
00000220: f614 2f3e c6f2 0d3e 2fd4 16be 7bb8 31be
00000230: 9779 b8bc 8d03 2f3e 744f 503d 7c99 173e
00000240: d987 da3c 2251 003e 0083 0c3e 4be8 363d
00000250: afc7 e5bd 3180 333d 7318 13bc 3fd3 4c3d
00000260: ee49 f33d c5cc 8ebe f943 5ebb a44d 4c3e
00000270: bf5a 403e d022 7dbd 3ef2 af3d 1898 7abd
00000280: 1432 613b 6ef9 32be f797 8f3d 8074 97bc
00000290: c24e 6d3d 5268 efbd fbcc 7e3d 6019 14bd
000002a0: c3f7 b13c c388 23bd 2e20 77bd b7af 66bd
000002b0: ebe4 9d3d 9668 76bd ab53 18be 23b7 e23b
000002c0: c9f5 243d c81f e6bd 7b29 ea3d 0ebb 003e
000002d0: 7e57 43be 6945 9b3d 037a 83bc 0b86 6e3d
000002e0: dbe1 01be 43bb dcbc 1281 fbbc 9200 9bbd
000002f0: 99f7 86bd 1b7d 033e 4699 90bd 061d 27bd
00000300: 2c53 01be a737 90bd 5e8b 093e 9863 523d
00000310: 6b45 093c 6c04 633e 0a09 edbd 6cce ba3d
00000320: e4c3 29bc 680e f43d 55d5 f2bd 364e 98be
00000330: 1451 dcbd 55f8 b03d 64ad 273e c320 603d
00000340: 2743 4dbe c463 083e 30a3 d53d d5fd 9abc
00000350: 7f26 04be 2369 cbbb 1c5a 8a3d 426c 3ebc
00000360: 00e5 5f3d 4276 d1be 1f23 743d 6b85 ab3d
00000370: 925b 303d 0b8f 54be ffd3 653e b2f2 a0be
00000380: 59a3 2bbe a5c2 fabd ea2c 38bd d406 0f3e
00000390: 0efb 4c3e 0f3f 893e 64f8 89be 4a1f 8a3d
000003a0: 447b bbbd 1c20 533e ce42 26be 807a 0dbf
000003b0: 0379 26be 4fdd 103e eef6 b83e aab8 4239
000003c0: b9f0 6bbe c77e 8d3e dda4 813e ca97 313e
000003d0: 380e 08be f779 e0bd 7fe6 163e 67f4 e8bc
000003e0: c0c7 6c3d 7bc1 40bf d547 863e 582a 81be
000003f0: 5c20 603e 0551 aabe f3da d93e e5d0 01bf

bias f4 [32]
-0.062464263 -0.11576472 0.0845347 0.025167627 0.12990594 0.039493974 0.1432451 0.41605607
-0.0677461 -0.2569023 -0.072517015 -0.48263118 0.06519171 0.03576468 -0.059719305 -0.14808023
0.039567444 -0.15394425 0.041245043 0.055029526 -0.098694034 0.1988959 0.33853537 -0.19893144
0.23110802 -0.17392674 -0.18902145 -0.10937622 -0.10047995 0.07549636 -0.23614383 -0.09497072
00000000: 87da 7fbd 0e16 edbd 8720 ad3d 572c ce3c
00000010: 1006 053e 6fc4 213d d8ae 123e 4d05 d53e
00000020: 78be 8abd b388 83be cd83 94bd 6f1b f7be
00000030: 3b83 853d fc7d 123d 3b9c 74bd 58a2 17be
00000040: 7911 223d 90a3 1dbe 90f0 283d a466 613d
00000050: 1920 cabd 5eab 4b3e 8254 ad3e afb4 4bbe
00000060: 95a7 6c3e da19 32be d78e 41be a400 e0bd
00000070: 6fc8 cdbd d69d 9a3d b0cf 71be 0280 c2bd

weight f4 [1, 32]
0.291847 0.19201559 0.26290607 -0.23876143 0.21091603 -0.14629784 0.16811079 0.5245223
0.33421776 -0.17712776 0.22237751 -0.9823272 0.23052768 -0.21255976 -0.15788049 0.1622688
0.1552712 -0.08826107 0.21223366 0.31708667 0.052361704 -0.20152934 0.5766415 0.17284045
0.608999 0.22541419 0.1926294 -0.28828377 0.15409307 -0.14490263 -0.21839513 -0.06728448
00000000: f86c 953e bc9f 443e a09b 863e e07d 74be
00000010: 5ffa 573e 1acf 15be 3c25 2c3e 1847 063f
00000020: 971e ab3e fb60 35be eeb6 633e cc79 7bbf
00000030: 730f 6c3e 44a9 59be 6cab 21be cb29 263e
00000040: 6aff 1e3e 38c2 b4bd c853 593e 2f59 a23e
00000050: 3a79 563d b55d 4ebe c79e 133f 16fd 303e
00000060: 5ce7 1b3f fad2 663e a440 453e ee99 93be
00000070: 93ca 1d3e 5b61 14be f9a2 5fbe 72cc 89bd
