calixarene/models/model_4.pt (torch, 22751 bytes, 5 tensors)

weight f4 [32, 16]
0	0xbe4da0c6	-0.20080861
1	0xbe94be5c	-0.29051483
2	0xbf39226a	-0.72318137
3	0xbe2a2e44	-0.16619211
4	0xbcf3e393	-0.029771602
5	0xbe096f5c	-0.13421386
6	0xbe919c44	-0.28439534
7	0x3ca91926	0.020641875
8	0xba43d3ff	-0.00074702495
9	0x3d31e907	0.043435123
10	0xbda59540	-0.08085108
11	0xbea24820	-0.31695652
12	0x3e9cb017	0.30603096
13	0x3e124d5d	0.14287324
14	0x3df2fd99	0.11864776
15	0x3d0c4f4f	0.034255322
16	0xbbbc64d3	-0.005749324
17	0xbdd4ab98	-0.103842914
18	0xbdacb0b4	-0.08432141
19	0xbd369a28	-0.04458061
20	0xbd68133d	-0.056658972
21	0xbd4a8237	-0.04944059
22	0x3a0f5701	0.00054679817
23	0xbd916e2e	-0.07101093
24	0x3cd599ec	0.026074372
25	0x3ce4d145	0.027931819
26	0x3da554e1	0.0807283
27	0x3e6ddf46	0.23229703
28	0x3d0b9227	0.03407493
29	0x3d00cbd6	0.031444393
30	0xbe573f70	-0.21020293
31	0xbdc888ab	-0.09791692
32	0xbe50c258	-0.20386636
33	0xbe658180	-0.22412682
34	0xbe31d850	-0.17367673
35	0xbe40a8a0	-0.18814325
36	0x3daa5d59	0.08318586
37	0xbcc9ac4e	-0.024618294
38	0x3dbfb2a7	0.09360247
39	0xbcb82a54	-0.022481121
40	0xbcdac9c2	-0.026707534
41	0xbd272842	-0.040809877
42	0xbda895f2	-0.08231725
43	0xbcb7215c	-0.022354774
44	0x3e613a1f	0.21994828
45	0x3e4bf27e	0.19916722
46	0xbe264d4d	-0.16240425
47	0xbe240ec5	-0.16021259
48	0x3e8031de	0.25038046
49	0x3e36ef5a	0.17864743
50	0x3eb49b82	0.35274893
51	0x3e8d9286	0.2765085
52	0xbd214412	-0.039371558
53	0xbd3918e6	-0.04518976
54	0xbcec80c3	-0.028869992
55	0xbd74157a	-0.059590794
56	0x3d792938	0.060830325
57	0x3ce05263	0.027383035
58	0x3c801337	0.015634162
59	0x3f06b94b	0.52626485
60	0x3e87d5fe	0.2653045
61	0xbd92b57d	-0.071635224
62	0xbd1cfec6	-0.03832891
63	0xbd3cfb26	-0.04613795
64	0x3c4f9a87	0.0126711195
65	0xbcdf04c2	-0.027223948
66	0x3df05307	0.11734586
67	0xbc7613fd	-0.015019414
68	0xbd4a1961	-0.04934061
69	0xbb59d30f	-0.0033237373
70	0x3e1fad07	0.15593348
71	0xbd2f3c55	-0.042782146
72	0x3de3d3c9	0.11124379
73	0x3dc39924	0.09550694
74	0x3de9bd14	0.11413017
75	0xbd562d96	-0.052289568
76	0x3e1731a7	0.14765035
77	0x3d135d8a	0.035977878
78	0xbcb198e4	-0.02167935
79	0x3d610f17	0.05494603
80	0x3eb1ad46	0.3470251
81	0xbdb7e3bb	-0.08978983
82	0x3e81d3c7	0.25356886
83	0x3d4df382	0.050281055
84	0xbe0ac743	-0.13552575
85	0x3e382ac3	0.17985062
86	0xbd9d74a0	-0.0768826
87	0xbd38b09a	-0.045090295
88	0xbb96f8b1	-0.004607283
89	0x3b918dc5	0.004441949
90	0x3b7cdda7	0.0038584264
91	0x3c89d50c	0.016825221
92	0xbc64e01b	-0.0139694465
93	0x3e63af31	0.22234799
94	0x3e1f97ac	0.15585202
95	0xbe0a27d8	-0.13491762
96	0x3deacdb7	0.11465018
97	0x3e52d414	0.20588714
98	0x3e50eafa	0.20402136
99	0x3e035de8	0.12828791
100	0x3d93a97b	0.0721006
101	0xbcb61b6f	-0.022229878
102	0x3c949a3f	0.018139957
103	0xbdaa31a0	-0.083102465
104	0xbd3d161b	-0.04616366
105	0xbc735959	-0.014852845
106	0x3d17ac46	0.037029527
107	0x3d9f0bd5	0.07765929
108	0xbcbce4cb	-0.023058316
109	0xbe345bc9	-0.17613138
110	0x3d45a718	0.048255056
111	0xbd59f18b	-0.05320887
112	0xbd73e005	-0.059539814
113	0xbdabb155	-0.08383433
114	0xbdbe9883	-0.09306433
115	0xbd895221	-0.06705118
116	0xbc385d4f	-0.011252715
117	0x3c0a77dd	0.008451429
118	0xbbf7a766	-0.0075577972
119	0x3c72f96c	0.014829975
120	0x398b5d53	0.00026581678
121	0xbc2140e0	-0.009842128
122	0xbcf6f5ba	-0.030146468
123	0xbd2f2e4f	-0.042768773
124	0xbc00a62a	-0.007852117
125	0x3cdf24d5	0.027239243
126	0xbd8c18ee	-0.068406925
127	0xbd113ffa	-0.035461403
128	0x3c22f6b3	0.009946513
129	0x3d90b4ce	0.07065736
130	0xbc054700	-0.0081346035
131	0x3d760b74	0.060069516
132	0x3d3fcaa5	0.046824116
133	0xbd92a090	-0.07159531
134	0xbd3be492	-0.04587228
135	0x3c993346	0.018701207
136	0x3d1eedf8	0.038801163
137	0x3cf6e239	0.030137168
138	0x3d8e7961	0.06956745
139	0x3df54bf9	0.11977381
140	0x3e381f3c	0.17980665
141	0xbc2f8d73	-0.010714876
142	0x3c1a144d	0.009404254
143	0x3de17923	0.11009433
144	0xbdf9778e	-0.12181006
145	0xbdf92f53	-0.121672295
146	0xbdf3dbe6	-0.11907177
147	0xbe045cba	-0.12925997
148	0xbda1ebce	-0.07906304
149	0xbda27b18	-0.079336345
150	0xbe059199	-0.13043822
151	0xbdd57eca	-0.10424574
152	0x3c183867	0.009290791
153	0xbd1179fa	-0.035516717
154	0xbd3fbb6e	-0.046809606
155	0xbd9ee1e0	-0.07757926
156	0xbdff58d9	-0.12468118
157	0xbdc8486b	-0.09779438
158	0xbd6a63d5	-0.057224113
159	0xbd2d918f	-0.042375144
160	0x3e97e186	0.29664248
161	0xbdc43edb	-0.09582301
162	0xbee9ca7c	-0.45662296
163	0x3f1a94a0	0.60383034
164	0xbde44cb9	-0.11147446
165	0x3dd748dd	0.105119444
166	0x3de7e72a	0.11323388
167	0xbd1e68d5	-0.038674194
168	0xbae497f3	-0.0017440304
169	0x3c3f0621	0.011659176
170	0x3bd3c31a	0.006462467
171	0x3cce33a1	0.025171103
172	0xbd1ca042	-0.03823877
173	0xbd62493e	-0.05524563
174	0x3c8541ee	0.01626679
175	0x3d831a13	0.06401458
176	0xbd71447c	-0.058903202
177	0xbd93165e	-0.071820006
178	0xbdae7a7f	-0.08519458
179	0xbd814bf3	-0.06313314
180	0xbb902a63	-0.004399584
181	0x3bc57f96	0.0060271723
182	0xbbe5bcaa	-0.007011016
183	0x3c1eab30	0.009684369
184	0xbbffa765	-0.0078019374
185	0xbc6ce353	-0.014458495
186	0xbce5d568	-0.028055862
187	0xbd12cfd2	-0.035842724
188	0xbc7eff8c	-0.015563857
189	0x3c849a92	0.016186986
190	0xbd6779bd	-0.056512583
191	0xbd189a64	-0.037256613
192	0x3dc8b990	0.09801018
193	0x3dfa0101	0.12207223
194	0x3e074406	0.13209543
195	0x3ddb7bea	0.10716994
196	0xba50720d	-0.0007951565
197	0xbcc2193a	-0.02369367
198	0xbcacf146	-0.021111142
199	0xbcbab84e	-0.022792961
200	0x3bed1c06	0.0072360067
201	0x3c8be148	0.017075196
202	0x3bfe9246	0.007768902
203	0xbc1869f5	-0.009302606
204	0x3d72376a	0.05913488
205	0xbd993e55	-0.07482592
206	0x3d095e0b	0.033536952
207	0x3d02086c	0.031746313
208	0xbda0a893	-0.07844653
209	0x3e9802f1	0.29689744
210	0x3e064ba6	0.13114795
211	0x3e1815c1	0.14852048
212	0xbe49bd58	-0.19701135
213	0x3e771f80	0.2413311
214	0x3d9b9e67	0.07598572
215	0x3d3abbd0	0.04558927
216	0xbc993376	-0.018701296
217	0x3c4d012d	0.012512487
218	0xbd67b6f8	-0.056570977
219	0x3c5ece72	0.013599025
220	0x3d5c75d9	0.053823326
221	0xbe86b243	-0.26307878
222	0xbd01bd93	-0.031674933
223	0x3db540b5	0.088502325
224	0xbe00ea92	-0.12589481
225	0xbda87253	-0.082249306
226	0xbda55ec8	-0.08074719
227	0xbe3c6df8	-0.18401325
228	0xbc8d2ec9	-0.017234223
229	0x3cc464d2	0.023973856
230	0x3d356c8e	0.04429298
231	0x3b9fd111	0.0048772176
232	0xbd0bdb10	-0.03414446
233	0xbd2e2d9f	-0.042523976
234	0xbda14c13	-0.07875838
235	0xbdffafa3	-0.12484672
236	0x3e87abb8	0.26498199
237	0xbd4463fc	-0.047946915
238	0xbec834fd	-0.39102927
239	0x3d75e302	0.060030945
240	0xbe5a3d4a	-0.21312442
241	0xbdc74509	-0.09729964
242	0xbc17b4b5	-0.0092593925
243	0xbe792624	-0.24330956
244	0xbde36988	-0.11104113
245	0xbe2572c5	-0.16157062
246	0x3de9de4e	0.114193544
247	0xbb08903b	-0.0020837921
248	0xbb6d3ba1	-0.0036198872
249	0x3cea2575	0.028582314
250	0xbcf8aa9c	-0.03035479
251	0xbcd8bd3e	-0.026457425
252	0xbe51f4d5	-0.20503552
253	0x3e47d68a	0.19515434
254	0x3e86b1b9	0.26307467
255	0x3c9f3420	0.019434035

bias f4 [32]
0	0xbcf5066b	-0.029910287
1	0x3e5a6040	0.21325779
2	0x3f1f5a96	0.622476
3	0xbccbe1bc	-0.024887912
4	0xbe32667a	-0.17421904
5	0xbf925481	-1.1432039
6	0xbf1fc831	-0.6241484
7	0x3ebe6a88	0.37190652
8	0xbeadda23	-0.33955488
9	0xbdb60e84	-0.088894874
10	0xbe2d4f8d	-0.16924877
11	0x3ea6fd7f	0.32615277
12	0xbee3f3d1	-0.44521955
13	0xbe9f48d7	-0.3111026
14	0x3f525020	0.8215351
15	0x3ef5aae6	0.47981948
16	0xbda7d520	-0.08194947
17	0x3f5f8ad0	0.87321186
18	0xbdb4b83e	-0.08824204
19	0xbdb2c65c	-0.0872924
20	0xbf125db3	-0.57174224
21	0xbe941d0a	-0.28928405
22	0xbed8a8da	-0.42316324
23	0xbea0ccd1	-0.31406263
24	0xbe9cbc3d	-0.30612364
25	0x3cd30e2c	0.025763594
26	0x3fdbe9c6	1.7180717
27	0x3daa9538	0.083292425
28	0xbe8dd3c7	-0.27700636
29	0x3ea0bd9a	0.31394655
30	0xbf9953ec	-1.1978736
31	0x3db26fd8	0.08712739

weight f4 [32, 32]
0	0x3d96d6a4	0.07365158
1	0xbcbe89cc	-0.023259066
2	0x3ca0ed2d	0.019644344
3	0xbd2a2d47	-0.041547086
4	0xbc761fce	-0.015022231
5	0xbd083c31	-0.033260528
6	0x3cbc0046	0.02294935
7	0xbb799645	-0.0038083952
8	0x3c9783e6	0.018495511
9	0x3c317496	0.010831019
10	0x3d117657	0.03551325
11	0xbaf8f9a5	-0.0018995298
12	0x3bf975de	0.007612928
13	0xbd01ca8a	-0.031687297
14	0x3c8e5a82	0.017377142
15	0x39687114	0.00022167369
16	0x3ccca950	0.024983078
17	0x3c87cc7b	0.016576996
18	0x3c2a6a01	0.01040125
19	0x3c2155e3	0.009847137
20	0xbd070d85	-0.032971878
21	0xbb0df06a	-0.002165819
22	0xbc1b7945	-0.009489362
23	0x3bd3077c	0.006440101
24	0xbd079d84	-0.033109203
25	0x3bb47d2b	0.0055080852
26	0xbc35c781	-0.011094929
27	0xbcced00d	-0.02524569
28	0x3afeb6fc	0.0019433196
29	0xbac24aba	-0.0014823296
30	0xbd2112a8	-0.039324433
31	0xbc1fd399	-0.009755039
32	0xbe7cc735	-0.24685366
33	0x3dae7fe5	0.08520488
34	0xbd2b879e	-0.04187738
35	0x3e155308	0.14582455
36	0x3dd65ab6	0.104665205
37	0x3e0ef329	0.13959946
38	0xbdd07908	-0.10179335
39	0x3c8efd28	0.017454699
40	0xbd8a4a39	-0.06752438
41	0xbc7df330	-0.015499875
42	0xbe6f4c92	-0.23369053
43	0x3c0438b7	0.0080701625
44	0xbcdc03fe	-0.026857372
45	0x3dc76347	0.097357325
46	0xbd0a21e6	-0.033723734
47	0x3cef2f05	0.029197225
48	0xbdcb679e	-0.09931873
49	0xbdbc6067	-0.09198075
50	0xbc5f7683	-0.013639095
51	0xbc372b74	-0.011179794
52	0x3e5bc2fc	0.214611
53	0x3c4a9414	0.012364406
54	0x3d148f7e	0.036269657
55	0xbc82e471	-0.01597807
56	0x3dc5190f	0.0962392
57	0x3cbfd332	0.023416135
58	0x3cdc5578	0.026896223
59	0x3d8c0e7d	0.06838701
60	0x3c333972	0.010938989
61	0x3c034f62	0.008014532
62	0x3e293231	0.16523053
63	0x3c30ab34	0.0107830055
64	0x3d5cfd67	0.0539526
65	0xbc882467	-0.01661892
66	0x3c709908	0.014684923
67	0xbcfaa694	-0.030597009
68	0xbc32ac2c	-0.010905307
69	0xbcc516ae	-0.024058666
70	0x3c888db0	0.016669124
71	0xbb279d54	-0.0025575953
72	0x3c5800d9	0.013183796
73	0x3c0e6804	0.008691791
74	0x3ccaaa8e	0.02473953
75	0xba99f3f2	-0.0011745675
76	0x3bb30dc4	0.0054642875
77	0xbcbf5b64	-0.023359008
78	0x3c561333	0.013066101
79	0x395d9f02	0.00021135437
80	0x3c958cf2	0.018255685
81	0x3c3ef60b	0.011655341
82	0x3c096720	0.008386403
83	0x3c02f324	0.00799254
84	0xbcbdd6f0	-0.02317378
85	0xbaea46cd	-0.0017873883
86	0xbbea1ba0	-0.0071444064
87	0x3b9873c2	0.0046524713
88	0xbcc8e917	-0.024525208
89	0x3b9aa3d0	0.004719235
90	0xbc0d147b	-0.00861084
91	0xbc9c8bbe	-0.019109603
92	0x3ab25467	0.0013605476
93	0xba5ef9b0	-0.0008505834
94	0xbce91691	-0.028453143
95	0xbc01dfce	-0.007926894
96	0x3daf02e0	0.0854547
97	0xbce0c440	-0.02743733
98	0x3cb8137c	0.022470228
99	0xbd44caab	-0.04804484
100	0xbc901165	-0.01758642
101	0xbd1f8449	-0.038944516
102	0x3cdbc301	0.026826384
103	0xbb98ef51	-0.0046672006
104	0x3cb2ed9b	0.021841815
105	0x3c409f76	0.011756768
106	0x3d2eb1fa	0.0426502
107	0xbb1f6a9d	-0.002432502
108	0x3c12cb53	0.008959609
109	0xbd15e4dd	-0.036595214
110	0x3ca253f8	0.01981543
111	0x391f1978	0.0001517291
112	0x3cee547b	0.029093018
113	0x3ca19219	0.019722985
114	0x3c384a91	0.011248247
115	0x3c2d9841	0.010595382
116	0xbd21369d	-0.039358724
117	0xbb1775bb	-0.0023110944
118	0xbc310d9e	-0.010806469
119	0x3bf721c7	0.0075418684
120	0xbd1c1b05	-0.038111705
121	0x3bb8535b	0.005625171
122	0xbc4abe16	-0.012374422
123	0xbcea9a62	-0.028638069
124	0x3b170c81	0.0023048224
125	0xbb010261	-0.0019685256
126	0xbd3cb5fe	-0.046072
127	0xbc2bd03a	-0.010486657
128	0x3edcbee0	0.43114376
129	0xbe95b6f8	-0.29241157
130	0xbf356138	-0.7085147
131	0xbed7dbfd	-0.42160025
132	0x3e7e1957	0.24814354
133	0x3f9175cd	1.1364075
134	0x3f396246	0.7241558
135	0xbee91c47	-0.45529386
136	0x3ecc1e5b	0.3986691
137	0x3ed0c8eb	0.40778288
138	0x3e7dcb51	0.2478459
139	0xbed16e91	-0.40904668
140	0x3f063ea0	0.5243931
141	0x3edbf447	0.42959806
142	0xbf5efc77	-0.8710398
143	0xbf0209d1	-0.5079623
144	0x3dce742a	0.1008075
145	0xbf724ab5	-0.94645244
146	0x3ed0774b	0.40716013
147	0x3ed008f9	0.40631846
148	0x3f0352c4	0.51298165
149	0x3ebee9f7	0.37287876
150	0x3f0b6cfa	0.5446316
151	0x3ec63857	0.3871486
152	0x3ed98fd6	0.4249255
153	0x3e9efd47	0.3105261
154	0xbfe8afc7	-1.8178643
155	0xbeca522d	-0.3951582
156	0x3eb6f3a4	0.35732758
157	0xbecba555	-0.39774576
158	0x3f8ada5b	1.0847887
159	0xbecfd98b	-0.4059566
160	0xbdf3a6dd	-0.11897061
161	0x3d244c47	0.040111806
162	0xbcf4616d	-0.029831612
163	0x3d87f1b6	0.066378996
164	0x3cd1c58a	0.02560689
165	0x3d6548df	0.0559777
166	0xbd1e4eb3	-0.038649272
167	0x3bf785c2	0.007553787
168	0xbd02e7ee	-0.031959467
169	0xbc568dbd	-0.0130953165
170	0xbd877f30	-0.06616056
171	0x3b8d8db9	0.004319873
172	0xbc56514d	-0.013080907
173	0x3d4d5060	0.05012548
174	0xbcd69210	-0.026192695
175	0x3a36761b	0.0006960348
176	0xbd29b78f	-0.04143482
177	0xbcefafc9	-0.029258626
178	0xbc4a18a0	-0.012334973
179	0xbc39f1c5	-0.011349146
180	0x3d75df3e	0.060027353
181	0x3b237742	0.002494291
182	0x3c698cb1	0.014254735
183	0xbc30fca8	-0.010802425
184	0x3d53b2d2	0.05168421
185	0xbb8d78fc	-0.004317401
186	0x3c7b14ce	0.015324784
187	0x3d1863e6	0.037204646
188	0xbb5585a6	-0.0032580881
189	0x3b769caa	0.003763
190	0x3d885f03	0.06658747
191	0x3c376328	0.011193074
192	0xbe2cb8a8	-0.16867316
193	0x3d77ac0d	0.060466815
194	0xbd1e08ee	-0.038582735
195	0x3dc1085f	0.09425425
196	0x3d29f352	0.041491814
197	0x3dac73db	0.08420535
198	0xbd742e70	-0.0596146
199	0x3c50ac31	0.012736366
200	0xbd44110b	-0.047867816
201	0xbc546628	-0.012963809
202	0xbde3863d	-0.11109588
203	0x3bfbbee0	0.007682666
204	0xbca3a7b0	-0.01997742
205	0x3d8cfbaf	0.06883942
206	0xbd0ba5c0	-0.03409362
207	0x3ba817f1	0.005129807
208	0xbd7fc726	-0.062445782
209	0xbd358a6b	-0.04432146
210	0xbc413aaf	-0.011793776
211	0xbc28a8aa	-0.010294119
212	0x3dcbf0ba	0.09958024
213	0x3b414938	0.0029493105
214	0x3c9d38e5	0.019192168
215	0xbc810f76	-0.015754443
216	0x3d8f679d	0.070021845
217	0x3b04549b	0.002019203
218	0x3c9c0fd2	0.019050512
219	0x3d45730b	0.048205417
220	0xbb6aefe1	-0.0035848545
221	0x3be8883a	0.0070963176
222	0x3dd00676	0.10157482
223	0x3c24aaf8	0.010050528
224	0xbdc01369	-0.09378702
225	0x3cf9af79	0.03047918
226	0xbcc7d788	-0.024394765
227	0x3d577d3c	0.052609667
228	0x3c9f6dde	0.019461568
229	0x3d305212	0.04304702
230	0xbcf2c877	-0.029636605
231	0x3bae726b	0.0053236983
232	0xbcc6def4	-0.024276234
233	0xbc48e0de	-0.012260644
234	0xbd44bc1e	-0.048030965
235	0x3b3af25a	0.00285258
236	0xbc22decd	-0.009940815
237	0x3d23e998	0.040017694
238	0xbcafe9ca	-0.021473784
239	0xb8434626	-4.6556954e-05
240	0xbd0349e2	-0.032052882
241	0xbcb466e1	-0.022021713
242	0xbc3f9135	-0.011692335
243	0xbc33976f	-0.010961398
244	0x3d34c09f	0.04412901
245	0x3b1c0926	0.0023809164
246	0x3c3fad4c	0.011699032
247	0xbc088bff	-0.008334159
248	0x3d2a49ad	0.04157417
249	0xbbb54472	-0.005531841
250	0x3c581fff	0.013191222
251	0x3cfd26a1	0.030902209
252	0xbb27a10d	-0.0025578171
253	0x3b1aa95f	0.0023599488
254	0x3d50c406	0.050968193
255	0x3c319b1a	0.010840202

bias f4 [32]
0	0xbc95cc5a	-0.018285919
1	0x3d2b6aca	0.04184989
2	0xbc68de3b	-0.01421314
3	0xbca6c3ac	-0.020356975
4	0xbf022690	-0.5084009
5	0x3ccc2fe1	0.024925174
6	0x3cf5cc48	0.030004635
7	0x3cb16e3a	0.021659005
8	0xbcc8843b	-0.024477115
9	0xbd7ef8ff	-0.06224918
10	0xbcda05d1	-0.026614102
11	0xbccf575f	-0.025310216
12	0xbcde3904	-0.027126797
13	0x3d09c1a6	0.033631943
14	0xbcccbceb	-0.024992427
15	0xbcde5237	-0.027138812
16	0x3cbe69ff	0.023243902
17	0x3cefabb4	0.02925668
18	0xbca1dfb5	-0.019759992
19	0x3cde5037	0.027137859
20	0xbcae4ff7	-0.021278365
21	0xbca3d062	-0.019996826
22	0x3cdded0b	0.02709057
23	0x3cbe0137	0.023193939
24	0x3cc1b628	0.02364643
25	0x3ca0c0e6	0.019623231
26	0xbcf25550	-0.029581696
27	0xbcd0cd8d	-0.02548864
28	0x3cd8f1d8	0.026482508
29	0xbccff46a	-0.0253851
30	0x3cf1bcb2	0.029508922
31	0x3cde14dd	0.027109558

weight f4 [1, 32]
0	0xbe0f8906	-0.14017114
1	0x3f0da7e2	0.55334294
2	0xbdd0fab1	-0.102040656
3	0xbe2753d3	-0.1634057
4	0x4023e4bf	2.5608366
5	0x3e6d12d9	0.23151721
6	0x3eae43b2	0.34036022
7	0x3e3856bc	0.18001837
8	0xbe64be6b	-0.22338264
9	0xbf9531f8	-1.1655874
10	0xbe87a08e	-0.2648968
11	0xbe7453c1	-0.23860075
12	0xbe8d11d9	-0.2755268
13	0xbf2704df	-0.6524181
14	0xbe6e29b2	-0.23258093
15	0xbe8d30aa	-0.2757619
16	0x3e4fd9f2	0.20297983
17	0x3ea56d8f	0.3231015
18	0xbe201aa0	-0.15635157
19	0x3e8d4830	0.27594137
20	0xbe332d97	-0.1749786
21	0xbe22ef85	-0.15911682
22	0x3e8cb200	0.27479553
23	0x3e4f1830	0.2022407
24	0x3e5669d3	0.20938806
25	0x3e1e7fd6	0.15478453
26	0xbea93ab7	-0.33052608
27	0xbe77cd5a	-0.24199429
28	0x3e86125f	0.2618589
29	0xbe75cec7	-0.2400466
30	0x3ea84c54	0.32870734
31	0x3e8cfd27	0.2753689
