calixarene/models/model_0_zeta.pt (torch, 20652 bytes, 5 tensors)

weight f4 [32, 16]
-0.21117464 0.16156028 -0.06654597 0.16381894 -0.13152826 0.24631141 -0.17489803 0.09971486
0.2707577 0.058768712 0.05336385 0.15204217 0.19360372 -0.17384659 -0.17216025 0.13954297
0.060424685 0.033893216 0.098873444 -0.074821204 0.007841931 -0.20171112 -0.15349789 -0.047116857
0.08636546 -0.02223342 -0.11913253 -0.14878081 -0.013834716 -0.16599572 0.111807674 0.03722108
0.12474137 0.18250507 -0.16766366 -0.15443464 -0.26624864 0.075745836 -0.2800135 -0.22871858
-0.04956297 -0.2242628 -0.053826034 -0.050488748 0.15325162 -0.017838545 0.08447202 0.03650256
0.09529917 0.016867165 0.044706054 0.08612512 0.27166808 0.19734868 0.061285004 -0.03316713
0.082489215 0.09677316 0.15066667 0.047979865 0.061255813 -0.06917115 0.08962646 -0.27799883
0.25383422 0.22813992 0.29215497 -0.08516262 -0.06336936 0.116569534 0.016929533 0.26184297
0.019005036 0.2852023 -0.15449625 0.00061613764 0.043178353 -0.2397067 -0.13008165 -0.040663145
0.0083540175 -0.22727714 -0.14824253 -0.13495582 -0.17970273 0.0551388 0.0018090905 0.18427122
-0.14387883 0.11419309 -0.19571017 0.052003317 -0.15108293 -0.19023503 -0.07019035 0.2554795
0.08954673 -0.21437743 0.20979121 -0.26708764 0.14379086 0.1577343 0.16500925 0.029652944
-0.121244766 -0.043329004 -0.14623687 0.28249377 -0.04148616 0.14964575 0.14167261 -0.12229131
-0.12254785 0.07990883 0.00053397985 -0.29238087 -0.0017361039 -0.32008544 -0.32520637 0.18963291
-0.049748927 -0.003846866 0.04033875 -0.039638747 0.09798402 0.23037662 -0.15145174 0.044727538
-0.09640263 0.18756168 0.18357167 0.016708488 -0.03298862 -0.16415887 0.16731967 -0.13306351
0.20962523 -0.18920918 0.13805105 0.03772601 0.1127182 -0.028504666 0.0141360825 0.05393802
0.020672701 0.17693956 -0.07889893 0.22704631 0.15032995 -0.1314327 -0.15906514 -0.06344752
-0.09652351 -0.035885073 -0.18223384 0.01340512 0.24724211 0.042241648 0.23764662 0.15278535
-0.002518539 0.09567318 0.06706107 -0.22068505 0.003276319 -0.04128541 0.15025581 0.0130042955
0.0368428 -0.2530122 0.08210724 -0.17119311 0.21832989 0.07712665 0.17536375 -0.045271546
0.17848612 -0.105694026 -0.13948798 -0.053178806 0.14960286 0.2709734 -0.14288004 0.21823315
0.26788113 -0.14955966 0.24855462 0.23641777 0.22543438 -0.20144546 -0.054019094 0.056513857
-0.15180066 -0.17264497 -0.13378303 -0.03995544 -0.22082171 -0.090659246 0.092292786 0.013439323
-0.21983345 -0.1283337 0.0509133 -0.098051645 -0.011548756 -0.052611977 -0.13058093 0.06825043
-0.12124058 -0.007199674 0.28433377 0.055896964 -0.015354222 0.14777003 0.18523842 0.23194258
0.27169663 0.12820587 0.05234709 -0.09018349 0.24115334 0.0029673676 0.058599293 -0.35448903
0.24643405 -0.17465273 -0.13780808 0.15907581 -0.07605022 0.29003695 -0.08221017 0.19435701
0.004476557 0.060018178 -0.019203382 0.02335245 0.09772409 -0.010177536 -0.16587837 -0.2586211
0.027489986 0.08212117 0.2122501 -0.09400165 0.009187017 0.05735526 -0.19802745 -0.12011116
-0.03598054 0.15154456 -0.09962681 -0.22195585 -0.1370166 0.16036716 0.10977741 -0.111609876
00000000: 2a3e 58be 0f70 253e 4149 88bd 27c0 273e
00000010: 58af 06be 0f39 7c3e 7818 33be 4e37 cc3d
00000020: c1a0 8a3e 76b7 703d 0d94 5a3d f1b0 1b3e
00000030: 0e40 463e d704 32be c74a 30be 5ae4 0e3e
00000040: e07f 773d 9dd3 0a3d 297e ca3d dc3b 99bd
00000050: 717b 003c 5c8d 4ebe 8d2e 1dbe 9bfd 40bd
00000060: 60e0 b03d dc22 b6bc c2fb f3bd ff59 18be
00000070: 01ab 62bc c8fa 29be 6cfb e43d 2275 183d
00000080: 6778 ff3d 9ce2 3a3e 06b0 2bbe 1d24 1ebe
00000090: be51 88be a220 9b3d ee5d 8fbe 3435 6abe
000000a0: 8a02 4bbd 26a5 65be b078 5cbd 4acd 4ebd
000000b0: feed 1c3e 2422 92bc abff ac3d b583 153d
000000c0: 362c c33d 022d 8a3c b21d 373d 5e62 b03d
000000d0: 1418 8b3e c615 4a3e fc05 7b3d 42da 07bd
000000e0: 1bf0 a83d 0231 c63d 5d48 1a3e 8986 443d
000000f0: 60e7 7a3d 9ba9 8dbd 148e b73d dd55 8ebe
00000100: 8ff6 813e 839d 693e 5695 953e bd69 aebd
00000110: ccc7 81bd 02bc ee3d ceaf 8a3c 4810 863e
00000120: 73b0 9b3c 0906 923e 4434 1ebe 4c84 213a
00000130: c9db 303d ac75 75be 2034 05be 668e 26bd
00000140: 4adf 083c 57bb 68be e4cc 17be dc31 0abe
00000150: fe03 38be 39d9 613d 011f ed3a 98b1 3c3e
00000160: f954 13be 11de e93d 3f68 48be 6e01 553d
00000170: 7cb5 1abe f9cc 42be f5bf 8fbd 36ce 823e
00000180: 4764 b73d c285 5bbe 82d3 563e b6bf 88be
00000190: e93d 133e 1a85 213e 2ff8 283e bbea f23c
000001a0: 2d4f f8bd c179 31bd 1ebf 15be 06a3 903e
000001b0: 64ed 29bd bc3c 193e a012 113e de73 fabd
000001c0: 5efa fabd 3ea7 a33d c8fa 0b3a f2b2 95be
000001d0: fb8d e3ba 3de2 a3be 7381 a6be 212f 423e
000001e0: 88c5 4bbd b41b 7cbb 3f3a 253d 3d5c 22bd
000001f0: d9ab c83d d9e7 6b3e 2a16 1bbe 3934 373d
00000200: be6e c5bd 2b10 403e 36fa 3b3e 3de0 883c
00000210: 131f 07bd 4319 28be d955 2b3e cd41 08be
00000220: ffa7 563e 0dc0 41be 415d 0d3e 9786 1a3d
00000230: cdd8 e63d 9e82 e9bc 079b 673c 1dee 5c3d
00000240: cc59 a93c a52f 353e c395 a1bd d47e 683e
00000250: 18f0 193e 4b96 06be f9e1 22be c6f0 81bd
00000260: 1eae c5bd 3afc 12bd 829b 3abe 26a1 5b3c
00000270: 092d 7d3e 9405 2d3d a359 733e c373 1c3e
00000280: 130e 25bb 4df0 c33d 5057 893d 43fb 61be
00000290: 83b7 563b e41a 29bd a9dc 193e f80f 553c
000002a0: 7ae8 163d d18a 81be d727 a83d 3f4d 2fbe
000002b0: df91 5f3e 94f4 9d3d 8e92 333e a86e 39bd
000002c0: 11c5 363e 1c76 d8bd f0d5 0ebe 05d2 59bd
000002d0: 7e31 193e 07bd 8a3e 254f 12be 8378 5f3e
000002e0: b727 893e 2b26 19be 1a85 7e3e 8017 723e
000002f0: 45d8 663e b847 4ebe 2043 5dbd 137b 673d
00000300: a271 1bbe d8c9 30be 6bfe 08be 51a8 23bd
00000310: 161f 62be 8eab b9bd 0004 bd3d 9b30 5c3c
00000320: 051c 61be e969 03be 778a 503d 4dcf c8bd
00000330: fe36 3dbc a87f 57bd 02b7 05be e2c6 8b3d
00000340: fb4c f8bd 3eeb ebbb 3294 913e 37f4 643d
00000350: 4690 7bbc 0751 173e 24af 3d3e 5b82 6d3e
00000360: d21b 8b3e 6648 033e e769 563d 1fb2 b8bd
00000370: e7f0 763e 2b78 423b d005 703d 967f b5be
00000380: 3559 7c3e 2ad8 32be 901d 0dbe c5e4 223e
00000390: 38c0 9bbd b97f 943e ce5d a8bd 8605 473e
000003a0: 15b0 923b 9fd5 753d 6950 9dbc a34d bf3c
000003b0: 9123 c83d aebf 26bc 05dc 29be fc69 84be
000003c0: ae32 e13c 252f a83d 1758 593e f083 c0bd
000003d0: 2485 163c 59ed 6a3d b5c7 4abe d7fc f5bd
000003e0: 5560 13bd 7f2e 1b3e 2409 ccbd 6548 63be
000003f0: 144e 0cbe 4a37 243e fbd2 e03d b893 e4bd

bias f4 [32]
-0.10100124 0.24522908 -0.1566211 0.09780766 -0.17957096 0.14699583 -0.13803966 -0.11531717
0.032646466 0.2585392 0.27123192 -0.091175124 0.14780173 -0.11427988 0.013323317 -0.17867365
0.20135143 -0.11706075 -0.09587396 -0.106587864 -0.14800274 0.024776643 0.12622102 0.06924154
-0.12716982 0.118715845 0.2629419 0.023942776 0.07517774 -0.28888476 -0.12117181 -0.022663374
00000000: bdd9 cebd 551d 7b3e 4861 20be 624f c83d
00000010: 73e1 37be 1386 163e 455a 0dbe 692b ecbd
00000020: 4db8 053d 405f 843e e9de 8a3e 06ba babd
00000030: 5659 173e 920b eabd 0b4a 5a3c 3af6 36be
00000040: 122f 4e3e 8cbd efbd 9159 c4bd bd4a dabd
00000050: 088e 17be 63f8 ca3c 1540 013e 82ce 8d3d
00000060: ce38 02be 4b21 f33d 52a0 863e a423 c43c
00000070: c9f6 993d b4e8 93be ed28 f8bd 8aa8 b9bc

weight f4 [32, 32]
0.018345233 -0.005600767 -0.17221951 0.11414504 0.13816808 0.13889809 -0.050673664 -0.03680243
0.07889061 0.009561768 -0.02977062 0.09933418 0.011298361 0.20302074 0.12254629 -0.15841651
-0.11234339 0.0020633263 0.078136824 0.006775481 0.08460845 -0.019861123 0.023755651 -0.08703363
-0.101274595 0.12023768 -0.14782058 -0.10629593 -0.22035383 -0.09244238 -0.012498217 0.21488036
-0.13693576 0.068156265 -0.068966165 0.20751858 -0.053447273 -0.12531586 -0.059113987 -0.24456911
-0.06898963 0.0760416 -0.061834294 -0.08592745 -0.060123954 0.19450688 -0.0016132816 -0.12843342
0.09144689 -0.03942547 0.007854005 0.17885843 -0.1669541 -0.14038515 0.16976136 -0.20233874
0.017289555 -0.16076736 -0.09577663 -0.119257115 -0.21886261 -0.013417076 0.08573219 -0.094192445
0.12593971 0.17609702 0.06629148 0.021664076 -0.071210146 0.18122481 -0.17891738 0.19767138
-0.09350487 -0.043158796 -0.0328132 0.034677595 0.13795908 -0.2609829 0.09105682 -0.13449259
0.24081828 -0.23848939 0.0700649 0.10825357 0.11007284 0.1901652 -0.00670131 -0.004738367
-0.12896332 -0.096516326 0.100361325 -0.122777104 0.21857002 -0.05361679 -0.11167938 -0.1869942
0.0035314753 0.17419212 -0.0662269 0.049387544 -0.2423925 -0.11357731 0.13799809 -0.0179399
-0.07425377 0.17136428 0.012681876 -0.096075825 0.11389441 -0.09804858 -0.09482079 -0.09283027
-0.07471825 0.055108014 -0.032084566 -0.18843596 -0.09457814 0.09689424 -0.18801698 -0.048448082
-0.026346784 0.071808025 0.26675504 -0.02630723 -0.06365366 0.07057779 -0.108911246 -0.19155356
-0.09902136 0.09748215 0.11458313 -0.15604025 0.045454916 -0.021173673 -0.10565 -0.030746963
0.10244695 0.049326982 -0.050246876 -0.026385665 0.014012777 -0.12038665 0.07050298 0.090903714
0.1320248 -0.12421969 0.1251747 0.09134889 0.15635884 -0.024551587 -0.108127356 0.0113396235
-0.18383512 0.18731953 0.18648428 0.0027821257 0.14195532 -0.19673383 -0.011339614 0.08006956
0.027544346 0.07057089 0.033549566 -0.011535081 0.1188726 0.05161652 0.063336685 -0.18826339
-0.050814994 0.14693753 -0.067798406 -0.03514607 0.064586274 0.23362166 -0.06726133 0.1253983
-0.048454847 0.09117197 -0.033128932 -0.017623011 0.07527174 -0.13855088 -0.08930917 -0.1576157
-0.033550438 -0.20754358 -0.19509885 -0.13579974 -0.119151935 0.15250513 -0.03885008 0.12308798
-0.107731216 0.028338036 0.17477167 -0.047831066 -0.24661367 0.098320276 0.07016365 0.109086275
0.12630014 -0.12713711 0.08876601 -0.014732736 0.16554897 -0.21963483 0.07709082 -0.080398105
-0.11523926 -0.0745336 0.1345319 0.13174172 0.18732865 0.034763202 -0.07183077 -0.071848705
-0.07079195 0.1868912 0.02601901 -0.117078304 0.13897397 0.09161118 -0.10252869 0.09662532
0.13315067 -0.10187538 0.044593215 -0.004062517 0.12989293 0.08584319 0.16631752 -0.19601749
0.03169152 -0.075024135 -0.1369367 0.13604614 -0.05233174 0.09528674 0.15587042 0.059776317
-0.18144569 0.13900681 0.033769533 -0.10661879 -0.20612437 0.17945719 -0.14364707 -0.11498937
0.11302165 -0.24093285 -0.094744734 -0.05264003 -0.07344288 0.10617471 0.07059518 0.1894124
00000000: be48 963c a486 b7bb 505a 30be e0c4 e93d
00000010: ef7b 0d3e 4d3b 0e3e 308f 4fbd 25be 16bd
00000020: 6691 a13d f6a8 1c3c 84e1 f3bc b86f cb3d
00000030: c31c 393c abe4 4f3e 8df9 fa3d f037 22be
00000040: 4b14 e6bd df38 073b 3306 a03d db04 de3b
00000050: 3247 ad3d cbb3 a2bc 369b c23c b03e b2bd
00000060: 0e69 cfbd 2c3f f63d 475e 17be aeb1 d9bd
00000070: 6fa4 61be 6e52 bdbd 52c5 4cbc 9909 5c3e
00000080: e338 0cbe 8395 8b3d 223e 8dbd c07f 543e
00000090: 87eb 5abd cd52 00be 8221 72bd 5370 7abe
000000a0: 6f4a 8dbd b3bb 9b3d f545 7dbd bbfa afbd
000000b0: 8944 76bd d02c 473e bf74 d3ba 0d84 03be
000000c0: 8248 bb3d 9a7c 21bd 16ae 003c aa26 373e
000000d0: 04f6 2abe 20c1 0fbe ecd5 2d3e e331 4fbe
000000e0: d3a2 8d3c 33a0 24be 8a26 c4bd 133d f4bd
000000f0: 851d 60be 4cd3 5bbc 5c94 af3d f8e7 c0bd
00000100: 57f6 003e c752 343e d4c3 873d dc78 b13c
00000110: a0d6 91bd ff92 393e 1e36 37be 5e6a 4a3e
00000120: 7b7f bfbd 47c7 30bd 2267 06bd 180a 0e3d
00000130: 2545 0d3e 8d9f 85be ff7b ba3d 6db8 09be
00000140: 1199 763e 9036 74be 307e 8f3d 0cb4 dd3d
00000150: de6d e13d abba 423e aa96 dbbb 4e44 9bbb
00000160: f60e 04be 5aaa c5bd 3d8a cd3d 9072 fbbd
00000170: d2d0 5f3e 479d 5bbd 29b8 e4bd 687b 3fbe
00000180: 5370 673b 6b5f 323e f8a1 87bd 984a 4a3d
00000190: bd35 78be 399b e8bd 5f4f 0d3e b2f6 92bc
000001a0: 5c12 98bd 1e7a 2f3e a5c7 4f3c 67c3 c4bd
000001b0: 7941 e93d b2cd c8bd 6731 c2bd cc1d bebd
000001c0: e205 99bd f1b8 613d 1b6b 03bd 5bf5 40be
000001d0: 2fb2 c1bd 7d70 c63d 8687 40be 7f71 46bd
000001e0: 36d5 d7bc 1610 933d 1e94 883e 4382 d7bc
000001f0: da5c 82bd 178b 903d dc0c dfbd 9e26 44be
00000200: b6cb cabd b9a4 c73d 8faa ea3d 04c9 1fbe
00000210: ef2e 3a3d 6974 adbc 075f d8bd 0ee1 fbbc
00000220: b5cf d13d 170b 4a3d abcf 4dbd c026 d8bc
00000230: d995 653c 478d f6bd de63 903d ba2b ba3d
00000240: 8231 073e e566 febd cc2d 003e 2015 bb3d
00000250: 881c 203e 6920 c9bc e071 ddbd d4c9 393c
00000260: 463f 3cbe b1d0 3f3e bcf5 3e3e 5354 363b
00000270: bc5c 113e 9874 49be cac9 39bc 82fb a33d
00000280: aea4 e13c 7987 903d 456b 093d a3fd 3cbc
00000290: 7a73 f33d d86b 533d aab6 813d 1ec8 40be
000002a0: 6223 50bd cb76 163e e4d9 8abd 53f5 0fbd
000002b0: cf45 843d 843a 6f3e 4fc0 89bd 6968 003e
000002c0: 9778 46bd 5fb8 ba3d 34b2 07bd 225e 90bc
000002d0: 1228 9a3d 48e0 0dbe bae7 b6bd 0366 21be
000002e0: 2f6c 09bd 4e86 54be fec7 47be 160f 0bbe
000002f0: ee05 f4bd 4e2a 1c3e 4321 1fbd 8d15 fc3d
00000300: 2fa2 dcbd 2b25 e83c 58f7 323e 82ea 43bd
00000310: 4b88 7cbe 245c c93d f6b1 8f3d a068 df3d
00000320: d354 013e 3b30 02be f4ca b53d 9361 71bc
00000330: ab85 293e f4e7 60be cbe1 9d3d c3a7 a4bd
00000340: 9002 ecbd 12a5 98bd bbc2 093e 4de7 063e
00000350: 15d3 3f3e dc63 0e3d 031c 93bd 6a25 93bd
00000360: 5ffb 90bd 6860 3f3e d225 d53c c0c6 efbd
00000370: 314f 0e3e a49e bb3d 90fa d1bd 7fe3 c53d
00000380: a658 083e 0aa4 d0bd 60a7 363d dd1e 85bb
00000390: a702 053e 8ece af3d 244f 2a3e cfb8 48be
000003a0: f8ce 013d 41a6 99bd 2239 0cbe ae4f 0b3e
000003b0: ce59 56bd b225 c33d 7f9c 1f3e 03d8 743d
000003c0: e6cc 39be cd57 0e3e ec51 0a3d f45a dabd
000003d0: 4412 53be a0c3 373e 3818 13be 8c7f ebbd
000003e0: e577 e73d 1ab7 76be 8709 c2bd 129d 57bd
000003f0: 3869 96bd 2072 d93d 3594 903d 53f5 413e

bias f4 [32]
0.018895239 0.06558071 0.051304597 -0.12384109 -0.032626826 -0.00047779793 -0.03263637 0.05871994
0.1784243 0.15906048 0.0745822 -0.120871216 -0.008987815 -0.062172174 -0.1531199 0.059126344
0.17675768 0.0131920185 0.015683005 -0.07768815 0.13401552 0.017692234 -0.14025548 -0.049205467
-0.08797593 0.04931784 -0.1338919 -0.031130766 -0.022642327 0.12972724 -0.0855969 0.14169498
00000000: 30ca 9a3c 2e4f 863d c524 523d 66a0 fdbd
00000010: b5a3 05bd f480 fab9 b7ad 05bd 5284 703d
00000020: dcb4 363e c0e0 223e 8dbe 983d 548b f7bd
00000030: a141 13bc 40a8 7ebd 77cb 1cbe 772e 723d
00000040: f7ff 343e 5623 583c a579 803c f71a 9fbd
00000050: 5d3b 093e 4eef 903c 229f 0fbe ac8b 49bd
00000060: b92c b4bd 8101 4a3d f51a 09be f305 ffbc
00000070: 677c b9bc 38d7 043e 6d4d afbd 7d18 113e

weight f4 [1, 32]
0.17652148 0.082038365 -0.035563212 -0.14406402 -0.13821378 0.14572299 -0.17330375 0.09074438
0.17422721 0.15502581 0.22220038 0.16555369 -0.13935351 0.100875385 -0.14901285 0.18771899
-0.04251008 -0.055245806 0.15604487 0.14889094 0.022878772 0.23990607 0.09324964 -0.07819663
-0.097462 -0.1645763 0.1932649 -0.27074903 -0.06042726 -0.1507107 0.074668266 -0.12362351
00000000: 0cc2 343e bb03 a83d bbaa 11bd 8585 13be
00000010: ea87 0dbe 6838 153e 8a76 31be 31d8 b93d
00000020: 9e68 323e 16bf 1e3e 7f88 633e e886 293e
00000030: b0b2 0ebe c197 ce3d d396 18be 6839 403e
00000040: 0d1f 2ebd 6d49 62bd 3aca 1f3e de76 183e
00000050: 436c bb3c f0a9 753e abf9 be3d 8e25 a0bd
00000060: 289a c7bd b186 28be 3ce7 453e 9e9f 8abe
00000070: 9382 77bd e853 1abe adeb 983d 532e fdbd
