calixarene/models/model_1_zeta.pt (torch, 20664 bytes, 5 tensors)

weight f4 [32, 16]
0	0x3e0e1b7f	0.13877676
1	0x3c1fbee1	0.009750099
2	0x3dcd04d9	0.1001069
3	0x3e1e7e7b	0.15477936
4	0xbe837189	-0.25672558
5	0x3e407935	0.18796237
6	0xbd41e054	-0.047333077
7	0x3e1a96a3	0.15096526
8	0xbd956641	-0.07294894
9	0x3e6063db	0.21913092
10	0xbe540ea1	-0.20708705
11	0xbdb0cd20	-0.086328745
12	0xbe045f66	-0.12927017
13	0xbdadc3c3	-0.08484604
14	0x3e541604	0.20711523
15	0x3bdf6b96	0.006818245
16	0x3e896178	0.26832175
17	0x3df7fead	0.121091224
18	0x3acbbcd5	0.0015543947
19	0x3e37b68b	0.17940728
20	0x3e82771a	0.25481492
21	0x3e777b09	0.24168028
22	0xbdfb1297	-0.12259405
23	0xbc7054b5	-0.014668633
24	0x3dc61b8e	0.096732244
25	0x3e4bd6e8	0.19906199
26	0x3d1f91a6	0.03895726
27	0xbe34ce1a	-0.17656747
28	0xbe501ae2	-0.20322755
29	0x3e19d03a	0.15020838
30	0xbd41fe52	-0.04736168
31	0x3c3a83b8	0.011383943
32	0x3e13cbd9	0.1443323
33	0xbd2126da	-0.039343692
34	0x3d2ff33b	0.042956572
35	0xbe057f6b	-0.13036887
36	0x3e92700a	0.28601104
37	0x3e694a4c	0.22782248
38	0x3e96a571	0.29423097
39	0xbd9dfef4	-0.07714644
40	0x3e69fe75	0.22850974
41	0xbdbedc98	-0.09319419
42	0x3dd5b1df	0.10434317
43	0x3e860a82	0.26179892
44	0xbe22b568	-0.15889513
45	0x3c840caa	0.01611932
46	0x3dce1ad0	0.10063708
47	0x3d392828	0.04520431
48	0xbd8bf432	-0.06833686
49	0xbd2dc184	-0.04242088
50	0xbd634d7f	-0.055493828
51	0xbe8f81f0	-0.28028822
52	0xbe46065a	-0.1933836
53	0xbe63e590	-0.2225554
54	0xbe238f37	-0.15972601
55	0xbe8b1393	-0.2716337
56	0xbd914160	-0.070925474
57	0xbe04dc65	-0.12974699
58	0xbcebdbc5	-0.028791318
59	0x3cb2a6b8	0.021808013
60	0x3bfdb6ae	0.0077427244
61	0xbe88bea5	-0.2670795
62	0xbdd35954	-0.10319772
63	0xbe6ecffb	-0.23321526
64	0x3dda7228	0.10666305
65	0x3d17b825	0.03704085
66	0xbe1a765b	-0.15084212
67	0xbd59ead8	-0.05320248
68	0x3e0a7640	0.13521671
69	0x3e2088fd	0.15677257
70	0x39778012	0.00023603466
71	0xbe0cab09	-0.1373712
72	0xbe1bc605	-0.15212257
73	0x3d43f5e7	0.047841933
74	0xbdde135f	-0.108435385
75	0x3e204fb8	0.1565541
76	0xbcddf1b5	-0.027092794
77	0x3e019aa2	0.12656644
78	0xbdc2e789	-0.09516818
79	0x3ca4b8a2	0.020107571
80	0xbba03b2b	-0.004889866
81	0x3e8f2eb2	0.27965313
82	0x3ee2ad65	0.44272915
83	0x3e129e65	0.14318235
84	0x3d56e09e	0.052460305
85	0xbe03386f	-0.12814496
86	0x3d65ee5f	0.05613553
87	0x3c225977	0.009909025
88	0xbc89fc50	-0.016843945
89	0xbe9a41ba	-0.3012827
90	0xbdb5f431	-0.088844664
91	0x3e96c172	0.29444462
92	0x3f025528	0.5091119
93	0xbe90505f	-0.28186318
94	0xbe5b1d69	-0.21397938
95	0xbe67b41e	-0.22627303
96	0xbd874d4c	-0.0660654
97	0x3d9da7be	0.0769801
98	0x3d13b0a4	0.03605713
99	0xbe6e4550	-0.23268628
100	0x3cff8c75	0.031194905
101	0xbe1376a3	-0.14400725
102	0xbe429dc6	-0.19005498
103	0x3ae486b2	0.0017435162
104	0x3c8d4df5	0.017249087
105	0x3e6afa14	0.2294696
106	0xbc2fcf61	-0.010730595
107	0xbdef1a85	-0.1167498
108	0xbda062a9	-0.07831318
109	0xbe18531d	-0.14875455
110	0x3ea02c77	0.31283924
111	0x3e67d3f3	0.22639446
112	0x3d9f90e8	0.077913105
113	0xbe2ed6af	-0.17074083
114	0x3b27d470	0.00256088
115	0x3d05a9ee	0.03263276
116	0x3e133f1e	0.14379546
117	0x3e4f7195	0.20258172
118	0x3e48ebd4	0.19621211
119	0x3e0fbbbb	0.14036457
120	0x3e5c91d6	0.21540007
121	0x3dc74d78	0.09731573
122	0xbd5ae254	-0.0534385
123	0xbc73decd	-0.014884663
124	0xbd25c8ff	-0.040474888
125	0x3e24b726	0.1608549
126	0xbb2e0968	-0.00265559
127	0xbd93c453	-0.0721518
128	0x3e59acad	0.21257277
129	0x3e266c3e	0.16252229
130	0x3ddb4e8b	0.1070834
131	0x3e3da232	0.18518904
132	0x3e39b642	0.18135932
133	0xbe0a9a87	-0.1353551
134	0x3bf23159	0.0073911366
135	0xbe30d18a	-0.17267433
136	0x3e25c24a	0.16187397
137	0x3e372bb7	0.1788777
138	0x3d1721d2	0.036897488
139	0x3e0350f2	0.12823847
140	0xbd6bf6dd	-0.057608474
141	0xbd0bc5ba	-0.034124114
142	0x3dfb2a33	0.12263908
143	0x3dc71a45	0.097218074
144	0x3d480fd1	0.04884321
145	0x3de92bd1	0.113853104
146	0x3e979cbe	0.29611772
147	0xbcad7b48	-0.02117695
148	0x3dbcaed1	0.09213031
149	0x3e8f4070	0.2797885
150	0x3cb6cb1d	0.022313649
151	0xbd959702	-0.07304193
152	0x3e6fb2e5	0.23408087
153	0xbe41eda3	-0.18938307
154	0xbe6dbf02	-0.23217395
155	0x3e429be8	0.19004786
156	0xbdeb9faf	-0.115050666
157	0x3d8b9cc4	0.0681701
158	0xbe39a5c5	-0.18129642
159	0xbd5ae1a0	-0.05343783
160	0xbd00d869	-0.031456385
161	0x3e6794ea	0.226154
162	0x3e4f4110	0.20239663
163	0x3d14844a	0.036258973
164	0x3dd3e84a	0.1034704
165	0x3c761617	0.015019915
166	0xbd953929	-0.07286293
167	0x3e8ccd77	0.27500507
168	0xbc260029	-0.010131874
169	0x3e32440b	0.17408769
170	0x3d8419b6	0.064502165
171	0xbd0022da	-0.031283237
172	0x3d4e558a	0.050374545
173	0x3d3cd1c6	0.046098493
174	0xbe73fb42	-0.23826316
175	0xbe8fe4ab	-0.28104147
176	0xbe634955	-0.22195943
177	0xbd4808ba	-0.048836447
178	0xbd7b8f1e	-0.061415784
179	0xbe5bd005	-0.21466072
180	0x3c3f60ac	0.011680763
181	0xbe124cef	-0.1428716
182	0xbd8ce6aa	-0.06879933
183	0x3e3c6a8e	0.18400022
184	0x3e2f7b19	0.17136802
185	0xbd56fbfc	-0.052486405
186	0xbe33b0a0	-0.17547846
187	0xbe4c798a	-0.19968238
188	0x3de1d07d	0.11026094
189	0xbdd67fbb	-0.104735814
190	0x3e45ba98	0.19309461
191	0x3e9f4ee3	0.31114873
192	0x3d42ebda	0.047588207
193	0xbe5ee7e5	-0.21768148
194	0xbd4af0ea	-0.04954616
195	0xbd914a59	-0.07094259
196	0xbe5d9910	-0.2164042
197	0x3e0ee62b	0.1395499
198	0x3cb96b69	0.022634225
199	0x3e0ad767	0.13558732
200	0xbd9dfc0d	-0.077140905
201	0xbdcf944b	-0.101357065
202	0xbd27c038	-0.0409548
203	0xbe2ea3d8	-0.17054689
204	0xbe74fc84	-0.23924452
205	0x3de0734c	0.10959491
206	0xbe225d64	-0.15855938
207	0x3e019821	0.12655689
208	0xbd43ec25	-0.047832627
209	0x3de75f0f	0.11297428
210	0xbd02ed9e	-0.03196489
211	0x3d926b4a	0.0714937
212	0x3e1a201e	0.15051314
213	0xbd6539f1	-0.05596346
214	0x3de58651	0.112072594
215	0xbdd433d1	-0.10361446
216	0x3d9824c0	0.074288845
217	0xbdf478a3	-0.11937072
218	0xbde4a6d8	-0.111646354
219	0x3e260a7e	0.1621494
220	0x3e2b36f5	0.16720183
221	0x3d2f17a4	0.042747155
222	0xb8dc3279	-0.00010499819
223	0x3d5ebb57	0.05437788
224	0xbe91e708	-0.28496575
225	0xbe12bbcb	-0.1432945
226	0xbeb6edab	-0.357282
227	0x3e097da3	0.13426833
228	0x3e6fe061	0.23425438
229	0xbdc429c1	-0.095782764
230	0xbe01f05e	-0.12689349
231	0xbe04712c	-0.12933797
232	0x3e072033	0.13195877
233	0x3cdbe2f5	0.02684162
234	0x3e9d8797	0.3076751
235	0xbe4466bf	-0.1917982
236	0xbe60612a	-0.21912065
237	0x3eaf5071	0.3424106
238	0x3e337a03	0.17527013
239	0x3dbbe192	0.091738835
240	0x3e069f9e	0.13146827
241	0xbdde08dc	-0.108415335
242	0x3bf96d5c	0.0076119136
243	0xbe4af746	-0.1982089
244	0x3d329b6f	0.043605264
245	0xbe4812dd	-0.19538446
246	0xbd8cccc7	-0.06874996
247	0x3d278d8a	0.040906467
248	0xbdfd30f7	-0.12362855
249	0xbcee027f	-0.029053925
250	0x3dc25856	0.09489505
251	0xbd77dec2	-0.060515173
252	0x3e001356	0.12507376
253	0x3d9af07e	0.075654015
254	0xbe01c095	-0.1267112
255	0xbd8a2447	-0.067452006

bias f4 [32]
0	0xbd44cc27	-0.048046257
1	0xbe0933df	-0.13398694
2	0x3d1c7511	0.03819758
3	0xbdc331d5	-0.09530989
4	0x3e245a68	0.16050112
5	0xbf2925a2	-0.6607305
6	0xbd84516c	-0.064608425
7	0xbe2a7c19	-0.16648902
8	0x3dbb51ac	0.09146437
9	0xbe0dbf0e	-0.13842413
10	0xbe631f81	-0.22179987
11	0x3e0d5a51	0.13803984
12	0x3ea52b2d	0.32259503
13	0xbe587c56	-0.2114118
14	0x3e2c8f6f	0.1685159
15	0x3e197632	0.14986494
16	0xbd710ab4	-0.058848098
17	0x3d8d2acb	0.06892928
18	0x3d97be85	0.074093856
19	0x3ca8c144	0.020599969
20	0x3e6f1d69	0.23351063
21	0x3c60ef16	0.0137288775
22	0x3e503ff2	0.20336893
23	0xbc097410	-0.008389488
24	0xbe237e0c	-0.15966052
25	0xbd860049	-0.06543023
26	0xbebfb8d7	-0.3744571
27	0xbf10d9f0	-0.56582546
28	0x3d45e902	0.048317917
29	0x3de86baf	0.11348664
30	0xbd4d4f0f	-0.050124224
31	0xbe887445	-0.26651207

weight f4 [32, 32]
0	0xbc18eef9	-0.009334319
1	0x3e1e3ce6	0.15452918
2	0x3e17e7e7	0.14834557
3	0xbe0497fd	-0.12948604
4	0x3e3333b9	0.175002
5	0xbc8d646d	-0.0172598
6	0x3df4bc5c	0.11949989
7	0x3e46b205	0.19403847
8	0xbdb3a69a	-0.08772011
9	0xbcdccab0	-0.026952118
10	0x3e48834b	0.19581334
11	0x3dc6e236	0.09711115
12	0xbe314864	-0.17312771
13	0x3d8c95bc	0.06864497
14	0x3d06250c	0.032750174
15	0xbe0067e3	-0.1253963
16	0xbd80df2b	-0.06292566
17	0xbe30af48	-0.17254364
18	0xbe36a156	-0.17834982
19	0x3de088f2	0.1096362
20	0xbd9aae0d	-0.07552729
21	0x3aebb384	0.0017982577
22	0x3dd48b41	0.10378123
23	0xbdae863b	-0.08521696
24	0xbd6897e9	-0.056785498
25	0x3e353b2f	0.17698358
26	0xbb939e5b	-0.0045049614
27	0x3c1129fe	0.008860109
28	0x3d8996f1	0.06718243
29	0xbe28779e	-0.1645188
30	0x3d16ec31	0.036846343
31	0x3e685fd3	0.22692804
32	0x3d155da2	0.03646625
33	0x3df04740	0.1173234
34	0x3de88668	0.11353761
35	0x3c146d44	0.009059254
36	0xbe2b94ba	-0.16755953
37	0xbdf1155e	-0.117716536
38	0x3dad4619	0.08460636
39	0xbde2b905	-0.11070446
40	0xbd48a578	-0.04898593
41	0xbe1bdbfd	-0.15220638
42	0x3dc38792	0.09547342
43	0x3d62ae7f	0.055342194
44	0x3e55c16e	0.20874569
45	0xbda2a3c4	-0.07941392
46	0x3c2c5ffc	0.010520931
47	0x3bbf876e	0.005845002
48	0x3dd72eaa	0.10506947
49	0x3d8b8fa5	0.068145074
50	0xbd6962a3	-0.056978833
51	0xbde4c39a	-0.111701205
52	0x3e4e424b	0.20142476
53	0xbd8ed9ad	-0.06975112
54	0x3d36dc6d	0.04464381
55	0x3dc090e2	0.09402634
56	0x3e095371	0.13410737
57	0xbe41120e	-0.18854544
58	0x3c5a9cd4	0.013343055
59	0xbe5ff8bf	-0.21872233
60	0x3e1dd81a	0.15414467
61	0xbd9f1c8b	-0.07769116
62	0x3de03ae9	0.10948736
63	0x3dcd2e82	0.10018636
64	0xbe157131	-0.1459396
65	0x3da36bac	0.07979521
66	0x3bfec267	0.0077746394
67	0xbe1ea6a5	-0.15493257
68	0x3da44c55	0.08022372
69	0xbe96ccbc	-0.29453075
70	0xbd51f5ac	-0.05125968
71	0x3d9e539e	0.077307925
72	0xbdc2ed8f	-0.09517967
73	0xbdb8f530	-0.09031141
74	0xbdf4d0aa	-0.11953862
75	0x3d5e4c76	0.054272138
76	0x3e0e4e05	0.1389695
77	0x3e00f72f	0.12594293
78	0x3e817485	0.2528421
79	0x3d602292	0.05472047
80	0xbe00a90f	-0.1256449
81	0xbd8640f9	-0.06555361
82	0x3a42c074	0.00074291904
83	0xbdba7a96	-0.09105413
84	0xbd582c39	-0.05277655
85	0x3dbbfabd	0.09178684
86	0x3e0e828d	0.13916989
87	0xbe53d7a3	-0.20687728
88	0x3bdfe332	0.0068325037
89	0xbe8a5afd	-0.27022544
90	0xbcc62c74	-0.024191119
91	0xbd77d1cf	-0.060502823
92	0x3e35ee38	0.17766654
93	0xbdf1d7d7	-0.11808746
94	0xbdcd4a87	-0.100239806
95	0xbd44dce1	-0.04806221
96	0x3e01988d	0.1265585
97	0x3de8207f	0.11334323
98	0xbd9c6637	-0.076366834
99	0x3d2d6908	0.042336494
100	0x3d411190	0.04713589
101	0xbe7622fe	-0.24036786
102	0x3e432485	0.190569
103	0x3dc4bddb	0.096065246
104	0x3d5e2212	0.05423171
105	0xbd67e63e	-0.05661606
106	0x3d81d8fb	0.06340214
107	0x3d1c84fb	0.038212758
108	0x3e0cbb5e	0.1374335
109	0xbe3a3887	-0.18185626
110	0x3d7bbf01	0.061461452
111	0x3e1894c5	0.14900501
112	0xbb45f832	-0.003020775
113	0xbccd23dc	-0.025041513
114	0xbd31c453	-0.04340012
115	0x3d4005ab	0.046880405
116	0x3db3fb7d	0.08788202
117	0x3d8c36a8	0.06846362
118	0x3e1924eb	0.1495549
119	0xbe5b01c4	-0.21387392
120	0x3d84d843	0.06486561
121	0xbdadf41e	-0.08493827
122	0xbdb9fae8	-0.0908106
123	0xbdbdc134	-0.09265366
124	0xbdcb082c	-0.09913668
125	0xbddae04c	-0.106873125
126	0xbe298a52	-0.16556671
127	0x3b0a1fca	0.0021076077
128	0xbe0ea5af	-0.13930391
129	0x3d90457a	0.070445016
130	0x3e06961b	0.13143198
131	0x3d4a13c8	0.04933527
132	0x3d288725	0.04114451
133	0x3db29506	0.0871983
134	0x3cd5b1ad	0.026085699
135	0x3df7ed34	0.1210579
136	0x3dc5d741	0.09660197
137	0x3e0fc28c	0.14039057
138	0xbdd07852	-0.10179199
139	0x3cd90da9	0.026495771
140	0x3d150081	0.036377434
141	0x3debc6b8	0.11512512
142	0xbd0d15f5	-0.034444768
143	0x3d3ade12	0.04562194
144	0x3deba5ad	0.115062095
145	0xbe1ef801	-0.15524293
146	0x3ae0e83c	0.0017159055
147	0xbe151b78	-0.1456126
148	0xbe46328a	-0.19355217
149	0x3dd7e35d	0.10541413
150	0xbdeb08a5	-0.11476258
151	0x3d142ecf	0.036177453
152	0xbddcfd93	-0.10790553
153	0xbcf4bcdd	-0.029875213
154	0x3e1df80e	0.15426657
155	0x3e976dae	0.29575866
156	0xbe06e4fd	-0.1317329
157	0x3d79a3d4	0.060947254
158	0xbe036595	-0.12831719
159	0x3df0a6c0	0.11750555
160	0xbe226b79	-0.1586131
161	0xbde54a48	-0.11195809
162	0xbe0d4662	-0.1379638
163	0x3dad8266	0.08472137
164	0x3dbc890e	0.092058286
165	0xbe70bfb1	-0.23510624
166	0xbdb87453	-0.09006562
167	0x3dc3067d	0.09522722
168	0x3e145b3c	0.14487928
169	0xbe64a5fa	-0.2232894
170	0xbe44f5c3	-0.19234376
171	0x3e3d0eda	0.18462697
172	0xbd48b0fc	-0.04899691
173	0x3db9ccb0	0.09072244
174	0x3e742cdf	0.23845242
175	0xbd217628	-0.039419323
176	0x3debd681	0.11515523
177	0xbd36d479	-0.044636223
178	0x3e36b6cd	0.1784317
179	0xbb021e62	-0.0019854535
180	0xbe03aea1	-0.12859584
181	0x3e3cbdd4	0.18431789
182	0x3e13ace1	0.14421417
183	0x3c6db83b	0.014509256
184	0xbdae4ed8	-0.08511132
185	0xbe2172f3	-0.15766506
186	0xbe0d9ebd	-0.13830085
187	0xbdd45677	-0.10368054
188	0x3db557ec	0.088546604
189	0x3de1a2ff	0.11017417
190	0x3de2193d	0.1103997
191	0xbe4ade68	-0.19811404
192	0xbde067fe	-0.10957335
193	0x3c06ed0e	0.008235229
194	0xbe223037	-0.15838705
195	0xbe2ebe17	-0.17064701
196	0x3d3695ad	0.044576336
197	0xbdbe123f	-0.09280824
198	0x3e37a37d	0.1793346
199	0xbc5b3b15	-0.0133807855
200	0x3e07f38c	0.132765
201	0xbde687c9	-0.11256368
202	0xbde465bb	-0.11152216
203	0x3e0897d0	0.13339162
204	0x3e083c37	0.1330422
205	0x3d64ffc4	0.05590798
206	0x3db77b2b	0.08959039
207	0xbcf2d233	-0.029641246
208	0xbe149a20	-0.14511919
209	0xbb44d4f3	-0.0030034154
210	0x3db6f323	0.089330934
211	0x3de4a90c	0.11165056
212	0x3dbe1074	0.09280482
213	0x3d965beb	0.07341751
214	0xbda26fe6	-0.07931499
215	0xbe3d85f3	-0.18508129
216	0xbe085a8b	-0.1331579
217	0xba852c03	-0.0010160211
218	0x3d475a38	0.048670024
219	0xbd99d708	-0.07511717
220	0xbd1050a6	-0.035233162
221	0x3e4251f6	0.18976578
222	0x3d2b2bc1	0.041789774
223	0xbe25b710	-0.16183114
224	0xbe2827ce	-0.16421434
225	0x3df9cb15	0.12196938
226	0xbdb934a9	-0.09043247
227	0x3cf93c32	0.030424211
228	0xbda3f38b	-0.080054365
229	0xbcd92834	-0.026508428
230	0x3de69cbb	0.11260363
231	0x3e187828	0.14889586
232	0x3ba42f2f	0.0050105075
233	0x3d908cd6	0.07058112
234	0x3e1839d2	0.14865807
235	0x3d0ce58b	0.034398597
236	0x3d9e125f	0.07718348
237	0xbe20f03a	-0.15716639
238	0xb9d5a1cc	-0.00040747074
239	0xba914a26	-0.001108472
240	0xbddcd1f0	-0.1078223
241	0xbd118292	-0.035524912
242	0x3d6c9021	0.05775464
243	0x3d8a4432	0.067512885
244	0x3ded3c0e	0.1158372
245	0x3da41a44	0.08012822
246	0xbd2bcfde	-0.041946284
247	0x3d46102c	0.048355266
248	0x3caa8d5f	0.020819364
249	0xbd62a18d	-0.055329848
250	0x3e3c3b8e	0.18382093
251	0x3e286751	0.16445662
252	0xbcfac577	-0.030611737
253	0xbc3fe1b6	-0.0117115285
254	0x3da67fb7	0.081298284
255	0x3d0e920c	0.03480725

bias f4 [32]
0	0x3dd40a67	0.103535466
1	0xba438fc9	-0.00074600853
2	0xbdf293a9	-0.1184457
3	0x3e1ba5df	0.15199994
4	0x3d4a015d	0.049317706
5	0x3d3ebfff	0.04656982
6	0xbe101efe	-0.14074323
7	0x38e81df2	0.000110682
8	0xbdc2778e	-0.094954595
9	0x3e13cfec	0.14434785
10	0x3d1d834f	0.038455304
11	0xbe1e6d5c	-0.15471405
12	0x3e0f748f	0.14009307
13	0x3dfc8aae	0.123311386
14	0xbd175cef	-0.036953863
15	0x3dd39b0f	0.103323095
16	0x3e170bd9	0.14750613
17	0x3dcbb331	0.099462874
18	0x3da3f844	0.08006337
19	0xbe262eaf	-0.16228746
20	0x3dfe0361	0.12402988
21	0xbd033c90	-0.03204018
22	0x3e041c47	0.12901412
23	0xbe1e9c14	-0.15489227
24	0xbd4e5f2e	-0.05038374
25	0x3d6db96f	0.05803817
26	0xbd869676	-0.06571667
27	0xbdb02cad	-0.08602271
28	0x3d398dbd	0.045301188
29	0xbe1fab38	-0.15592659
30	0xbd2f4d16	-0.042798124
31	0xbd96d3d5	-0.073646225

weight f4 [1, 32]
0	0x3db77829	0.089584656
1	0xbe0d5d5c	-0.13805145
2	0xbdd41759	-0.10356016
3	0xbe4a2a24	-0.19742638
4	0x3ea56356	0.3230235
5	0xbe8ebfdc	-0.27880752
6	0xbe6062ed	-0.21912737
7	0x3cd7d27f	0.02634549
8	0xbe73bd73	-0.23802738
9	0x3cf6ccc3	0.030126935
10	0xbdd92461	-0.10602642
11	0x3e306b55	0.17228444
12	0x3e3e1dd5	0.18566068
13	0xbdd3134d	-0.10306416
14	0xbe55f66b	-0.20894782
15	0x3e28e7c6	0.16494665
16	0xbe44007e	-0.19140813
17	0xbdd52d2d	-0.10409007
18	0x3eb082f2	0.34474903
19	0x3deaefd5	0.114715256
20	0xbdd94587	-0.106089644
21	0x3e16eae1	0.14738037
22	0xbe137428	-0.14399779
23	0x3e2f53d5	0.17121823
24	0xbde60aa6	-0.112325
25	0x3ddf90b9	0.109162755
26	0xbe1d5f01	-0.15368272
27	0x3e641998	0.22275388
28	0x3e2f2285	0.17103012
29	0x3e11f76b	0.14254539
30	0xbe4b8dbe	-0.19878289
31	0x3e4b72ff	0.19868086
