calixarene/models/model_5_zeta.pt (torch, 21151 bytes, 5 tensors)

weight f4 [32, 16]
0	0x3f509f15	0.8149274
1	0x3f27a769	0.6548982
2	0x3e0c3fd5	0.13696225
3	0x3f0fac74	0.5612252
4	0x3e55ab6e	0.20866176
5	0x3da23156	0.07919566
6	0x3e7b40df	0.24536465
7	0x3e8d854c	0.2764076
8	0xbc972cf4	-0.018454053
9	0x3e8e751c	0.27823722
10	0x3d956dc5	0.072963275
11	0xbdb81968	-0.08989221
12	0x3dcbaf95	0.09945599
13	0x3da9bcf8	0.08287996
14	0xbdeb94f0	-0.11503017
15	0x3de9817b	0.114016496
16	0x3f11dd12	0.5697795
17	0x3e6e7d86	0.23290071
18	0x3eae7e7e	0.3408088
19	0x3ea1ceea	0.31603175
20	0x3d9ebc70	0.07750785
21	0xbde3d611	-0.11124814
22	0x3dc9e2a2	0.0985768
23	0x3de43dc4	0.11144593
24	0xbd3b28eb	-0.04569332
25	0xbd88b92c	-0.06675944
26	0x3d94fe8f	0.07275116
27	0xbe13369e	-0.14376304
28	0x3e265a53	0.16245393
29	0xbf3125b1	-0.6919814
30	0xbe8aa318	-0.27077556
31	0x3d2361c3	0.039888155
32	0xbefce5a9	-0.49393967
33	0xbd06b57d	-0.032887924
34	0x3da49492	0.0803615
35	0xbc2bfdb8	-0.010497503
36	0x3dd75ac4	0.10515359
37	0xbeea0616	-0.45707768
38	0xbe283b4e	-0.16428873
39	0x3ceceb9b	0.02892094
40	0x3e20e56e	0.1571252
41	0x3d730635	0.05933209
42	0xbd409d91	-0.047025267
43	0xbe1af6ed	-0.15133257
44	0xbe2273e3	-0.1586452
45	0x3e2b13b1	0.1670673
46	0x3dac4fa7	0.0841363
47	0x3dc65425	0.09684018
48	0x3e5e6337	0.21717535
49	0x3eac8fc0	0.33703423
50	0x3f249ff3	0.64306563
51	0x3da1d99c	0.07902834
52	0x3c94aa76	0.018147688
53	0x3e130147	0.14355956
54	0x3d1df3dd	0.038562644
55	0xbd9952f8	-0.07486528
56	0x3d371433	0.044696998
57	0x3d270711	0.040778223
58	0x3ddbec22	0.10738398
59	0xbd5799bb	-0.052636843
60	0x3f61fd2b	0.8827693
61	0xbec34db7	-0.3814523
62	0x3d6d18f3	0.05788512
63	0xbe77080e	-0.24124166
64	0xbe8e050e	-0.2773823
65	0xbe877156	-0.26453656
66	0xbee71605	-0.45133987
67	0xbe857b34	-0.2607056
68	0xbe71544a	-0.2356731
69	0xbe5b32c7	-0.21406089
70	0xbe523482	-0.20527843
71	0xbe401de5	-0.18761404
72	0x3e2c32c9	0.16816248
73	0x3d088253	0.03332741
74	0x3d2e2b6f	0.04252189
75	0xbe78b268	-0.24286807
76	0xbe6990e2	-0.22809175
77	0xbe304e5f	-0.17217396
78	0xbe5447f9	-0.2073058
79	0xbdcd86d1	-0.1003548
80	0x3f0f992e	0.5609311
81	0xbe4ea554	-0.20180255
82	0x3ecf0690	0.40434694
83	0x3ea579e0	0.32319546
84	0xbdcdf3a8	-0.10056239
85	0xbe0a5ca3	-0.135119
86	0x3d88b6ad	0.06675468
87	0xbd05d9e5	-0.032678504
88	0x3f27c74d	0.65538484
89	0x3e5745ea	0.21022764
90	0xbd94f31b	-0.07272931
91	0x3d941a67	0.07231598
92	0xbd9f91db	-0.077914916
93	0x3c9134ac	0.017725311
94	0xbe1c7115	-0.15277512
95	0x3de99528	0.114054024
96	0x3daa8c29	0.08327515
97	0xbecc3c24	-0.39889634
98	0x3e7287d8	0.23684633
99	0x3e34f3ab	0.17671077
100	0xbdd9ed73	-0.10640993
101	0xbe412fc7	-0.18865882
102	0xbd3f2af1	-0.04667181
103	0xbd86b2d5	-0.06577078
104	0xbcdd5df1	-0.027022334
105	0xbd873d7b	-0.06603523
106	0xbbd0fe67	-0.0063779834
107	0xbe3efcfa	-0.1865119
108	0xbdb2a375	-0.08722583
109	0x3d237eef	0.039915975
110	0xbe94952b	-0.29020056
111	0x3e98f061	0.29870895
112	0xbec1fb96	-0.37887257
113	0xbec4838b	-0.3838161
114	0xbf36be42	-0.7138406
115	0x3caec6bb	0.021334996
116	0x3d3cbe38	0.046079844
117	0xbcdcc4e3	-0.026949352
118	0x3e212725	0.15737589
119	0xbc57ffdc	-0.01318356
120	0xbd5e0f81	-0.054214004
121	0x3d21c45c	0.039493904
122	0xbe537336	-0.20649418
123	0xbf63c3bd	-0.8897055
124	0x3e7bd68e	0.24593565
125	0x3e10adb5	0.14128764
126	0x3e522edf	0.20525692
127	0xbd8ef9a0	-0.06981206
128	0x3ec5d6bf	0.386404
129	0x3e772e95	0.24138863
130	0x3e85a442	0.2610188
131	0x3e1c8adc	0.15287346
132	0xbd3f63a1	-0.046725873
133	0x3c76e8b3	0.015070128
134	0xbdace519	-0.084421344
135	0x3d6f59d5	0.05843528
136	0xbf10bd07	-0.5653843
137	0xbe078369	-0.13233723
138	0xbcfaaa63	-0.030598825
139	0xbd8eda45	-0.06975225
140	0xbd59137e	-0.052997105
141	0xbc08bbfc	-0.0083456
142	0xbea440cf	-0.32080695
143	0xbd484e02	-0.04890252
144	0x3ebab76e	0.3646807
145	0x3f10da23	0.5658285
146	0x3f701219	0.93777615
147	0x3e98a36c	0.2981218
148	0xbdc1ddc5	-0.09466127
149	0xbd034cdd	-0.032055724
150	0xbe128e3c	-0.1431207
151	0xbba26376	-0.0049557043
152	0x3e123fc6	0.1428214
153	0x3e3832cd	0.17988129
154	0xbde8f01d	-0.11373923
155	0x3f886404	1.0655522
156	0x3eeebe46	0.46629542
157	0xbbbbfc6f	-0.0057368795
158	0xbdcb6f0b	-0.09933289
159	0x3cc8434d	0.024446154
160	0xbd625f2c	-0.055266544
161	0x3e51cade	0.20487544
162	0x3e993ef3	0.2993084
163	0xbcbac393	-0.022798335
164	0x3ee90e6c	0.45518816
165	0x3e353869	0.176973
166	0xbd6abf2a	-0.057311215
167	0x3e0cdea7	0.1375681
168	0xbf0954c1	-0.5364495
169	0xbe85eeca	-0.26158744
170	0xbe99b389	-0.30019787
171	0x3ef30611	0.47465566
172	0xbdf57b3a	-0.11986394
173	0xbec67992	-0.38764626
174	0x3eed5e31	0.46360925
175	0xbe840044	-0.25781453
176	0xbc81e7bd	-0.015857572
177	0x3ea94a8a	0.3306468
178	0x3e1ad2fd	0.15119548
179	0xbe7af764	-0.24508435
180	0xbce591f0	-0.02802369
181	0x3d09441d	0.033512224
182	0x3c9bd59b	0.019022753
183	0xbdd73112	-0.10507406
184	0xbbb771f3	-0.0055983006
185	0x3daa3327	0.08310538
186	0xbd6d76d3	-0.057974648
187	0x3e1e2bb5	0.1544636
188	0x3d5c0516	0.053715788
189	0x3eb08c45	0.34482017
190	0x3ea470d8	0.32117343
191	0x3cc5bf48	0.024139062
192	0x3e2508d0	0.16116643
193	0x3dbea437	0.09308665
194	0xbee889a5	-0.45417514
195	0xbd988d3b	-0.074488126
196	0x3e478303	0.19483571
197	0xbe27a9df	-0.16373394
198	0xbd62e80b	-0.055397075
199	0x3db56c8e	0.08858596
200	0xbe650160	-0.22363806
201	0x3d805691	0.06266511
202	0x3dece7e8	0.1156767
203	0xbe896f1b	-0.2684258
204	0xbea62b94	-0.32455122
205	0xbdba465e	-0.09095453
206	0xbd39f28f	-0.045397338
207	0xbe90f4b0	-0.28311682
208	0x3e8bdbcb	0.27316126
209	0xbef950b0	-0.48694372
210	0xbf772a76	-0.96549165
211	0x3ec55366	0.3854019
212	0x3dfb04a6	0.12256746
213	0xbe0163cc	-0.12635726
214	0xbe8cd9fb	-0.27510056
215	0x3e835225	0.2564861
216	0x3ead9bb9	0.3390787
217	0x3df7ea43	0.12105229
218	0x3def864e	0.116955385
219	0xbe918769	-0.28423622
220	0xbe111176	-0.14166817
221	0x3d9dd1bb	0.077060185
222	0xbdf240be	-0.11828755
223	0x3e1fde7e	0.15612218
224	0xbe65d2de	-0.2244372
225	0xbd6611ba	-0.05616925
226	0xbe7ad5bb	-0.24495594
227	0xbecceacb	-0.40022883
228	0xbc89f4c2	-0.016840342
229	0xbd73ae11	-0.059492175
230	0x3dea7be7	0.11449414
231	0x3d7ba588	0.06143716
232	0xbdc9887a	-0.09840484
233	0xbd2b426d	-0.041811395
234	0xbe1f913d	-0.15582748
235	0x3e2479a5	0.16062029
236	0xbc850c9c	-0.016241364
237	0xbdc70e2c	-0.097195
238	0x3ee0a7f6	0.43878144
239	0xbea7601b	-0.3269051
240	0x3e38e8e4	0.1805759
241	0x3eb6939b	0.3565949
242	0x3f3f7b51	0.7479754
243	0xbe67a3f2	-0.22621134
244	0x3d1da812	0.038490362
245	0x3d94f759	0.0727374
246	0xbc92ce3d	-0.017920608
247	0x3d4f8e05	0.05067255
248	0x3d9654a1	0.073403604
249	0xbc5fc3c5	-0.013657515
250	0x3c2f9234	0.01071601
251	0xbc851435	-0.016244987
252	0x3d3eb34e	0.046557717
253	0x3ec4601d	0.3835458
254	0xbf1e53a1	-0.6184636
255	0x3cfa73e3	0.030572837

bias f4 [32]
0	0x3c8b0abf	0.016972898
1	0xbf8c1e26	-1.09467
2	0xbe4dd520	-0.20100832
3	0xbf00da14	-0.5033276
4	0xbe8d16b3	-0.2755638
5	0xbf8f140c	-1.1177993
6	0x3f2aeb29	0.66765076
7	0x3ec971dc	0.3934468
8	0xbf40257c	-0.75057197
9	0xbf214d8d	-0.6300896
10	0xbf5a18a6	-0.8519386
11	0xbdddaed6	-0.10824363
12	0x3e11bb86	0.14231691
13	0x3f9f1522	1.2428324
14	0x3f7a3a98	0.97745657
15	0xbfcebd5a	-1.6151536
16	0xbd8664d3	-0.065621994
17	0xbf220dc3	-0.6330225
18	0x3f3cbc77	0.73725075
19	0x3f383b0c	0.719651
20	0x3f57318d	0.84059983
21	0xbd937095	-0.07199208
22	0xc05854ba	-3.3801713
23	0x3f100e12	0.5627147
24	0x3fd4847b	1.660293
25	0xbf55754c	-0.83382106
26	0xbea24d01	-0.31699374
27	0x3f9c5abf	1.2215194
28	0xc0550392	-3.328343
29	0x3e1b2f31	0.15154721
30	0x3e2e9feb	0.17053191
31	0xbfbea787	-1.4894875

weight f4 [32, 32]
0	0xbe138715	-0.14406998
1	0x3cf3b7c0	0.029750705
2	0xbdfa5023	-0.12222316
3	0x3c7a2527	0.015267647
4	0x3f1367c8	0.5758023
5	0xbc922291	-0.017838748
6	0xbd41447b	-0.04718445
7	0x3de38c1f	0.1111071
8	0x3d0877ad	0.033317257
9	0xbe331e8a	-0.17492118
10	0x3d874b23	0.06606128
11	0xbe5bd14f	-0.21466564
12	0xbe2077fd	-0.15670772
13	0xbdab660f	-0.083690755
14	0x3b7394ef	0.0037167629
15	0x3e71020c	0.23535937
16	0xbc03bbee	-0.008040411
17	0xbc0d56c0	-0.00862664
18	0x3d60fb92	0.054927416
19	0x3e6ba94c	0.230138
20	0xbd259242	-0.040422685
21	0xbd889fe2	-0.0667112
22	0x3f23884a	0.63879836
23	0x3e243472	0.16035631
24	0xbdd63b55	-0.104605354
25	0x3e06a01d	0.13147016
26	0xbe6e86bb	-0.23293583
27	0xbdc6b886	-0.09703164
28	0x3e5605fa	0.20900717
29	0x3dbdab6b	0.09261211
30	0xbe2e6856	-0.17031989
31	0x3e53c9f8	0.20682514
32	0xbe4bc837	-0.19900595
33	0xbcfa29d9	-0.030537533
34	0xbd84f883	-0.06492712
35	0xbcd2b62f	-0.025721638
36	0x3c2c0302	0.010498764
37	0xbe7da318	-0.24769247
38	0xbe0dafab	-0.13836543
39	0x3d8f727b	0.07004257
40	0xbdbe65c6	-0.092967555
41	0xbea2aded	-0.3177332
42	0xbdbe9a6b	-0.09306797
43	0xbe3c845f	-0.1840987
44	0x3e3890b1	0.18023945
45	0x3e1380d1	0.14404608
46	0x3e1f5567	0.15559922
47	0xbe95887b	-0.2920569
48	0x3e02fb27	0.1279112
49	0x3cda9521	0.026682438
50	0x3caf5452	0.021402512
51	0x3e9ab584	0.3021661
52	0x3da4617d	0.08026407
53	0x3ed48c33	0.41513214
54	0xbed780fe	-0.420906
55	0x3d2c1f5b	0.04202209
56	0x3e7919a0	0.24326181
57	0x3db9ac69	0.09066088
58	0xbf1f7880	-0.62293243
59	0x3e1edc3c	0.155137
60	0xbe340c9e	-0.17582938
61	0xbdcf2e7b	-0.10116287
62	0x3ddb9d83	0.10723402
63	0xbda9f832	-0.082992926
64	0x3d80ca4d	0.06288586
65	0xbdb7b963	-0.089709066
66	0xbe255846	-0.16146955
67	0xbe51a86a	-0.20474401
68	0x3e104ab6	0.14091
69	0xbe8761e0	-0.2644186
70	0x3e032ea2	0.12810758
71	0x3e451b51	0.19248702
72	0xbc6c65f8	-0.014428608
73	0xbe2ff215	-0.1718219
74	0x3d477c7e	0.04870271
75	0xbd848036	-0.06469767
76	0xbd070e45	-0.032972593
77	0xbde31d8d	-0.11089621
78	0x3d90d06f	0.070710056
79	0x3eec7a3e	0.46187013
80	0x3e16e4d1	0.14735724
81	0x3e77e008	0.24206555
82	0xbdff3782	-0.12461759
83	0xbc2a2166	-0.010383939
84	0x3dacd155	0.084383644
85	0x3e0d832f	0.13819574
86	0xbdeca22a	-0.11554368
87	0xbe275b53	-0.16343431
88	0x3d062453	0.032749485
89	0xbd7c8e85	-0.061659355
90	0xbde3879d	-0.111098506
91	0xbe1f8423	-0.1557775
92	0xbd896538	-0.06708759
93	0x3d7f3b63	0.062312495
94	0xbe1b187a	-0.15146056
95	0xbdbb5ca8	-0.09148532
96	0x3e031598	0.12801206
97	0xbd1dfb4f	-0.038569745
98	0x3dc8501d	0.097809054
99	0xbe296140	-0.16541004
100	0x3d4945b7	0.04913875
101	0x3de1bbb5	0.110221304
102	0xbd6a8a38	-0.057260722
103	0x3cb6a5b3	0.022295808
104	0xbd2ab3b9	-0.041675303
105	0x3c0664b9	0.008202725
106	0x3af4c1be	0.0018673462
107	0xbdccc959	-0.099993415
108	0x3ddfa7e8	0.109206975
109	0xbd124753	-0.03571255
110	0x3d950668	0.072766125
111	0xbeebc90a	-0.46051818
112	0x3dc89e53	0.09795823
113	0x3ddd8960	0.10817218
114	0xbbbaad1f	-0.005696907
115	0xbc516ca9	-0.012782254
116	0x3e23ebd7	0.16007935
117	0xbd1036b1	-0.035208408
118	0x3ee24ea3	0.4420062
119	0xbda32a44	-0.07967046
120	0xbc20e028	-0.009819068
121	0xbdb436a1	-0.08799482
122	0x3e6244ca	0.22096553
123	0xbdfe3727	-0.12412863
124	0x3d6c13bc	0.057636008
125	0x3e48beb8	0.19604003
126	0xbecb2efe	-0.3968429
127	0x3b78905a	0.0037927837
128	0xbe64b66a	-0.2233521
129	0xbd8f2da4	-0.06991127
130	0x3d2c8912	0.042122908
131	0xbe1b7565	-0.15181501
132	0x3db6cd3e	0.089258656
133	0xbe4e6753	-0.20156603
134	0x3e3820ff	0.17981337
135	0x3e0e1562	0.13875344
136	0xbc04cd4f	-0.00810559
137	0xbdd675e1	-0.10471702
138	0xbe17ec03	-0.14836125
139	0xbdb2989f	-0.087205164
140	0x3dbecba3	0.09316184
141	0x3e36de97	0.17858349
142	0x3d50dcab	0.050991695
143	0x3db99fa2	0.09063651
144	0x3e3467d3	0.17617731
145	0x3dc620d1	0.09674228
146	0xbd2e9fc3	-0.04263283
147	0x3df4a756	0.11945979
148	0xbc998e22	-0.018744532
149	0x3e3c81f0	0.18408942
150	0x3c17004f	0.009216382
151	0x3d58a934	0.05289574
152	0x3d9f2cc1	0.07772208
153	0xbd764ef8	-0.060133904
154	0xbf0801ab	-0.53127545
155	0xbd2e3995	-0.042535383
156	0xbe479920	-0.19492006
157	0x3dc579da	0.09642382
158	0x3e0a6e1c	0.13518566
159	0xbe79713c	-0.24359602
160	0x3cdf04dd	0.027223999
161	0x3e53d1fd	0.20685573
162	0x3e0b75bc	0.13619131
163	0x3ce39dec	0.027785264
164	0xbe18b330	-0.14912105
165	0x3e96a9de	0.29426473
166	0x3e22d955	0.15903218
167	0xbe910cdc	-0.28330123
168	0x3e83e487	0.2576029
169	0x3d921eb0	0.071347594
170	0x3d28af4b	0.041182797
171	0x3d7add6e	0.061246328
172	0xbe05f388	-0.13081181
173	0x3ddb99ac	0.1072267
174	0xbc6d04c3	-0.014466467
175	0xbdada09e	-0.08477901
176	0xbe346d6f	-0.1761987
177	0x3e369778	0.17831218
178	0xbcb6c977	-0.022312863
179	0x3d155232	0.03645534
180	0xbba467d7	-0.0050172615
181	0xbe5a4b12	-0.213177
182	0x3e3f1d47	0.18663512
183	0xbd5b9235	-0.05360623
184	0xbf05c50b	-0.5225379
185	0x3cbc0470	0.022951335
186	0x3f44662c	0.767184
187	0xbd7bd6c1	-0.061484102
188	0xbc84d6db	-0.016215732
189	0xbd9334bd	-0.071877934
190	0xbe12d26d	-0.14338084
191	0x3d742315	0.05960377
192	0xbb0de1f7	-0.0021649578
193	0x3e354571	0.17702271
194	0x3e956855	0.29181162
195	0xbe2bc9c2	-0.16776183
196	0x3da6800b	0.08129891
197	0xbddde934	-0.108354956
198	0x3dfa6f3b	0.12228247
199	0x3e407a23	0.18796591
200	0xbe37301a	-0.17889443
201	0x3dc22a38	0.09480709
202	0xbe5617c0	-0.20907497
203	0x3e222eeb	0.1583821
204	0xbd9f1362	-0.07767369
205	0xbe449ef5	-0.19201262
206	0x3e4ff7b3	0.20309334
207	0xbf0b41b9	-0.5439716
208	0xbd777b49	-0.06042031
209	0xbdcf8c58	-0.1013419
210	0x3f09ceb3	0.5383102
211	0x3de4e1fa	0.11175914
212	0xbd3feef5	-0.046858747
213	0x3e421c94	0.18956214
214	0x3e6f82f0	0.23389792
215	0xbe708fd7	-0.2349237
216	0x3e33279e	0.17495582
217	0x3dc6511b	0.096834384
218	0x3d8e71ff	0.06955337
219	0xbe2e1bd4	-0.17002803
220	0xbe5833de	-0.21113536
221	0x3d1912ff	0.03737163
222	0x3dbc2f96	0.09188764
223	0xbd9047ce	-0.07044946
224	0xbd2aa9c1	-0.041665796
225	0xbd8275ae	-0.06370102
226	0xbdd7e62f	-0.10541951
227	0x3d8698c5	0.06572107
228	0x3e8af896	0.2714278
229	0xbd01544c	-0.031574532
230	0xbe3a7b24	-0.18211037
231	0x3da5288e	0.08064376
232	0xbe43da9f	-0.19126366
233	0xbea19f79	-0.3156698
234	0xbd928eb0	-0.07156122
235	0xbdbb28ec	-0.091386646
236	0x3dff49c9	0.12465245
237	0x3e6ad521	0.22932865
238	0x3e005632	0.12532881
239	0xbd22f0f8	-0.039780587
240	0x3e70ff5c	0.23534912
241	0xbd7a9cb5	-0.061184604
242	0x3b2f4ecc	0.0026749847
243	0x3aaba7c4	0.0013096263
244	0x3c940d9e	0.0180729
245	0x3e9cb88c	0.30609548
246	0xbf1d81a5	-0.61525947
247	0x3ddb1d07	0.10698896
248	0x3ddab6dd	0.1067941
249	0x3df92de8	0.12166959
250	0xbecc4ca0	-0.3990221
251	0x3e367f37	0.17821966
252	0xbe8e5a39	-0.2780321
253	0xbde90d38	-0.113794744
254	0x3d9ee7e6	0.07759075
255	0xbe2a9541	-0.16658498

bias f4 [32]
0	0xbee5d816	-0.44891423
1	0xbcfa47ce	-0.030551817
2	0xbd91631c	-0.07098982
3	0xbcaebb5e	-0.021329578
4	0x3cc2fdf4	0.023802735
5	0x3e3b5019	0.18292274
6	0x3d3fb4d2	0.046803303
7	0xbe1cad3f	-0.15300463
8	0x3ddfae0d	0.109218694
9	0xbf4f22ec	-0.8091266
10	0x3e0b7882	0.13620189
11	0x3db5ce82	0.08877279
12	0xbe35811b	-0.17725031
13	0x3df6c5db	0.12049457
14	0xbd859c43	-0.06523945
15	0x3d85c6c6	0.06532054
16	0x3de32a36	0.110920355
17	0xbe5fd218	-0.21857488
18	0x3df252e2	0.11832215
19	0xbd9f6212	-0.07782377
20	0xbec28fbd	-0.3800029
21	0xbe0d21b4	-0.13782388
22	0xbd9f39bf	-0.07774686
23	0x3ecd8725	0.4014217
24	0xbe08a03e	-0.13342378
25	0x3e97b0a3	0.2962695
26	0xbe1c4ed9	-0.15264453
27	0x3da852cd	0.08218918
28	0x3dc89fd5	0.097961105
29	0xbe2219b9	-0.15830125
30	0x3fb7d646	1.4362266
31	0xbdbc3ac6	-0.09190898

weight f4 [1, 32]
0	0x3e455050	0.19268918
1	0xbea80ecb	-0.32823786
2	0xbe9100aa	-0.2832082
3	0x3e30b107	0.1725503
4	0xbe30b3cf	-0.17256092
5	0x3ea6e4af	0.32596347
6	0x3e352f29	0.17693771
7	0xbe0ea72f	-0.13930963
8	0xbed11e28	-0.4084332
9	0x3e7e24e0	0.24818754
10	0x3e683bf6	0.22679123
11	0xbecae542	-0.39628035
12	0x3e7975d2	0.24361351
13	0xbe1cea7b	-0.15323822
14	0xbe65d60d	-0.22444935
15	0x3e18c46e	0.14918682
16	0x3e91c148	0.28467774
17	0x3ebda8a7	0.37042734
18	0x3f6ff7d7	0.9373755
19	0xbe877fec	-0.26464784
20	0x3e9ffb2f	0.31246325
21	0xbe326f3d	-0.17425247
22	0x3ec0506d	0.3756136
23	0xbf0c07bb	-0.54699296
24	0x3e739259	0.23786296
25	0x3e7229fc	0.23648828
26	0xbe472b29	-0.19450058
27	0x3e346d30	0.17619777
28	0x3eca6a1a	0.39534074
29	0x3e526a17	0.20548283
30	0xc0170a88	-2.3600178
31	0x3e868abd	0.26277724
