calixarene/models/model_3.pt (torch, 22339 bytes, 5 tensors)

weight f4 [32, 16]
0	0xbda33894	-0.07969776
1	0x3e4ab6a7	0.19796239
2	0xbe624844	-0.2209788
3	0xbe54dcaf	-0.20787309
4	0x3dd5f93e	0.1044793
5	0xbe72bf71	-0.23705842
6	0x3d881f48	0.066465914
7	0xbd905046	-0.07046561
8	0xbe311239	-0.17292108
9	0xbe570aed	-0.21000262
10	0xbc68e7b1	-0.014215396
11	0xbd9075e3	-0.07053735
12	0xbe791f76	-0.24328408
13	0x3e33c039	0.17553796
14	0x3dfc13d8	0.123084724
15	0x3e4eab85	0.20182617
16	0xbe383fe5	-0.17993124
17	0x3e4f5d94	0.20250541
18	0xbc7c9af8	-0.015417807
19	0xbe11b94e	-0.14230844
20	0xbdf169f9	-0.11787791
21	0x3e12b3ce	0.14326403
22	0xbc59b515	-0.013287802
23	0x3db4288a	0.08796795
24	0xbdcf33cd	-0.10117302
25	0xbe3936b2	-0.18087271
26	0x3ce7acb4	0.028280593
27	0x3e02e303	0.1278191
28	0xbe4c8264	-0.19971615
29	0x3e499be8	0.1968838
30	0x3d145fb6	0.03622409
31	0xbd0809b3	-0.033212375
32	0xbdaf25aa	-0.08552106
33	0xbd4f4ece	-0.050612263
34	0xbd7b9cfe	-0.061429016
35	0xbe7ba756	-0.24575552
36	0xbd068b04	-0.03284742
37	0xbe34065b	-0.1758055
38	0xbe905c66	-0.28195494
39	0x3d4b26b5	0.04959746
40	0xbe8b878c	-0.27251852
41	0x3d8d05a5	0.06885842
42	0xbdf83dd8	-0.12121171
43	0x3c9ac186	0.018891107
44	0x3d4aec9b	0.04954205
45	0x3c93794f	0.01800218
46	0x3e9790ab	0.2960256
47	0xbdc5fa55	-0.09666888
48	0x3ced102e	0.02893838
49	0x3e8b266b	0.27177748
50	0x3e474f7c	0.19463915
51	0x3e10ba40	0.14133549
52	0xbd577297	-0.052599516
53	0xbdadf6d7	-0.084943466
54	0x3e32fefa	0.17480078
55	0xbd2afada	-0.041743137
56	0x3e30987f	0.17245673
57	0xbe53ae45	-0.20671947
58	0x3df64226	0.120243356
59	0x3dcb3991	0.09923089
60	0xbdc3708e	-0.095429525
61	0x3d89bcf4	0.06725493
62	0xbe304e3d	-0.17217346
63	0xbec76463	-0.38943776
64	0x3dc9c5c1	0.09852172
65	0xbe627a15	-0.22116883
66	0x3e568be7	0.20951806
67	0xbe0195dc	-0.12654823
68	0x3d0ab320	0.033862233
69	0xbdbc9c9d	-0.09209559
70	0x3cc0b69a	0.023524571
71	0x3e384454	0.17994815
72	0x3e818021	0.25293067
73	0xbdd876b9	-0.105695195
74	0xbbf49493	-0.0074640005
75	0x3e05b33f	0.13056658
76	0x3b84ae89	0.0040491265
77	0x3dcf63e5	0.10126475
78	0xbe24492d	-0.1604354
79	0x3e733be4	0.23753315
80	0x3e3cc713	0.18435316
81	0x3e11a4ee	0.14223072
82	0x3ec38112	0.3818441
83	0x3e2497d9	0.1607355
84	0xbe2c6084	-0.16833693
85	0xbcf9b184	-0.030480154
86	0x3e95d35e	0.29262823
87	0xbe9771fe	-0.29579157
88	0x3d90151f	0.070352785
89	0xbe6f4d6d	-0.2336938
90	0x3d2e7c63	0.042599093
91	0xbd91eaac	-0.07124838
92	0x3c8cbb06	0.017179023
93	0xbd743afd	-0.059626568
94	0xbe44f87c	-0.19235414
95	0xbda6a7a6	-0.08137445
96	0x3e0c244f	0.13685726
97	0xbd45e095	-0.04830988
98	0x3df4f6cf	0.119611375
99	0xbc4b0c3a	-0.012393052
100	0x3d9d0b0b	0.07668122
101	0xbe52f99c	-0.20603031
102	0x3e101305	0.14069755
103	0x3d0fa7e4	0.035072222
104	0xbdded45d	-0.10880349
105	0xbd2df9cc	-0.042474553
106	0xbd3532cf	-0.044237908
107	0x3e91c300	0.28469086
108	0x3de0aa0f	0.10969936
109	0xbc74f230	-0.01495032
110	0xbd89350e	-0.066995725
111	0x3d0d68b9	0.0345237
112	0xbe82f236	-0.25575417
113	0xbe31e5e1	-0.17372848
114	0xbe35a998	-0.17740476
115	0xbd3baaa8	-0.045817047
116	0xbe1b6e13	-0.15178709
117	0x3e196179	0.14978589
118	0x3de95c91	0.11394609
119	0x3e15a5fd	0.14614101
120	0xbbef639b	-0.007305575
121	0xbdd5373e	-0.10410927
122	0x3e2cc0f8	0.16870487
123	0x3e213330	0.15742183
124	0xbe468b0c	-0.1938898
125	0xbdb5035a	-0.0883853
126	0x3e4308ac	0.19046277
127	0x3e7bac14	0.24577361
128	0xbe4246cf	-0.18972324
129	0x3dcc8cda	0.09987803
130	0x3e801bb9	0.2502115
131	0xbe512cbf	-0.20427226
132	0x3e441b90	0.1915114
133	0xbe592aef	-0.21207784
134	0x3e438d63	0.19096904
135	0xbe04db48	-0.12974274
136	0xbdabcb91	-0.083884366
137	0xbdeda3b5	-0.1160349
138	0xbe0b04eb	-0.13576095
139	0x3daf82ac	0.085698456
140	0xbc9f1985	-0.019421348
141	0x3e2a7970	0.16647887
142	0x3e350105	0.1767617
143	0xbda99df8	-0.08282083
144	0x3cedef57	0.02904479
145	0x3e84585a	0.25848657
146	0xbdecc767	-0.115614705
147	0x3e2d6301	0.16932298
148	0x3e014bfa	0.12626639
149	0x3c0e7de1	0.008697004
150	0xbd3672e8	-0.044543177
151	0xbe570174	-0.20996648
152	0x3dcf08eb	0.10109123
153	0x3e5207b3	0.2051075
154	0xbd9ef961	-0.07762409
155	0x3e7fc92a	0.24979082
156	0xbe01f326	-0.1269041
157	0x3e1dfd34	0.1542862
158	0xbe2a0a85	-0.16605575
159	0xbe9d92a9	-0.30775955
160	0x3aec30b7	0.0018019889
161	0x3e7e6ffb	0.24847405
162	0x3e986f79	0.29772547
163	0xbe5fe1d3	-0.21863489
164	0x3e35a571	0.17738892
165	0x3e89f28e	0.26942867
166	0x3e42c0d5	0.19018872
167	0xbe89fc1f	-0.26950166
168	0xbd04d658	-0.032430977
169	0x3d1744ae	0.036930732
170	0xbe0f126e	-0.13971874
171	0x3e96b042	0.2943135
172	0xbd07fbae	-0.033199005
173	0x3d7babf2	0.061443277
174	0xbea4d9e2	-0.3219748
175	0xbdf9fa90	-0.12205994
176	0xbcc204fb	-0.023684015
177	0x3dc80595	0.0976669
178	0xbe9c617e	-0.3054313
179	0xbe5047e0	-0.20339918
180	0x3dbf1338	0.093298376
181	0xbe6817c8	-0.22665322
182	0xbe88e2ec	-0.26735628
183	0xbe37bc6a	-0.17942968
184	0xbe47ad16	-0.19499621
185	0x3daecb72	0.08534898
186	0xbe8e3eac	-0.2778219
187	0x3da9f5c3	0.082988285
188	0x3d8ef15d	0.0697963
189	0x3e242d67	0.16032945
190	0x3c23e2bf	0.010002791
191	0x3d195781	0.037436966
192	0x3d339eea	0.043852724
193	0xbdefa9ce	-0.117023095
194	0xbe96b9d8	-0.29438663
195	0x3d697866	0.056999587
196	0x3d95769b	0.07298013
197	0xbe439f2b	-0.19103687
198	0xbe5b1fe2	-0.21398881
199	0x3e009df7	0.12560259
200	0xbd4c1d84	-0.049832836
201	0x3e8b387b	0.2719153
202	0xbe79309d	-0.24334951
203	0xbe1a3a08	-0.150612
204	0xbe866eb0	-0.26256323
205	0x3d2581cd	0.04040699
206	0x3e64bb33	0.22337036
207	0x3eb44e13	0.35215816
208	0xbe57fde1	-0.21092941
209	0xbe541883	-0.20712475
210	0xbe77f70e	-0.24215338
211	0x3def9e1f	0.11700081
212	0xbe78694c	-0.24258918
213	0x3e53115e	0.20612094
214	0xbdb34f51	-0.08755363
215	0xbe5e077e	-0.21682546
216	0xbdc0154f	-0.09379064
217	0x3e4cd524	0.20003182
218	0x3e1d492e	0.15359947
219	0x3dc4fc67	0.096184544
220	0xbdee814c	-0.11645755
221	0xbe688718	-0.22707784
222	0xbe36bcf2	-0.17845514
223	0xbe3045ee	-0.17214176
224	0x3d81aa90	0.0633136
225	0xbc9d1546	-0.019175183
226	0x3db0c985	0.08632187
227	0xbe686987	-0.22696505
228	0xbe2afdee	-0.16698429
229	0xbe932fb5	-0.28747335
230	0xbe59c206	-0.2126542
231	0xbdce88de	-0.10084699
232	0x3e91fb7b	0.28512177
233	0x3b79ec57	0.0038135254
234	0xbe492d2f	-0.19646142
235	0x3db00e39	0.08596463
236	0xbe923531	-0.28556207
237	0x3de479af	0.11156022
238	0x3e766584	0.24062163
239	0x3e7c97af	0.24667238
240	0x3b6f3bce	0.0036504152
241	0x3e1d8bd6	0.15385374
242	0x3dfa0020	0.12207055
243	0x3da8514c	0.08218631
244	0x3c1c36d4	0.009534556
245	0x3cecf84e	0.028926995
246	0x3e84b1bd	0.25916854
247	0xbe007b46	-0.12547025
248	0x3d218a29	0.0394384
249	0xbd9d5ea5	-0.07684068
250	0xbda4f60b	-0.080547415
251	0xbd784e2d	-0.06062143
252	0x3e28661e	0.16445205
253	0xbe6c82d9	-0.2309679
254	0x3e377f5c	0.17919677
255	0xbe80aa36	-0.2512986

bias f4 [32]
0	0xbe3b61b9	-0.18298997
1	0xbd8b4359	-0.06799955
2	0xbd6821ba	-0.05667279
3	0xbdbe4b82	-0.09291746
4	0x3d9ce7c7	0.076613955
5	0xbe3845b2	-0.17995337
6	0xbe9c1188	-0.30482125
7	0xbd5dcc47	-0.054149892
8	0xbc1828ef	-0.009287103
9	0x3d22ce28	0.039747387
10	0x3d9caf68	0.076506436
11	0xbe093f3e	-0.13403031
12	0x3e066763	0.13125376
13	0x3d364624	0.044500485
14	0x3e411e73	0.18859272
15	0x3d00f7fb	0.031486493
16	0xbe8499a6	-0.25898474
17	0x3c921e98	0.017836854
18	0x3e55cdc6	0.20879278
19	0xbd18b16a	-0.03727857
20	0x3e13eb65	0.14445265
21	0x3e83f954	0.2577616
22	0x3e37dcec	0.17955369
23	0x3e577d7c	0.21043962
24	0x3dc93251	0.0982405
25	0x3dafbcd8	0.08580941
26	0x3e095074	0.13409597
27	0xbe3760a2	-0.17907956
28	0xbde4667f	-0.11152362
29	0x3e32ebf3	0.1747282
30	0xbd720c7f	-0.05909395
31	0x3908e0c1	0.00013053698

weight f4 [32, 32]
0	0x3d7b85e7	0.061406996
1	0xbba14b3d	-0.004922299
2	0x3dda700f	0.10665905
3	0x3e21338d	0.15742321
4	0x3dcbebc4	0.09957078
5	0xbbb34bec	-0.005471697
6	0x3e15d95b	0.14633696
7	0xbdd4a64a	-0.103832796
8	0x3cdea72f	0.027179329
9	0xbd16b6e2	-0.036795504
10	0x3c582dad	0.013194484
11	0x3d01f8eb	0.031731527
12	0x3d8687e1	0.065688856
13	0x3dd7cd29	0.10537178
14	0xbca7e6a5	-0.020495722
15	0x3e0767cc	0.13223189
16	0x3d720a48	0.059091836
17	0xbdec3584	-0.11533645
18	0xbdeac74d	-0.11463795
19	0x3d8bd963	0.068285726
20	0xbd15c82f	-0.036567863
21	0xbe00f85c	-0.12594742
22	0xbd8969b1	-0.06709612
23	0x3dbc9e45	0.09209875
24	0x3d4f17df	0.050559875
25	0x3e0a2747	0.13491546
26	0xbe03ce7d	-0.12871738
27	0xbe08442b	-0.13307254
28	0xbdeb2094	-0.11480823
29	0x3d504b71	0.050853197
30	0x3dfe7fac	0.12426695
31	0xbd27b844	-0.040947214
32	0x3de474b0	0.11155069
33	0x3e40a8c3	0.18814377
34	0xbe41625a	-0.18885174
35	0xbd000068	-0.031250387
36	0x3dee2144	0.11627439
37	0xbbea2295	-0.007145236
38	0x3d191c21	0.03738034
39	0xbe6bc928	-0.23025954
40	0xbc90a2d7	-0.017655773
41	0xbdc9605d	-0.09832833
42	0x3d555044	0.0520785
43	0xbdb071fe	-0.08615492
44	0xbe32a715	-0.17446549
45	0x3dbde91c	0.09272978
46	0xbe51f40e	-0.20503256
47	0xbcaa2e74	-0.020774104
48	0x3e40d84a	0.18832508
49	0xbd452976	-0.048135243
50	0x3c4e157b	0.0125783635
51	0xbcc9d079	-0.02463554
52	0xbd320274	-0.04345937
53	0xbe4d2cd6	-0.20036635
54	0xbdbc9bf2	-0.09209432
55	0x3c23046b	0.009949784
56	0x3cd791c6	0.026314627
57	0x3e33c580	0.17555809
58	0x3d16b6d6	0.03679546
59	0xbdddeda9	-0.10836346
60	0x3e51b26e	0.20478222
61	0xbe4d6239	-0.20057
62	0xbde14502	-0.1099949
63	0xbe323b63	-0.17405467
64	0xbd8c8de2	-0.068629995
65	0xbae98e67	-0.0017818928
66	0xbdf710b8	-0.12063736
67	0x3e356eff	0.17718123
68	0x3c99e537	0.018786056
69	0x3d3d73f1	0.04625315
70	0xbc9d41a4	-0.019196339
71	0xbddbd3bb	-0.10733744
72	0xbdfd1088	-0.12356669
73	0xbe085ba8	-0.13316214
74	0xbe05cd8f	-0.13066696
75	0xbd8edb53	-0.069754265
76	0xbd6fa509	-0.058507
77	0x3d9dd67d	0.07706926
78	0xbd44cd62	-0.04804743
79	0x3df47228	0.11935836
80	0x3cb4e738	0.02208291
81	0x3dd2ca53	0.102924965
82	0x3d88f41d	0.06687186
83	0xbe49ee84	-0.19719893
84	0xbdd772ff	-0.10519981
85	0x3d2ffc30	0.042965114
86	0xbd8465ca	-0.06464727
87	0x3e3a4ad5	0.18192609
88	0x3c97cc99	0.018530177
89	0x3e4d7154	0.20062762
90	0xbd4a700d	-0.049423266
91	0xbd21c163	-0.03949107
92	0x3df09af2	0.117483035
93	0xbe13d02e	-0.14434883
94	0x3c46af56	0.012126764
95	0x3a823254	0.0009933212
96	0x3dc2a9da	0.09505053
97	0xbdde4e94	-0.10854831
98	0xbd0ffb95	-0.035152037
99	0xbd8ce70e	-0.06880008
100	0x3d74b7f9	0.059745762
101	0x3df0b719	0.11753673
102	0x3db4ae1f	0.088222735
103	0xbe610858	-0.21975839
104	0x3e12ffc3	0.14355378
105	0x3e014da6	0.12627277
106	0x3ddffb83	0.10936644
107	0x3da31607	0.07963186
108	0x3c83c090	0.016083032
109	0xbc449529	-0.011998453
110	0xbce79b84	-0.028272398
111	0x3e33443e	0.17506501
112	0x3e4d9cb4	0.20079309
113	0x3deba410	0.11505902
114	0x3d996729	0.07490379
115	0xbcc88c90	-0.024481088
116	0xbd831ba0	-0.064017534
117	0xbdccbb19	-0.099966235
118	0x3e027164	0.12738568
119	0xbb5b4d0b	-0.003346267
120	0xbe119706	-0.14217767
121	0xbd7b0d74	-0.061292127
122	0xbe023c05	-0.12718208
123	0xbd98ab9d	-0.07454608
124	0x3e3a3e5b	0.18187849
125	0xbe32d570	-0.17464232
126	0xbbb924c7	-0.005650136
127	0xbe824087	-0.25439855
128	0x3cf250d5	0.02957956
129	0x3d9c4809	0.07630927
130	0xbd15cd18	-0.036572546
131	0xbe07cbb1	-0.13261296
132	0x3e1d1675	0.15340598
133	0xbe368e81	-0.17827798
134	0x3dac7fb3	0.08422794
135	0xbd59a078	-0.05313155
136	0x3ddbc232	0.10730399
137	0xbcc2389c	-0.023708634
138	0x3d8bf0b8	0.06833023
139	0xbd3e5510	-0.04646784
140	0xbd86ffb8	-0.06591743
141	0x3dfaffb7	0.12255805
142	0x3e430a38	0.19046867
143	0x3c607385	0.013699417
144	0xbd9bd732	-0.076094046
145	0x3e3de95a	0.18546048
146	0x3d85c636	0.06531946
147	0xbd97664e	-0.0739256
148	0xbdc21ece	-0.09478532
149	0x3d26b53d	0.040700186
150	0x3d052463	0.032505404
151	0xbcebf24e	-0.028802063
152	0x3b6a7121	0.0035772996
153	0x3d60c845	0.054878492
154	0xbdc56077	-0.0963754
155	0x3dd1a9ae	0.10237442
156	0x3d1616dc	0.036642894
157	0x3e4de638	0.20107353
158	0x3d2d3b35	0.042292792
159	0x3e66fea8	0.22558081
160	0xbde589b4	-0.112079054
161	0xbdfdb36f	-0.1238774
162	0x3c1ed1e9	0.009693601
163	0xbe6e1c35	-0.23252948
164	0xbdcdf757	-0.10056942
165	0xbe631135	-0.22174533
166	0xbe653520	-0.22383547
167	0xbe1dd9db	-0.15415137
168	0xbcb700b0	-0.022339195
169	0x3d8cd6e8	0.068769276
170	0x3c4341e4	0.011917565
171	0x3d4e9a3b	0.050440054
172	0x3d5a6367	0.053317454
173	0xbd3fb134	-0.046799853
174	0x3d6845e1	0.056707267
175	0xbe0e7fc6	-0.13915929
176	0xbd8b35ec	-0.06797394
177	0x3e0a196c	0.1348626
178	0x3dd99bae	0.10625397
179	0xbd61ebbe	-0.055156462
180	0xbdee498c	-0.11635122
181	0x3dcd45dd	0.10023091
182	0xbbb122b1	-0.005405747
183	0x3decb890	0.1155864
184	0x3e1253ac	0.14289731
185	0x3dcd91fc	0.1003761
186	0xbd324657	-0.043524113
187	0xbe1b7de0	-0.15184736
188	0x3ba49fc8	0.00502393
189	0x3e85a093	0.2609907
190	0xbd9c0772	-0.076186076
191	0x3cce5008	0.025184646
192	0x3d45bd65	0.048276324
193	0x3e2900e1	0.16504242
194	0x3e2435ce	0.1603615
195	0x3cca946b	0.024728974
196	0xbc34a705	-0.011026149
197	0xbdf62c21	-0.12020136
198	0xbe009e8c	-0.12560481
199	0xbda534da	-0.08066721
200	0x3d6e4ddd	0.058179725
201	0xbdaa79fd	-0.08324049
202	0xbe4542c8	-0.19263756
203	0x3e33bf15	0.17553361
204	0x3dc5cbe2	0.09658028
205	0xbca29cc5	-0.019850144
206	0xbc0ed7d4	-0.00871845
207	0xbdab02d7	-0.08350151
208	0x3cc116ee	0.023570504
209	0x3ddfbef2	0.10925092
210	0xbdb84fd4	-0.08999601
211	0x3e491220	0.1963582
212	0xbdb86c11	-0.09004987
213	0x3d76c42a	0.06024567
214	0x3e337260	0.175241
215	0x3e49ae75	0.19695456
216	0x3d2ee9a5	0.04270329
217	0xbe258785	-0.16164978
218	0x3dab31a2	0.08359076
219	0xbd3683dc	-0.044559345
220	0x3e04d473	0.12971668
221	0x3e55b0b7	0.20868193
222	0xbdddafbe	-0.10824536
223	0xbd2a0d6c	-0.041516706
224	0x3e000440	0.12501621
225	0x3db73930	0.089464545
226	0xbdfece8f	-0.12441742
227	0x3e5375d1	0.20650412
228	0xbdc7438d	-0.09729681
229	0x3e5c8ba5	0.21537645
230	0xbd8545d1	-0.06507457
231	0xbe8347ff	-0.25640866
232	0x3ded2ef2	0.1158122
233	0xbdd37323	-0.10324695
234	0x3dc356cd	0.0953804
235	0xbdc35069	-0.095368214
236	0x3dbcec38	0.09224743
237	0xbdb7d955	-0.08977
238	0x3e098472	0.1342943
239	0xbc59f9ab	-0.013304154
240	0x3e49bc55	0.19700749
241	0x3dc76d7b	0.097376786
242	0x3dc8e2b5	0.09808866
243	0x3cfcd2cd	0.030862236
244	0xbd495693	-0.04915483
245	0xbd9442b1	-0.07239283
246	0x3d8dee91	0.069302686
247	0xbdd1e2bf	-0.102483265
248	0xbe1d5652	-0.1536496
249	0x3e313b99	0.17307891
250	0x3da2b287	0.07944208
251	0x3e4ffbfb	0.20310967
252	0x3d94d1b2	0.07266559
253	0xbe3d7b1b	-0.18503992
254	0x3e4998a7	0.19687138
255	0xbd963f73	-0.07336321

bias f4 [32]
0	0xbe10844c	-0.14112967
1	0xbe0e18c7	-0.1387664
2	0x3df259c7	0.1183353
3	0xbde07c5f	-0.10961222
4	0x3e41b74a	0.18917575
5	0xbd07f7bb	-0.03319524
6	0xbe014770	-0.12624907
7	0xbd311e71	-0.04324192
8	0x3dffc005	0.12487797
9	0x3d357060	0.044296622
10	0x3e053841	0.1300974
11	0xbe39f334	-0.18159181
12	0x3d40680d	0.04697423
13	0xbd551f50	-0.052031815
14	0x3e2a759f	0.16646431
15	0x3d00e8e5	0.031472106
16	0xbc384f42	-0.011249365
17	0xbe07f369	-0.13276447
18	0x3e07d897	0.13266216
19	0xbc7ec6a2	-0.015550287
20	0xbdc34da7	-0.095362954
21	0xbdfa0b88	-0.12209231
22	0x3dfd5dab	0.12371381
23	0xbd510571	-0.05103058
24	0x3e0d3a08	0.13791668
25	0xbe8228ca	-0.25421745
26	0x3d31415d	0.043275226
27	0x3e21eb2b	0.15812366
28	0x3d7f991e	0.062401883
29	0xbd7b3a24	-0.061334744
30	0x3e0fbdb4	0.1403721
31	0x3d9ac18a	0.07556446

weight f4 [1, 32]
0	0x3bce4d1f	0.0062958146
1	0x3e2fc12a	0.1716353
2	0x3e2d7677	0.16939722
3	0x3dbf6f27	0.093473725
4	0xbd848f2d	-0.06472621
5	0xbe6422db	-0.22278921
6	0xbdc23d5b	-0.09484359
7	0x3ddc7742	0.10764934
8	0xbdb95175	-0.0904874
9	0xbd8a0858	-0.06739873
10	0xbe0a8565	-0.13527448
11	0x3e80c56e	0.25150627
12	0x3e41210f	0.18860267
13	0xbcd47002	-0.025932316
14	0xbe217eb9	-0.15770997
15	0xbe2cdbaa	-0.1688067
16	0xbe0e6b02	-0.13908008
17	0xbe363ab5	-0.17795832
18	0x3e422348	0.18958771
19	0x3e003d2d	0.12523337
20	0xbe05aef6	-0.13055024
21	0x3dd2a92c	0.10286173
22	0xbe14f95e	-0.14548251
23	0x3dfb4aaf	0.12270104
24	0xbe25b71f	-0.16183136
25	0x3dbf3e77	0.09338086
26	0xbe28ebe7	-0.1649624
27	0x3bc4a9d2	0.0060016895
28	0x3d6dad80	0.05802679
29	0x3dd77aa7	0.10521441
30	0xbe1c75a1	-0.15279247
31	0xbe2e7524	-0.17036873
