calixarene/models/model_2.pt (torch, 22355 bytes, 5 tensors)

weight f4 [32, 16]
-0.14004432 -0.14931966 0.17822312 -0.069876224 -0.081456594 -0.20508704 0.118397266 -0.042996697
0.040241428 -0.12302092 0.009730519 0.09768973 -0.14633359 -0.15420857 -0.10785133 0.024016408
-0.23715083 0.1465041 -0.06430002 0.12113105 -0.28024775 -0.29342106 -0.062620126 -0.04327578
-0.09155602 -0.26634938 0.16476467 -0.20183931 0.14302526 0.064592145 0.09409638 -0.0783347
-0.081877306 0.05813081 -0.08063669 0.17830795 0.24661256 -0.11766685 -0.04818567 0.09267036
0.16496393 0.17310494 0.10023346 0.22573382 0.096980385 0.23527916 -0.17377451 -0.23895857
-0.15988833 -0.010992715 0.21077988 -0.012763168 0.10505618 0.16253468 0.20828362 -0.16312887
0.060765833 0.116098784 -0.05816164 0.10228696 -0.0714118 0.18073694 -0.14550838 0.06125705
-0.015031369 0.10334773 0.09071011 0.25963402 0.188435 0.18957075 0.15507458 0.046310723
0.0033569203 0.08126477 0.17361929 -0.060010422 -0.015300757 -0.06184905 -0.27345613 0.06362729
0.18655366 0.2229482 0.20851493 -0.028016167 0.10089893 0.1363375 0.13045788 -0.1767121
-0.10899997 0.1339921 -0.071850576 0.26044497 0.19521445 -0.13390794 -0.10672062 -0.16922249
0.099277385 0.16505079 -0.24051502 0.051211704 0.2146057 0.022485401 -0.22946854 -0.008098153
0.02167472 -0.100894324 -0.12399581 -0.014515312 0.04474122 -0.22842307 0.060755268 0.11410864
-0.07620213 -0.12998052 0.06796209 -0.015358563 -0.20572095 -0.19181342 -0.071000494 0.18956585
-0.038084056 0.049192183 0.21161857 -0.08592583 -0.04916674 -0.15376954 0.26177648 0.29920042
0.0884284 -0.05815648 0.00586961 -0.19705641 -0.07755346 0.0358841 -0.14391373 -0.20374738
0.20645443 0.19356589 0.034700025 -0.1579566 0.13568024 0.18702953 0.01492469 0.2051314
-0.07184154 -0.3048906 0.017125744 0.0895307 -0.22436516 -0.13546589 -0.14145654 0.19269234
0.0096654035 -0.18685426 -0.21057232 -0.12710746 -0.23327799 -0.15918534 0.07455395 0.3068887
-0.119384244 0.20038691 0.00590555 0.14770967 -0.014862271 0.18556239 0.21322645 0.18036492
0.1751969 0.20213991 -0.09348514 0.108265415 0.019140098 -0.07774405 0.23818165 -0.13939446
0.04310544 0.08327699 0.031072231 0.34484893 0.115822926 0.07037613 0.114388056 -0.013981088
0.022627417 0.11353899 -0.12515497 0.18260652 0.03240955 -0.21136673 -0.11443625 0.098250434
0.2509327 -0.08883077 -0.07370869 -0.017532589 -0.021253195 0.041556437 0.14978291 -0.10228543
0.06529435 0.07705706 0.055440538 0.2838282 -0.06419661 0.14205226 0.015254474 -0.17279974
-0.14187738 -0.102311194 -0.22137341 -0.13561079 0.1774374 -0.015318494 -0.15925562 0.017114751
0.11260268 -0.0097056795 0.08650569 -0.03265627 0.25389537 0.012580266 -0.18456428 0.0022284868
0.16872418 -0.062506534 -0.3154837 0.1776882 -0.13592097 0.025489014 -0.2799149 0.17217308
0.11301743 -0.210133 -0.13150884 0.1260861 -0.20114505 -0.10838531 -0.1844923 0.25455707
0.21536791 0.029189767 0.1374641 -0.21741831 0.27412835 0.24643941 0.17376664 -0.08254405
-0.2095674 -0.012840093 0.12822579 0.10778778 0.17644463 -0.010555126 -0.2300396 0.11766177
00000000: c767 0fbe 41e7 18be 1f80 363e 441b 8fbd
00000010: b7d2 a6bd 5602 52be 447a f23d 4e1d 30bd
00000020: 32d4 243d 64f2 fbbd c16c 1f3c 8e11 c83d
00000030: 79d8 15be dae8 1dbe 28e1 dcbd 0fbe c43c
00000040: abd7 72be 2c05 163e bbaf 83bd 8e13 f83d
00000050: a27c 8fbe 493b 96be fb3e 80bd f241 31bd
00000060: b981 bbbd f25e 88be 12b8 283e f7ae 4ebe
00000070: 3775 123e e348 843d 9ab5 c03d f16d a0bd
00000080: 4aaf a7bd 921a 6e3d d924 a5bd 5c96 363e
00000090: 0188 7c3e 51fb f0bd 565e 45bd f5c9 bd3d
000000a0: 4eec 283e 6c42 313e 3347 cd3d c426 673e
000000b0: a79d c63d 05ed 703e f2f1 31be 8eb1 74be
000000c0: c4b9 23be ca1a 34bc aed6 573e 9b1c 51bc
000000d0: b227 d73d 7e6f 263e 4d48 553e 410b 27be
000000e0: 98e5 783d 33c5 ed3d e63a 6ebd d37b d13d
000000f0: 5a40 92bd 1b13 393e 2600 15be ace8 7a3d
00000100: 2246 76bc faa7 d33d 39c6 b93d c0ee 843e
00000110: 1bf5 403e d61e 423e dfcb 1e3e 50b0 3d3d
00000120: c7ff 5b3b 256e a63d 41c9 313e 7dcd 75bd
00000130: 07b0 7abc 6e55 7dbd 7102 8cbe 064f 823d
00000140: ec07 3f3e 884c 643e f084 553e 2982 e5bc
00000150: 19a4 ce3d 0f9c 0b3e c096 053e 04f4 34be
00000160: 603b dfbd 3a35 093e 6526 93bd 0b59 853e
00000170: 4ce6 473e 2a1f 09be 5790 dabd a948 2dbe
00000180: f151 cb3d 1303 293e 9249 76be 5dc3 513d
00000190: 99c1 5b3e 4e33 b83c cdf9 6abe 1eae 04bc
000001a0: 2f8f b13c afa1 cebd 84f1 fdbd a2d1 6dbc
000001b0: 9242 373d bde7 69be 84da 783d cab1 e93d
000001c0: dd0f 9cbd 9d19 05be b52f 8b3d 7ba2 7bbc
000001d0: 83a8 52be bd6a 44be b568 91bd 8d1d 423e
000001e0: 07fe 1bbd be7d 493d 8ab2 583e e2f9 afbd
000001f0: 1063 49bd c375 1dbe 9107 863e cc30 993e
00000200: f319 b53d 7d35 6ebd db55 c03b 28c9 49be
00000210: 59d4 9ebd 35fb 123d 1f5e 13be 27a3 50be
00000220: ca68 533e 2336 463e 9d21 0e3d 60bf 21be
00000230: c3ef 0a3e ab84 3f3e b086 743c f70d 523e
00000240: a821 93bd 9f1a 9cbe 4a4b 8c3c df5b b73d
00000250: fbbf 65be 92b7 0abe fcd9 10be 2451 453e
00000260: a45b 1e3c b956 3fbe 45a0 57be 7528 02be
00000270: 6de0 6ebe 7b01 23be beaf 983d 8420 9d3e
00000280: ba7f f4bd 3a32 4d3e 5883 c13b 3441 173e
00000290: e280 73bc 1104 3e3e 0958 5a3e 95b1 383e
000002a0: d166 333e c4fd 4e3e 2375 bfbd 42ba dd3d
000002b0: b2cb 9c3c 4638 9fbd e4e5 733e 6cbd 0ebe
000002c0: 548f 303d 208d aa3d 318b fe3c 0a90 b03e
000002d0: 9234 ed3d 5c21 903d 4944 ea3d ef10 65bc
000002e0: 225d b93c 2187 e83d a028 00be 34fd 3a3e
000002f0: e0bf 043d 8570 58be 8d5d eabd 8637 c93d
00000300: 407a 803e e8ec b5bd 95f4 96bd 81a0 8fbc
00000310: 2e1b aebc 1537 2a3d b160 193e 067b d1bd
00000320: 0bb9 853d 18d0 9d3d 9e15 633d ee51 913e
00000330: 8379 83bd 2676 113e e7ed 793c 6af2 30be
00000340: 4e48 11be 8888 d1bd b6af 62be 8edd 0abe
00000350: 26b2 353e 6cfa 7abc e813 23be 3c34 8c3c
00000360: 3c9c e63d 9204 1fbc e529 b13d 95c2 05bd
00000370: 93fe 813e 761d 4e3c 6bfe 3cbe ce0b 123b
00000380: 08c6 2c3e 6d03 80bd 1487 a1be e5f3 353e
00000390: de2e 0bbe 56ce d03c 0151 8fbe 244e 303e
000003a0: af75 e73d 1b2d 57be 41aa 06be b71c 013e
000003b0: f8f8 4dbe 1ef9 ddbd 8deb 3cbe 4e55 823e
000003c0: 6889 5c3e 611f ef3c 64c3 0c3e e8a2 5ebe
000003d0: 8d5a 8c3e 9d5a 7c3e e2ef 313e db0c a9bd
000003e0: d698 56be 415f 52bc 9f4d 033e d7bf dc3d
000003f0: e7ad 343e 68ef 2cbc 808f 6bbe a7f8 f03d

bias f4 [32]
-0.22704674 -0.16369776 0.09969645 0.1533048 -0.34663218 -0.2980148 -0.14843617 0.1221959
0.15086922 0.3010798 0.00025639863 -0.2130162 0.16117114 0.2319792 -0.05667558 -0.06358437
0.11128229 -0.009027989 -0.1910527 0.50371975 -0.06851763 0.16669427 0.3458766 0.26066977
-0.24730226 -0.26111332 0.2084063 -0.21960367 0.22151937 -0.31838027 -0.14559287 0.16932222
00000000: f17e 68be 63a0 27be a72d cc3d effb 1c3e
00000010: c679 b1be 6595 98be a7ff 17be d841 fa3d
00000020: 767d 1a3e 2227 9a3e 3e6d 8639 eb20 5abe
00000030: 0c0a 253e f58b 6d3e a724 68bd 8638 82bd
00000040: f8e7 e33d 21ea 13bc 52a3 43be c7f3 003f
00000050: f952 8cbd e7b1 2a3e bd16 b13e 8276 853e
00000060: ce3c 7dbe a5b0 85be 7668 553e c9df 60be
00000070: f9d5 623e bd02 a3be 4c16 15be ce62 2d3e

weight f4 [32, 32]
0.0017325239 0.05334874 -0.13067831 -0.08492188 0.09626253 -0.10093872 -0.010617388 -0.07255856
-0.05734602 0.10821588 0.0976933 0.049489237 0.12996732 0.12779093 0.220896 -0.09356141
0.1427532 -0.05300533 -0.17746118 0.19358048 -0.11108072 -0.041166447 0.17284362 0.10763789
-0.046523552 0.05752524 0.17360361 -0.16057737 0.1558472 -0.17241755 0.0644153 0.26936883
0.048374716 0.10346654 0.1724342 0.20982853 0.19458179 0.20609026 -0.02179524 -0.13515128
-0.041687924 -0.10010465 -0.052439433 -0.0655191 0.16330743 -0.15763298 -0.14665577 0.11586567
-0.10070242 -0.07241715 0.23214802 0.09482367 -0.22238554 -0.004650589 0.12722631 -0.122113846
-0.043179628 0.20209695 -0.15970567 0.06146481 0.06195825 0.005818954 -0.12515436 -0.11411541
0.14176936 0.17389366 0.04040083 -0.0735447 -0.12900443 -0.08362762 -0.040289674 -0.067576036
0.17519267 -0.040846888 0.023974199 -0.15529954 -0.19446728 0.08686119 0.21927102 -0.17219426
-0.07777611 -0.16803446 -0.037685726 -0.11772943 0.06890755 -0.06990613 0.013536835 0.1683296
-0.18021889 0.104917474 0.16563034 -0.22687453 -0.03924304 0.01902863 0.1337056 -0.075093545
-0.086567916 0.12842672 0.08673178 -0.053595684 -0.012326488 0.04347797 -0.11730895 0.01099092
0.03331168 -0.13226086 0.14353451 0.034788676 -0.20733193 0.10572082 0.11092413 -0.08311518
0.052015092 -0.10672081 -0.18245557 -0.05169772 -0.06306467 0.010070584 -0.04310865 0.018455245
-0.18861514 0.035483867 0.17615984 -0.22985 0.18248473 0.035942215 0.040272966 0.09381867
-0.054624833 -0.12826692 0.0678468 -0.027870053 -0.16741739 -0.057067662 0.050405834 0.13435806
0.038721588 -0.102644235 0.056621227 0.07205104 0.062295225 -0.08083557 -0.11363953 0.055072185
-0.063317016 -0.20930324 0.06415925 -0.12094279 -0.11784639 -0.0033483442 -0.01085495 -0.017036678
-0.18358782 -0.14194624 -0.098591 -0.05477821 -0.14552785 0.07103741 -0.13738216 0.029849913
0.003156182 -0.063470155 -0.07109446 -0.21082646 0.11095945 -0.13792463 -0.092300855 0.10632833
0.07052318 0.060299758 -0.09941833 0.0789887 -0.14232095 0.03648678 -0.06369314 0.11177003
0.015547781 -0.22179586 -0.061595496 0.2117541 0.07141241 0.17746224 0.15940854 0.20574401
-0.20724742 -0.047466192 0.06816474 -0.12995628 0.19974717 -0.16826846 -0.19277751 0.037977662
0.18671982 0.11311956 0.075580336 0.0433892 0.107411906 -0.12534009 -0.040133398 0.04011473
-0.18651572 -0.10371728 0.060781386 0.08164133 0.09565775 -0.13402085 -0.22006854 -0.10046
0.017321263 -0.11028488 -0.015417829 -0.07019061 0.00081110443 -0.005627769 -0.05967872 -0.13986038
0.1650127 0.051101137 0.098708466 0.117217205 0.05274941 -0.060804766 0.16023268 -0.16072746
0.047817808 -0.15600961 -0.05642529 -0.040465955 -0.09777128 0.055321716 0.033131376 -0.089317776
0.116152205 -0.010111085 0.1634835 0.005645459 0.21565282 0.14763324 -0.11734105 -0.06185167
0.16293406 0.18030618 0.08108434 -0.17377767 0.029919788 -0.16208054 -0.1378442 -0.09772403
0.20135197 0.15592416 -0.0721005 0.23035635 -0.028547578 0.06617725 -0.048808064 -0.17369461
00000000: db15 e33a 3584 5a3d 89d0 05be 86eb adbd
00000010: 4a25 c53d f6b8 cebd 8ef4 2dbc 9599 94bd
00000020: a9e3 6abd 4aa0 dd3d 6d13 c83d 3ab5 4a3d
00000030: 2716 053e a0db 023e 9032 623e 209d bfbd
00000040: e52d 123e 1e1c 59bd 62b8 35be f639 463e
00000050: 4a7e e3bd 269e 28bd ebfd 303e 4171 dc3d
00000060: 7b8f 3ebd 969f 6b3d 25c5 313e 656e 24be
00000070: 6996 1f3e 3a8e 30be 2bec 833d b6ea 893e
00000080: 9124 463d 44e6 d33d 9792 303e 4add 563e
00000090: 7340 473e 5309 533e ee8b b2bc 1965 0abe
000000a0: f5c0 2abd ab03 cdbd bbca 56bd e12e 86bd
000000b0: 103a 273e 8a6a 21be ee2c 16be fb4a ed3d
000000c0: 123d cebd 714f 94bd 36b8 6d3e ea32 c23d
000000d0: 09b9 63be f863 98bb 9d47 023e d316 fabd
000000e0: 1fdd 30bd 81f2 4e3e e289 23be 86c2 7b3d
000000f0: efc7 7d3d edac be3b 7728 00be 57b5 e9bd
00000100: fd2b 113e 2e11 323e 577b 253d 9b9e 96bd
00000110: bd19 04be f544 abbd c906 25bd 4e65 8abd
00000120: b565 333e 114f 27bd 8a65 c43c d806 1fbe
00000130: 6e22 47be 48e4 b13d 9588 603e b153 30be
00000140: 1549 9fbd 3a11 2cbe 595c 1abd 211c f1bd
00000150: 671f 8d3d f22a 8fbd 9ac9 5d3c 985e 2c3e
00000160: 4d8b 38be f9de d63d 009b 293e cc51 68be
00000170: 4fbd 20bd eee1 9b3c 1fea 083e a5ca 99bd
00000180: 854a b1bd 4b82 033e 6ea0 b13d 2687 5bbd
00000190: 0af5 49bc f515 323d ad3f f0bd 4213 343c
000001a0: d471 083d 646f 07be b6fa 123e 927e 0e3d
000001b0: d24e 54be 2884 d83d 312c e33d 4b38 aabd
000001c0: c70d 553d 7190 dabd a2d5 3abe fdc0 53bd
000001d0: 0d28 81bd 17ff 243c b292 30bd 742f 973c
000001e0: 5424 41be 8857 113d 3f63 343e cc5d 6bbe
000001f0: 47dd 3a3e 2538 133d 44f5 243d 0124 c03d
00000200: 4abe 5fbd 6758 03be 43f3 8a3d bd4f e4bc
00000210: 776f 2bbe c8bf 69bd 5976 4e3d 2995 093e
00000220: 879a 1e3d 2437 d2bd a9eb 673d 7f8f 933d
00000230: 4729 7f3d 1f8d a5bd d8bb e8bd 5f93 613d
00000240: 5aac 81bd 9753 56be ed65 833d dab0 f7bd
00000250: 7359 f1bd e56f 5bbb f6d8 31bc 8190 8bbc
00000260: 72fe 3bbe 5b5a 11be 14ea c9bd 1e5f 60bd
00000270: 4105 15be 107c 913d e9ad 0cbe ce87 f43c
00000280: f2d7 4e3b a4fc 81bd f999 91bd e4e2 57be
00000290: b53e e33d 1d3c 0dbe 3b08 bdbd abc2 d93d
000002a0: 756e 903d e1fc 763d d69b cbbd d4c4 a13d
000002b0: 95bc 11be 2973 153d 8d71 82bd afe7 e43d
000002c0: 1fbc 7e3c 741e 63be 8f4b 7cbd 11d6 583e
000002d0: ab40 923d a9b8 353e fe3b 233e 8fae 523e
000002e0: ab38 54be e96b 42bd f599 8b3d 4213 05be
000002f0: 868a 4c3e 914e 2cbe 7867 45be 778e 1b3d
00000300: 7b33 3f3e 3aab e73d ddc9 9a3d e0b8 313d
00000310: c6fa db3d 2759 00be eb62 24bd 584f 243d
00000320: fafd 3ebe ba69 d4bd e7f5 783d 9233 a73d
00000330: 36e8 c33d c33c 09be a659 61be f9bd cdbd
00000340: 52e5 8d3c 0add e1bd 109b 7cbc 18c0 8fbd
00000350: 4ca0 543a 2669 b8bb ac71 74bd 8f37 0fbe
00000360: 17f9 283e 6d4f 513d aa27 ca3d 930f f03d
00000370: c40f 583d 6b0e 79bd 0914 243e bd95 24be
00000380: 9bdc 433d fcc0 1fbe 341e 67bd a1bf 25bd
00000390: 4f3c c8bd 0699 623d c4b4 073d 3dec b6bd
000003a0: 35e1 ed3d f7a8 25bc 3868 273e 8bfd b83b
000003b0: 18d4 5c3e 2b2d 173e 8150 f0bd 2d58 7dbd
000003c0: 30d8 263e 2fa2 383e 8c0f a63d c6f2 31be
000003d0: 581a f53c 71f8 25be 0827 0dbe 8923 c8bd
000003e0: 362f 4e3e 95aa 1f3e 6da9 93bd 89e2 6b3e
000003f0: 9cdc e9bc f087 873d f7ea 47bd 00dd 31be

bias f4 [32]
0.15528493 -0.16671832 0.17183599 0.12673073 0.16397849 0.11690104 0.031238487 -0.13860753
-0.20232299 -0.1977485 0.034906197 0.04573702 0.1344227 -0.18454133 -0.025465406 -0.11513948
-0.061553795 -0.110761106 0.12957177 -0.010242305 -0.14018239 0.0064173406 0.06032213 -0.031171711
-0.016248383 0.19660358 -0.18138205 0.06275201 0.07687441 0.08779931 0.06669082 -0.096637875
00000000: 0303 1f3e 35b8 2abe c6f5 2f3e b3c5 013e
00000010: fae9 273e d069 ef3d dbe7 ff3c 22ef 0dbe
00000020: c22d 4fbe 957e 4abe cdf9 0e3d be56 3b3d
00000030: 1ba6 093e 67f8 3cbe d49c d0bc 3fce ebbd
00000040: d51f 7cbd b8d6 e2bd 76ae 043e 57cf 27bc
00000050: f98b 0fbe 8e48 d23b 5614 773d d15b ffbc
00000060: 541b 85bc 7352 493e 37bc 39be 2084 803d
00000070: 5570 9d3d 20d0 b33d 3295 883d 14ea c5bd

weight f4 [1, 32]
-0.22052199 0.21553302 -0.16105875 -0.16678996 -0.020686913 -0.10902947 0.04260802 0.100021124
0.06633166 0.12664032 0.07616281 0.12801892 -0.002298053 0.21844795 -0.15257819 -0.12090424
-0.16557091 0.19213413 -0.10896841 -0.18486665 0.26026353 -0.09296812 -0.1382885 0.16242322
-0.1556429 -0.22519667 0.10279892 0.1087009 0.20679049 -0.10207727 0.13405 -0.11686943
00000000: 84d0 61be b0b4 5c3e 96ec 24be fdca 2abe
00000010: 9a77 a9bc d84a dfbd bf85 2e3d e0d7 cc3d
00000020: e5d8 873d 00ae 013e 3ffb 9b3d 6417 033e
00000030: ee9a 16bb d2b0 5f3e 753d 1cbe a49c f7bd
00000040: 6c8b 29be cfbe 443e d42a dfbd af4d 3dbe
00000050: 4341 853e 1266 bebd 809b 0dbe 4652 263e
00000060: da60 1fbe f599 66be 3d88 d23d 949e de3d
00000070: e3c0 533e e30d d1bd 6744 093e 3d59 efbd
