alanine/models/model_3_z.pt (torch, 28029 bytes, 6 tensors)

mass f4 [30]
00000000: 0e2d 4041 0e2d 4041 0e2d 4041 0e2d 4041
00000010: 0e2d 4041 0e2d 4041 e7fb 7f41 e7fb 7f41
00000020: e7fb 7f41 ac1c 6041 ac1c 6041 ac1c 6041
00000030: 0e2d 4041 0e2d 4041 0e2d 4041 0e2d 4041
00000040: 0e2d 4041 0e2d 4041 0e2d 4041 0e2d 4041
00000050: 0e2d 4041 e7fb 7f41 e7fb 7f41 e7fb 7f41
00000060: ac1c 6041 ac1c 6041 ac1c 6041 0e2d 4041
00000070: 0e2d 4041 0e2d 4041
12.011 12.011 12.011 12.011 12.011 12.011 15.999 15.999
15.999 14.007 14.007 14.007 12.011 12.011 12.011 12.011
12.011 12.011 12.011 12.011 12.011 15.999 15.999 15.999
14.007 14.007 14.007 12.011 12.011 12.011

weight f4 [32, 45]
00000000: 0950 a5bd 73d2 95bd 9ba5 c3bd bf79 42bd
00000010: b902 133a 036a 373d 4ec9 253e de40 1f3e
00000020: ed51 0abe 7cc1 a5bd f67d 40bd 3a20 cdbd
00000030: f695 2f3e d07a 1f3e 0925 2d3c e824 863d
00000040: 11a7 bcbd b3ca c63d b2b4 92be d156 843e
00000050: 1d1f d2bd 11bc 1e3e 4059 1fbc 779d 593c
00000060: 9a49 9d3e 5b96 98be e1bf 033e 74a2 5bbe
00000070: cd3b 1bbd 6ecf 0cbe e497 cabd 7ab6 b93c
00000080: db84 47bc 48b8 e93c 26e8 d23d 9bb2 373d
00000090: 6b50 ba3d b983 18be 51cd 3fbd df09 80bc
000000a0: acb4 2d3e 2c20 7fbd e5dd 17bc 916c c4bc
000000b0: f3ad 163e 73fa e23d d30e ab3a 4481 d8bd
000000c0: 77bb 293e 3f35 2abd 1edd cd3d 1310 f33c
000000d0: 12a1 06be a5a4 c5bc 8a26 ed3c 8c17 703e
000000e0: 61f2 f3bd b45c 59bc 9fcc a43d 8ae8 0039
000000f0: fb64 0cbe 01f4 923d 3e3b 3dbb 75ee 9cbe
00000100: d3d0 3f3e 5896 b23b a76b 053e b89d 053e
00000110: 935e 913d c17e 983e 036c d8bd 2df1 e33d
00000120: ca8d 24be fb4c 06be d8e2 603c 8daf 07be
00000130: 8ef2 ff3d 6b98 193e b83b 81bb 32bf 2c3d
00000140: e1e2 823d 8872 dbbc 33e7 e13c 5caf 0bbe
00000150: fecb 243e 7485 293e c13e 2dbc 2447 823d
00000160: 6139 e4bd c862 ddbd 9ab5 1c3e 456e c53d
00000170: 18ee 09bd 29bb babc b689 643e 8f06 28bd
00000180: 9db9 d93d c6c6 3c3c 2405 bdbd 866b 5a3e
00000190: 28bb ae3b 46fa e23d 06e0 d93d 87df a6bb
000001a0: cee7 b83d 17c9 4fbd 29af 46bd db13 523c
000001b0: 4f15 e23e dd88 ddbd e2a4 cabd 4421 31be
000001c0: 665d 92be bc50 8abe 37e6 d4be 204a 8a3e
000001d0: 730e 4d3e 8508 c53d 4066 2c3e 14a1 f43d
000001e0: 8985 df3d 6d59 aabd 15ec c9bd 6f0d b63b
000001f0: f863 003e cf98 d43d bd3b 103d 9d77 143e
00000200: 129f 97bc 7b48 c7bd 57e1 0c3e 5aed 1c3e
00000210: ad25 143d fad3 d73c 0572 5fbd 6629 083e
00000220: 0485 1c3c 471a 853d c6bf 203e 2b70 2cbe
00000230: a687 dbbd b56d 303d 1be1 37bd 2d3b 19be
00000240: 03e1 45bd a5ab 463d d676 dabd 48b4 663c
00000250: 28c7 d539 3188 a03d ab5d b4bd e559 2c3d
00000260: e081 d13d 2b05 d0be 8b9f 903e 56e9 c93d
00000270: 697a b03d 10c7 0f3e 1767 d43d 9575 be3e
00000280: 8f01 6ebe 3bd8 ac3d e3b8 1ebe d79f a0bd
00000290: 600b 8e3d e1bd 923d 4a20 573e 5f36 5c3e
000002a0: acff 8e3d 762e 29bd 2c13 1f3d 2c8a 8e3d
000002b0: a129 243d 287b 553d 4b7a 5bbd 861a f6bd
000002c0: 07df dcbd 8a95 29be fe97 d0bc 120f c23c
000002d0: 376b babc 13a0 65bd 599a e43d 4612 8d3b
000002e0: ecb2 a9bc cb7e d43c bd62 aa3d 5fa5 15be
000002f0: d2cf cd3d 2e83 0cbd e90a 583d 0f3d 9d3d
00000300: 44bb 30be c0ab e0bb 7954 64bd e9e2 08be
00000310: 6793 523d e621 76bd c210 d93e 325f a2be
00000320: 8b00 873d f2e8 07be 870d 58be 2cb7 12be
00000330: a547 5dbe c141 863e 66f7 ff3d da45 7e3e
00000340: e445 3cbd a0cc 9bbb 8300 033e 44aa 5bbe
00000350: d68c 1dbe 863b b4bd aeef 98bc bfc2 ff3d
00000360: 60d8 263d b222 ee3d 63ac 5c3c 9b3d b0bd
00000370: f680 913d 09f4 da3d 1344 d43d 1d9b 02be
00000380: 8a15 babd daa9 cc3c 28a9 a63d 2d16 22be
00000390: a990 343e b0d4 d6bc fef9 b43d aeff 8fbb
000003a0: 7bdd 12bd 5e85 19bd d50a e13d 859a bd3d
000003b0: e18a 69be c37e db3d f19c 023e c495 083e
000003c0: 85bc 2abe add1 7c3b fa6c b33d 1ff4 fcbe
000003d0: e5a2 923e e208 11be 77d6 493e 92fd 783c
000003e0: 2d34 06bd 286c 073f 055c a2be 7109 1f3d
000003f0: e40c 4ebe d726 38be 1186 46be 431f 8dbd
-0.08071906 -0.07315531 -0.09553071 -0.047479387 0.00056080107 0.044778835 0.16190073 0.15552089
-0.13507815 -0.08093545 -0.046995126 -0.10015912 0.1714705 0.15574193 0.010567912 0.06550008
-0.09211553 0.097066306 -0.28653485 0.25847486 -0.10259841 0.15501429 -0.009725869 0.013282171
0.30720216 -0.29802212 0.12866165 -0.2144869 -0.037898827 -0.13751003 -0.09892252 0.02267002
-0.012177671 0.028530255 0.10298185 0.044848066 0.0909737 -0.14893998 -0.046826664 -0.015629707
0.16963452 -0.06228654 -0.009269212 -0.02397755 0.14714794 0.11082926 0.0013050683 -0.105715305
0.16575418 -0.041554686 0.100519404 0.02967075 -0.13147381 -0.02412636 0.02894904 0.23446482
-0.119114645 -0.013266731 0.08046841 0.00012293659 -0.13710396 0.07175446 -0.0028874422 -0.30650678
0.18732004 0.0054500513 0.13029347 0.13048446 0.07098117 0.29784206 -0.105674766 0.11129985
-0.16069713 -0.13115303 0.013725959 -0.13250561 0.124974355 0.14999549 -0.0039438866 0.042174526
0.0639093 -0.026788011 0.027576065 -0.13641113 0.16093442 0.16554815 -0.010574044 0.06361225
-0.11143757 -0.10809857 0.1530365 0.09640173 -0.03367433 -0.022794323 0.22318158 -0.04102188
0.10631106 0.011522001 -0.09229496 0.2133008 0.0053323694 0.11082892 0.10638432 -0.0050925645
0.09028588 -0.050728884 -0.04850689 0.012822117 0.44156882 -0.1081712 -0.0989473 -0.17297846
-0.28586882 -0.2701472 -0.4158189 0.27009678 0.20025043 0.096207656 0.1683588 0.11944786
0.10914142 -0.08317838 -0.09859482 0.0055558006 0.12538135 0.103807084 0.03521322 0.14498754
-0.018508468 -0.097306214 0.13757835 0.15324917 0.036168743 0.026346195 -0.054552097 0.13297042
0.009553198 0.06499153 0.15698156 -0.16839664 -0.10719232 0.043073375 -0.04489241 -0.1496398
-0.04831029 0.048503537 -0.106671974 0.014081068 0.0004077491 0.078384764 -0.08806928 0.042077918
0.1022985 -0.40628943 0.28246722 0.098589584 0.08617098 0.1404078 0.10371225 0.37199083
-0.23242782 0.0843968 -0.15500216 -0.07842987 0.06935763 0.07165123 0.21008411 0.21505116
0.06982359 -0.041304074 0.038836643 0.06959948 0.040078763 0.052119404 -0.053583425 -0.12016778
-0.107847266 -0.16560951 -0.0254631 0.023688827 -0.022756202 -0.05606086 0.11162252 0.004305157
-0.0207152 0.025939366 0.08319614 -0.14613865 0.10049404 -0.03430479 0.05274478 0.07677662
-0.17258936 -0.0068564117 -0.055744622 -0.1336781 0.051410105 -0.06009092 0.42395598 -0.31713253
0.065919004 -0.13272455 -0.2109891 -0.14327687 -0.21609361 0.2622204 0.124983594 0.24831334
-0.04596509 -0.004754618 0.12793164 -0.2145167 -0.15385756 -0.08800416 -0.018668976 0.12488317
0.040733695 0.11627711 0.013468835 -0.086055 0.071046755 0.10691077 0.103645466 -0.12754484
-0.090861395 0.024983335 0.08137733 -0.15828772 0.17633308 -0.026224464 0.08836745 -0.004394493
-0.03585575 -0.037480704 0.10988394 0.09257988 -0.22806884 0.10717537 0.12755181 0.13338381
-0.16673477 0.0038577125 0.0876102 -0.49405 0.28639904 -0.14163545 0.19710718 0.015197175
-0.032764602 0.5289941 -0.3171083 0.038827363 -0.20122105 -0.17983566 -0.1938708 -0.06890728

bias f4 [32]
00000000: 8530 80bc c004 a0bc 78b0 2e3d a8a6 ba3d
00000010: 5d7c 0c3e aba4 fa3d 730e 583c ca6a 31bc
00000020: 335b 923b 9c1f 74bd 25ff 95bd 8e67 8fbd
00000030: a4cb d9bc 43ae 05bc 8d4d 8bbd ec25 0e3c
00000040: 8e7a b0bd 4a96 d33c ae14 363d e56f d6bc
00000050: 8d46 ca3d 1ac7 393d 15ef a6bd 2fc8 2abd
00000060: f9f5 9c3d e1ff 873d 0a8c a2bd 42c6 eebc
00000070: dad6 8fbd 6ac0 73bd 177e c8bd 7bf4 33bc
-0.015648136 -0.019533515 0.042648762 0.091138184 0.13719316 0.12238439 0.013187039 -0.010828683
0.004466438 -0.059600458 -0.073240556 -0.07002173 -0.026586361 -0.008159223 -0.06801901 0.0086760335
-0.086171255 0.0258285 0.044453315 -0.026176402 0.09876738 0.045355894 -0.0815107 -0.041694816
0.07664103 0.06640602 -0.079368666 -0.029147271 -0.070234016 -0.059509672 -0.09789675 -0.010983582

weight f4 [32, 32]
00000000: da50 63be 8e61 fc3e f6c1 a2be 2bd1 863e
00000010: 5443 273c 20bb d6bd 8baa 00bf f01d 9abe
00000020: c94a 813d b46b 91be 0947 c4be 89d0 f03d
00000030: b029 dbbd 11bf a7be 5781 1e3e 8407 87be
00000040: 16c9 ce3e 42f5 353f a8d8 62be fafb 473e
00000050: 6ce8 edbc c1c5 86bd 1689 12bf e99d f03d
00000060: 5ffa dfbe c890 303e 9bfe 013f 61d2 863e
00000070: a02b 2bbe 1836 f4be f3a5 d8be a48a 38be
00000080: a70b af3d bbb3 e6be 09de cd3e 7bc4 c0be
00000090: 502e 973e eb1d 50be aacf 743f ee5c 893e
000000a0: 87a9 933e 5180 3e3e 11aa dc3e 0383 b03d
000000b0: 4077 aabd f42f 933e d38c 5bbe cd17 923e
000000c0: de58 0fbf 2d5e 18bf 4421 8b3e 98c8 6cbe
000000d0: 4885 11be 3bc8 e83e f704 5d3f c50f 89be
000000e0: 25ab 2e3f 9257 30bf 92ba c9be ac74 b3be
000000f0: 2c9b 0b3e 80fb f33e 539d 393f 9b3a c23e
00000100: adb8 db3d 4f27 163f 4ad3 b9be b860 bb3e
00000110: 06ab cfbd 6770 a63e 4f1d 00bf 416a 25be
00000120: 8564 76be 5944 6fbe 08ed 11be c1d9 dc3d
00000130: f5ce 24bc 52e0 8ebe d0b3 3f3e e948 bcbe
00000140: a06f ca3e f83c 363f 01d3 c4be d0a5 153e
00000150: 2769 c8bc 724f 28be 2f89 64bf 8194 473d
00000160: ba59 cabe 1b68 163e 3fa8 b83e 18c6 013f
00000170: 01dd 4b3d ae61 89be 0382 0abf d5b3 4dbe
00000180: d86a 1e3e b6e4 12bf 1538 c83e 255c 0dbf
00000190: 3364 dbbd 2a4f 7abe f25a 503f 04dc da3b
000001a0: 36e5 b43d bc9b 973e 81dc 473e 4097 883d
000001b0: b89e 65bc 60ab c03e 18ed 73be 5037 293e
000001c0: 9ae3 71be 3e62 1ebf 9124 b83e b16e d9be
000001d0: 2bf1 253e e8bc 963e 7051 253f 60ad 9ebe
000001e0: 54db 3a3f 72a7 02bf 7f89 d9be 6b3b ddbe
000001f0: 1944 8c3c 2599 073f 415c ec3e 1779 7a3e
00000200: 2955 a33d 8bf0 e93e f617 19bf 99d8 8d3e
00000210: 6a46 36be 6b55 6bbd 47d9 43bf 5f16 9cbe
00000220: 6e58 88bd 871c 5bbd 60ee 9dbe 85e4 f03d
00000230: ecd4 08be 84cb f3be 29ca d43e bab7 bebe
00000240: b386 293f 9e08 273f 1b3d cdbe 0e61 6e3e
00000250: cb7a b73d 4966 d0be 7239 51bf e583 633d
00000260: 233a 4abf 57f2 b13e 17b0 dd3e e395 e33e
00000270: a626 e63d 75bc 12bf 8905 01bf ee2a 50be
00000280: 5ea0 8d3d e831 af3e 480c bbbe 28d2 d43e
00000290: 450d 2e3d 4a5a bd3d 9b62 3ebf 6eaf 1bbe
000002a0: 69ee 003d 3e6a 2bbe e188 d3bd 0344 47be
000002b0: a300 edbd bacf 8dbe 333c 7e3e c8ef 26be
000002c0: d9d0 ff3e 813e 2e3f d192 f3be 8b7e bc3e
000002d0: 4bd4 253e d220 adbe 4446 56bf 63ad 8a3e
000002e0: 8016 34bf e4cd f73e 9067 6e3e 1b6c 163f
000002f0: 5ace 5bbe 50be 15bf b411 babe e981 3abe
00000300: 6724 2d3d 315c 053f b410 18bf b030 003f
00000310: d899 bfbd 7d42 ffbd 1f6d 21bf c951 9cbe
00000320: f10d c5bb a07e 36be 2509 a8bd 0ba2 1f3e
00000330: db6f 8cbd 4164 cbbe a99d 2f3e b559 8fbe
00000340: 9049 f83e 9487 c53e 127b 4dbe 2836 683e
00000350: c1b3 82bd 01c3 64be 9740 1bbf 06aa 0d3e
00000360: 77e1 00bf b58e 8d3e 255b 773e 3703 a93e
00000370: 9268 36bd c9fa c3be 7ace d1be 20d6 8abe
00000380: 0267 0b3e 3a36 1d3f 938a f4be 0d41 ad3e
00000390: 05b5 3dbe 1605 cd3e d7e5 25bf 3912 c6bd
000003a0: 62cb 5ebe 9440 3fbe d527 4bbe f884 c5bd
000003b0: 4e95 023d d4be cabe 0220 173e 8372 7bbe
000003c0: f274 123f 3f80 3f3f a7ff d9be 986a 733e
000003d0: e8e6 f63c f338 c9be 229d 4cbf 6a27 833e
000003e0: 110f 1bbf 6519 cc3e 08ab 4d3e 651b 193f
000003f0: 7fff 7bbd 1a8d babe f0a3 02bf 4dca abbe
-0.22198811 0.49293178 -0.31788605 0.26331457 0.010208923 -0.1048491 -0.5026023 -0.30100965
0.06313092 -0.28402483 -0.38335446 0.11758525 -0.10701311 -0.3276296 0.15479027 -0.2637292
0.4038779 0.7107736 -0.2215296 0.19529715 -0.029041491 -0.06580687 -0.57240427 0.11748869
-0.43745705 0.1724273 0.5077912 0.2633238 -0.1671586 -0.4769752 -0.4231411 -0.18021637
0.085471444 -0.45058998 0.40208462 -0.37649903 0.2952752 -0.20323913 0.9562937 0.26828712
0.28840277 0.18603636 0.430985 0.086187385 -0.083235264 0.28747523 -0.21440439 0.28533784
-0.55994976 -0.595187 0.27173817 -0.23123395 -0.14210999 0.45465264 0.863357 -0.26769844
0.68229896 -0.6888362 -0.39400154 -0.3504995 0.13633412 0.47652817 0.7250568 0.37935337
0.107285835 0.5865373 -0.36294013 0.36597228 -0.10140042 0.3250763 -0.5004472 -0.16153814
-0.24061783 -0.23365916 -0.14250576 0.10783721 -0.010059108 -0.27905518 0.18720937 -0.36774376
0.39538288 0.7118678 -0.38442233 0.14614034 -0.024464203 -0.16436556 -0.89271826 0.04872561
-0.3952158 0.1468815 0.36065862 0.5069289 0.049771313 -0.26832336 -0.5410463 -0.20088132
0.15470445 -0.57380235 0.39105287 -0.55218726 -0.10712471 -0.24444261 0.8138877 0.00667906
0.08832781 0.29611003 0.1951771 0.06669474 -0.014014892 0.3763075 -0.23820913 0.16525006
-0.2362198 -0.61868656 0.35965398 -0.42467263 0.1620528 0.29441 0.6457739 -0.3099165
0.7299092 -0.5103675 -0.42487714 -0.43209395 0.017122315 0.52968055 0.46164134 0.24460255
0.079752274 0.45691332 -0.59802186 0.27704313 -0.17800298 -0.057454508 -0.76503414 -0.30485818
-0.066574916 -0.053494003 -0.30845928 0.11762337 -0.13362473 -0.47616208 0.41560486 -0.37249547
0.6622116 0.65247524 -0.40085682 0.23279211 0.08958968 -0.40703037 -0.8172828 0.055545706
-0.7899496 0.34755203 0.43298408 0.44450292 0.1123784 -0.5731881 -0.5039907 -0.20328876
0.06915353 0.34217763 -0.36532807 0.41566586 0.042493124 0.09245737 -0.7436921 -0.1520364
0.031477366 -0.16739747 -0.10328842 -0.19459538 -0.11572387 -0.27697545 0.24827652 -0.16302407
0.49964026 0.68064123 -0.4757295 0.36815295 0.16194265 -0.33814102 -0.83700967 0.2708541
-0.7034683 0.4839927 0.23281693 0.58758706 -0.21465436 -0.5849352 -0.3634163 -0.1821362
0.042271044 0.520938 -0.59400487 0.5007429 -0.09355515 -0.124638535 -0.6305713 -0.30531147
-0.006013625 -0.17821741 -0.08204869 0.15589158 -0.06857272 -0.39724925 0.17149986 -0.2799813
0.48493624 0.3858 -0.20066479 0.22676909 -0.063819416 -0.22340013 -0.6064543 0.1383439
-0.5034403 0.2764794 0.24155863 0.33010265 -0.04453332 -0.3827727 -0.40977842 -0.2711649
0.13613513 0.6141087 -0.47761974 0.33838692 -0.18526085 0.40042943 -0.6480383 -0.096714444
-0.21757272 -0.18676978 -0.19839413 -0.096445024 0.03188067 -0.39598715 0.14758304 -0.24555402
0.57209694 0.74805063 -0.4257786 0.23771131 0.030139402 -0.3930126 -0.79927266 0.25616008
-0.60569865 0.39863124 0.20084774 0.59807426 -0.061522957 -0.36435777 -0.510314 -0.3355278

bias f4 [32]
00000000: 37cd 95bd cab8 7d3d 2868 a63c b922 733d
00000010: 7082 b63d e6d0 873d 34a2 393d 737d ee3d
00000020: db50 2a3c a61a aa3d 01c5 ff3d 9515 e9bc
00000030: 8199 d93b 4b1d 1dbe 40cd a63d 7f0f 8bbd
00000040: bf84 9cbd 328e 94bd cfcd afbd e1d2 7bbc
00000050: 6660 f7bd 742a c73c a391 aebc 65c2 c0bd
00000060: c333 5bbd a654 7fbd 673c 04be 0849 563d
00000070: 0275 413b fa71 fe3d 622a 3e3c 35b2 a83d
-0.07314532 0.061943807 0.020313337 0.059359286 0.08911598 0.06631641 0.045320705 0.11645021
0.010395254 0.08305864 0.124887474 -0.028452674 0.0066406135 -0.15343206 0.08144617 -0.06790065
-0.07642507 -0.07253684 -0.08584177 -0.015370102 -0.120789334 0.024312235 -0.02130968 -0.09412078
-0.05351616 -0.062336586 -0.12913667 0.05231574 0.0029519205 0.12424083 0.011606785 0.08237115

weight f4 [1, 32]
00000000: 6a14 90bf 0883 873f 4910 59bf 9af2 a53f
00000010: 7d4d 9fbf 073b 53bf 103b 8bbf afb6 2abf
00000020: b72e 7cbf 4c55 843f f4ce 8dbf 47e6 9b3f
00000030: 7fbd 873f d008 59bf 86f0 5e3f 114b 9e3f
00000040: a224 81bf 9c0c 953f eda9 90bf ca49 b9bf
00000050: e017 983f 3f2c 8dbf 94a7 4fbf 6063 83bf
00000060: 262c acbf 0d43 ac3f f850 70bf e7aa acbf
00000070: 8a98 adbf e2de 7b3f 757b b2bf 2368 4bbf
-1.125623 1.0586863 -0.84790474 1.2964661 -1.2445523 -0.82511944 -1.08774 -0.66685003
-0.9850878 1.033853 -1.1078782 1.217965 1.0604705 -0.8477907 0.8708576 1.2366658
-1.0089304 1.1644473 -1.1301857 -1.4475644 1.1882286 -1.1029128 -0.8111508 -1.0264702
-1.3450973 1.3457962 -0.9387355 -1.3489655 -1.3562176 0.9838697 -1.3943926 -0.79455775
