alanine/models/model_4_q.pt (torch, 30627 bytes, 6 tensors)

mass f4 [30]
00000000: 0e2d 4041 0e2d 4041 0e2d 4041 0e2d 4041
00000010: 0e2d 4041 0e2d 4041 e7fb 7f41 e7fb 7f41
00000020: e7fb 7f41 ac1c 6041 ac1c 6041 ac1c 6041
00000030: 0e2d 4041 0e2d 4041 0e2d 4041 0e2d 4041
00000040: 0e2d 4041 0e2d 4041 0e2d 4041 0e2d 4041
00000050: 0e2d 4041 e7fb 7f41 e7fb 7f41 e7fb 7f41
00000060: ac1c 6041 ac1c 6041 ac1c 6041 0e2d 4041
00000070: 0e2d 4041 0e2d 4041
12.011 12.011 12.011 12.011 12.011 12.011 15.999 15.999
15.999 14.007 14.007 14.007 12.011 12.011 12.011 12.011
12.011 12.011 12.011 12.011 12.011 15.999 15.999 15.999
14.007 14.007 14.007 12.011 12.011 12.011

weight f4 [32, 45]
00000000: 7daa a3bd 999d 82bd edcf d5bd a7ed 77bd
00000010: 5c91 72ba baa9 0e3d 55cb 193e 34ff 1a3e
00000020: 23f6 11be 667b bcbd b837 87bd e647 dbbd
00000030: 4658 363e aebe 1d3e c93f 273c 3254 933d
00000040: f878 babd e134 923d 4cdf 95be 1d17 863e
00000050: 3220 e2bd a673 1e3e ec76 cb3b beaf da3c
00000060: 3461 8e3e 32c6 a9be fd72 083e 06d5 51be
00000070: 2534 37bd 2dfe 15be c655 e5bd 3938 5f3c
00000080: 225c 2abd 20c8 d83c ed08 c53d 7d55 cb3c
00000090: a355 ca3d 13c1 2abe e838 30bd 3356 0abd
000000a0: 0ff7 2a3e e1b2 97bd a0b9 38bc ce20 01bd
000000b0: be33 103e f78f f23d 46c8 eb3c 9184 cbbd
000000c0: 54ab fa3d e128 b8bc 4308 b33d d9dc e33c
000000d0: 5ae6 13be 01e0 01bd 7fb5 f03c bb40 633e
000000e0: e586 02be 030b 523c 00db 7f3d b1a5 39ba
000000f0: d747 21be 42dc 5e3d 5d0f 41bd 4dc9 8fbe
00000100: bc93 5d3e 02b8 22bd 2cf9 f53d 8653 f73d
00000110: b1f8 aa3d e003 9a3e eab7 2cbe 9094 003e
00000120: 75cb 11be 5ec1 0cbe 4f63 10bb 1f5c 10be
00000130: 5a74 113e aad0 fa3d 0c33 99bb 7257 c93c
00000140: c496 573c 8e42 e4bb f9da 173c f090 ddbd
00000150: e966 073e dc42 343e c3bd b8bc 19b5 8b3d
00000160: eef0 e0bd 13ec dabd 41c7 ee3d 709b 293d
00000170: ddcd 91bd 7bb3 94bc 1995 383e 4fce 4dbd
00000180: b0b8 8a3d d7fe e23c e069 afbd 84fb 393e
00000190: e713 adbc 5297 b83d 0863 183d a540 163c
000001a0: 12e2 873d 71d4 06bc d67c a0bc a9f1 863c
000001b0: 0151 cd3e f58c 51be 664f 0cbd c20c 27be
000001c0: 99b2 5abe 99bd 68be f767 f1be 1884 983e
000001d0: fbdb 273e d5a5 263d a9fc 223e dec9 e73d
000001e0: 4b1a a13d 0cdf 0dbe 0bed e5bd 4262 16bd
000001f0: e4d9 d13d 8dcd f83d 4644 acba 4ce0 053e
00000200: 6fa3 88bd 763e d3bd 5560 cd3d a0f6 053e
00000210: 336c f73b ed2a 003a 6b16 b2bd 702c 0f3e
00000220: 78cf 0e3d ed62 943d 8ae0 fa3d a4ab 26be
00000230: d8de f4bd c3ca 263d 3f54 75bd 5b56 25be
00000240: 8eb2 47bd 928d 2d3d d7b0 f1bd 0966 063d
00000250: 8b48 89bc f610 9d3d 27a0 d9bd 4b16 d03c
00000260: dcf4 823d eef3 cdbe c390 9e3e 718d 6e3d
00000270: f20a 9f3d 440f 0c3e 1355 f13d 05b3 cd3e
00000280: 2284 94be 0aa9 b73d eef0 1bbe 5f5f a9bd
00000290: 1c4e 583d 506e a33d 65e4 6d3e bc57 493e
000002a0: c538 9b3d fe65 56bd 2b26 13bc 4dca ac3d
000002b0: 6981 8b3c a8dc 883d 3c1c a0bd 1e59 e5bd
000002c0: d46a ecbd 8209 2bbe ca7c d6bc 20bd c93c
000002d0: ba8a 1bbd a85d aebd 7010 c33d 4145 bb3c
000002e0: 5e47 12bd ec77 ca3c d54a 923d 245c 11be
000002f0: c5d7 cd3d 9b2a 38bd 0097 3e3d bb51 9f3d
00000300: 9257 4cbe 31b5 eaba a01f 86bd 71c4 fdbd
00000310: 7305 6e3d 51d0 2abd 01d0 d13e 7294 b4be
00000320: 77cc bb3d 83ce 09be 5fca 53be 9d0d 1ebe
00000330: 69f7 7dbe f767 963e 0fb2 e33d 241d 6f3e
00000340: 3a68 4fbd 78f2 ecba 48ff ec3d 3d34 75be
00000350: e087 1abe 246a ccbd 45d3 98bc 615e 183e
00000360: 1a5a ab3c 279e f73d 8c7c 05bc 6898 9dbd
00000370: 06c5 663d 7fd2 d13d f4f3 c43d 4cf0 09be
00000380: b169 d1bd 1f86 133d e16c de3d e57f 16be
00000390: e4be 1c3e 153a 9bbc 68df ae3d 6a4d 7a3a
000003a0: 2527 37bd 0b21 30bd 5338 eb3d 3fd3 bf3d
000003b0: 240d 70be a4c8 013e 429d f73d a5d8 0f3e
000003c0: 3e21 34be 0e48 99bb be59 7c3d f25d fbbe
000003d0: f87b a03e b3ed 2abe 717e 503e be6c b13c
000003e0: f83d 50bc d421 103f b867 b9be a996 3f3d
000003f0: bcb3 4bbe b6d4 36be c686 50be fa76 61bd
-0.079915024 -0.063777156 -0.10440049 -0.060529377 -0.00092532276 0.034829833 0.15018971 0.15136415
-0.1425405 -0.09203224 -0.066024244 -0.10707073 0.17807111 0.1540477 0.010208079 0.07193793
-0.09105104 0.07138992 -0.29271924 0.2618951 -0.11041297 0.15473804 0.006209245 0.026695129
0.27808535 -0.33159024 0.13325115 -0.20491418 -0.044727463 -0.14647742 -0.111980006 0.013624244
-0.04159177 0.026462615 0.09620843 0.024821037 0.09879615 -0.16675214 -0.04302302 -0.033773612
0.16695808 -0.07407165 -0.011274725 -0.031525426 0.14082238 0.11843865 0.028782021 -0.099373944
0.122397095 -0.02248043 0.0874181 0.02781527 -0.14443341 -0.031707767 0.02938342 0.22192661
-0.1274677 0.012820008 0.062464714 -0.000708188 -0.15750061 0.054409273 -0.047133792 -0.28083268
0.21638387 -0.039726265 0.120104164 0.12076478 0.08348215 0.3008108 -0.16867033 0.12556672
-0.14237769 -0.13745639 -0.0022031849 -0.14097641 0.14204541 0.12246831 -0.0046752747 0.02457783
0.013158504 -0.0069659417 0.009268516 -0.1081866 0.13222851 0.1760363 -0.022551423 0.06821651
-0.10983454 -0.10689559 0.116590984 0.041408002 -0.071193434 -0.01815199 0.18025626 -0.05024558
0.067735076 0.027709408 -0.08565116 0.18162352 -0.021127654 0.09013237 0.03720382 0.009170686
0.06634916 -0.008229361 -0.019590776 0.016472654 0.40100864 -0.20463927 -0.034255408 -0.1631346
-0.21357192 -0.22728576 -0.4714963 0.2978828 0.1639251 0.040685493 0.15916695 0.113178
0.07866343 -0.13854617 -0.11226853 -0.0367148 0.102466375 0.12148581 -0.0013142906 0.13073844
-0.066717975 -0.10314648 0.100281395 0.13082361 0.00755074 0.0004889209 -0.08695682 0.13981795
0.034865826 0.07245431 0.12249859 -0.16276413 -0.119565666 0.040720712 -0.059894796 -0.16146223
-0.048754267 0.04237134 -0.11801308 0.032812152 -0.016758224 0.07669251 -0.1062625 0.025401255
0.063943595 -0.40225166 0.3096982 0.058240358 0.077657595 0.13677698 0.11783805 0.40175644
-0.2900706 0.089677885 -0.15228626 -0.08270144 0.052808866 0.07980025 0.23231657 0.19662374
0.07579187 -0.05234336 -0.008981268 0.08437023 0.017029481 0.06682712 -0.07817885 -0.111986384
-0.11543813 -0.16702846 -0.026182551 0.024626315 -0.037974097 -0.08513957 0.095246196 0.022860171
-0.035712592 0.024715386 0.07143179 -0.14195305 0.100509204 -0.044962507 0.046530724 0.07779261
-0.1995528 -0.0017906782 -0.06549001 -0.12390984 0.058110666 -0.041702572 0.40979007 -0.35269505
0.09169858 -0.13457684 -0.20682667 -0.1543488 -0.2480141 0.29376194 0.11117946 0.2335096
-0.050636508 -0.0018077632 0.115721285 -0.23945709 -0.15090895 -0.09981182 -0.018655429 0.14879753
0.020916987 0.12090712 -0.00814737 -0.07695085 0.05634024 0.10245227 0.09616843 -0.13470572
-0.10225237 0.03601658 0.10860611 -0.14697225 0.15307194 -0.018948594 0.08538705 0.0009548279
-0.044715066 -0.043000262 0.11485352 0.09366464 -0.23442513 0.12674195 0.120905414 0.14047487
-0.17590806 -0.004677779 0.061609022 -0.49095112 0.3134458 -0.16692238 0.20360734 0.021658298
-0.012710087 0.5630162 -0.36211944 0.04677454 -0.19892782 -0.1785458 -0.20363912 -0.055045106

bias f4 [32]
00000000: f2ff ccbc b5c9 42bd 4f60 233d a5eb 7e3d
00000010: ce42 193e 0fe2 cf3d 4e28 de3c 684e 6e3c
00000020: ffd3 113d 31bd 1cbd ef3a 4bbd 6d3c 4bbd
00000030: e783 56bc e9f7 553d 7cc8 babd 0736 833c
00000040: edcc e6bd a9a3 23bc 9ebe 923d fdea 4fbd
00000050: 7978 d13d 7f55 8f3d 96e2 53bd f495 92bd
00000060: cb22 d73d fee9 1d3d 8f2d cfbd 6dac 71bd
00000070: 6e09 39bd d827 1cbd c209 96bd dc47 c73b
-0.025024388 -0.047555644 0.03988677 0.062236447 0.1496689 0.10150539 0.027118828 0.014545061
0.035602566 -0.038266364 -0.04961675 -0.049618173 -0.013092971 0.05223838 -0.091202706 0.016016973
-0.11269555 -0.00998775 0.071652636 -0.05076121 0.102280565 0.06998729 -0.05172976 -0.071575075
0.10504683 0.03855323 -0.101161115 -0.05900233 -0.04517501 -0.038123935 -0.0732608 0.0060815644

weight f4 [32, 32]
00000000: acc7 dabc cb2d af3e 6055 96be f5eb 983e
00000010: 7d70 96be 7b01 963e 22d4 75be 92ef 9ebe
00000020: 1819 fc3c d471 a2be f4dc debe 9e97 41bd
00000030: f8e2 553e 4764 49be 9d25 613e 8954 a4be
00000040: 0b58 e73e 1f20 3a3f 1a78 99be c023 823e
00000050: 3905 aebd 237c 29be f346 b7be f426 253e
00000060: 706c eabe 6ceb 413e ef21 003f 06d5 a63e
00000070: 868a 8dbe 1592 f4be 96f9 e2be 4898 c1bd
00000080: 2c4f d2bd a19e 94be 3010 cc3e 47d7 d1be
00000090: 7471 243f e29b 0abf 03c3 213f 67b7 8a3e
000000a0: f85c a13e cbe4 613e b473 f63e 8f3f 7d3e
000000b0: 23a8 cebe 1f82 253e 5269 8cbe b438 b13e
000000c0: efcf 14bf a31a 16bf dfa7 b43e 29da 93be
000000d0: 634d 09bd 5856 063f 531b 1b3f acb3 9cbe
000000e0: fe7c 333f 3e65 25bf f15a c4be 1fbc ccbe
000000f0: b640 813e f578 fd3e ecd4 3e3f 2091 ab3e
00000100: ab0a 8b3e b72b e03e d7ad b5be d8e3 c73e
00000110: 2a79 dabe b09e 0e3f 53bf 6bbe c93c 2cbe
00000120: c173 8abe ce90 89be 8709 48be 34e3 1abd
00000130: b60f 973e 4c44 19be 994a 7b3e a626 d4be
00000140: f653 e13e d43b 2a3f c5f9 e8be 6721 4c3e
00000150: 38c9 0bbe 7c5a 54be ac91 26bf 60c5 a13d
00000160: 9e1b d0be c5ea 1f3e e89f b53e 2035 0d3f
00000170: 6922 78bd 21e5 99be fa4b 12bf 8107 21be
00000180: be2b 2dbd 6a7f d1be 848c c33e c6d2 13bf
00000190: f0c2 633e f1ae 1fbf afbf 073f 4072 b63b
000001a0: 5099 e53d 00b2 a53e b531 703e 4c88 6d3e
000001b0: c792 adbe 0677 803e 75bb 95be 1087 6c3e
000001c0: 04c0 87be 7f38 1abf 1e49 dd3e 88c9 f3be
000001d0: f1dc 7f3e 959a c23e d73b cb3e 8604 b0be
000001e0: f553 3d3f f5f9 fcbe 5172 cfbe f3c2 f4be
000001f0: fe13 0b3e 0bf1 073f ab4c f33e 3b92 373e
00000200: 9e56 943e 1564 8f3e 2cf3 17bf 5a57 9a3e
00000210: 3306 05bf 225e af3e ca18 e9be 741b 98be
00000220: 8089 abbd 5189 94bd cc4c afbe 4e53 42bd
00000230: adb6 483e 2b98 b8be 8150 ef3e 58cd e7be
00000240: 6129 2e3f cc6f 293f d415 f3be 057c 903e
00000250: 6bff 5b3b eadb 01bf f7e7 10bf 28b4 b53d
00000260: e392 4cbf 7e91 9e3e 21c5 ce3e a165 fa3e
00000270: e263 9cbb aebe 0fbf b797 01bf a81c 0ebe
00000280: 70d3 5b3e f10f 3f3e 3a36 b8be 5f33 e73e
00000290: 18fd 8fbe 3614 c13e 4a9f d4be 45ab 1cbe
000002a0: cdee df3a d7f1 53be f697 1dbe 09a8 b2be
000002b0: 6856 463e ac69 1abe acc2 983e 2212 5bbe
000002c0: d897 053f 3d26 2c3f 0245 0dbf 0e5c d73e
000002d0: 13ee 693d b715 babe 1bb2 13bf b008 9c3e
000002e0: 2a5d 39bf bfe7 ed3e 6bab 5f3e dad6 233f
000002f0: 85a9 aebe 429a 1fbf 9270 cebe a75b 09be
00000300: c7d9 7f3e 5717 b93e 7746 13bf 703d 063f
00000310: cd4b c8be e128 9b3e 2250 bdbe 6a3b 9abe
00000320: ccfe ddbc 6b8c 49be b9c4 dcbd a808 093a
00000330: 5b63 763e 598b 8fbe 3d2b 633e 1994 b6be
00000340: 7b12 043f 1be9 cb3e 3712 8bbe 1e4c 8d3e
00000350: 90dd e9bd e623 b0be dd05 c5be cffe 343e
00000360: 1b57 03bf efbd 893e 5ae3 5c3e 54c5 c13e
00000370: 22a4 1abe ef70 b4be 1298 d2be 7a97 3dbe
00000380: f353 913e 36ca ef3e 8e3a f2be e5f7 bf3e
00000390: 7365 07bf 1108 123f f08b aebe df58 d6bd
000003a0: ae7d 7fbe f526 6abe 0114 86be 070c 7fbe
000003b0: 861b b03e 7035 86be 25a0 523e 7f71 91be
000003c0: 9a2b 1e3f ab25 313f 37c2 00bf 9acd 963e
000003d0: d3cd d6bd 8e43 d0be 431a 0bbf ca48 933e
000003e0: 4367 20bf f3c7 cb3e 9b89 4c3e 7c07 253f
000003f0: 35dc 3abe ec4c d7be bed9 0ebf 595c 9ebe
-0.02670654 0.34214625 -0.2936201 0.2986752 -0.29382697 0.29298005 -0.24006703 -0.31042153
0.030773684 -0.3172747 -0.4352795 -0.047263734 0.20887363 -0.19667159 0.21987005 -0.32095745
0.4518436 0.7270526 -0.29974443 0.254179 -0.0849709 -0.1655126 -0.35796317 0.1612814
-0.45785856 0.18937463 0.5005178 0.325844 -0.27644747 -0.47767702 -0.44331044 -0.094528735
-0.10269007 -0.29027274 0.398561 -0.40984556 0.64235616 -0.5414411 0.6318819 0.2709305
0.31516242 0.22059934 0.4813515 0.24731277 -0.40362653 0.16162919 -0.27424103 0.34613574
-0.5812978 -0.58634394 0.35284325 -0.2887738 -0.033521067 0.524755 0.6058857 -0.3060583
0.701126 -0.6460761 -0.38350633 -0.39987275 0.25244683 0.49506345 0.74543643 0.3350916
0.27156577 0.43783352 -0.35484192 0.39041018 -0.42670566 0.5571089 -0.23022203 -0.16820063
-0.27041438 -0.2686829 -0.19534884 -0.037814334 0.29504174 -0.1496746 0.24540175 -0.41435736
0.4400937 0.6649754 -0.4550306 0.19934617 -0.13650978 -0.20737642 -0.6506603 0.078989744
-0.4064607 0.15616901 0.3547356 0.5515919 -0.06057969 -0.30057624 -0.5714718 -0.15725519
-0.042278044 -0.40917522 0.38193142 -0.5774349 0.22242332 -0.62376314 0.5302686 0.005567819
0.11210883 0.32362366 0.23456462 0.23196524 -0.33901045 0.25090808 -0.2924458 0.23098397
-0.26513684 -0.60242456 0.43219846 -0.47614694 0.24986626 0.38008562 0.39694092 -0.3437845
0.73956233 -0.49409452 -0.40516904 -0.47804984 0.13581845 0.5310218 0.4751943 0.17926876
0.28972334 0.28006044 -0.59355426 0.3014477 -0.51962584 0.34251505 -0.45526725 -0.29708445
-0.083758354 -0.072527535 -0.3423828 -0.047442727 0.19600935 -0.36053595 0.46741107 -0.45273852
0.6803189 0.66186213 -0.4747759 0.2821962 0.003356899 -0.5072619 -0.5660395 0.08872253
-0.7991163 0.30970377 0.40384772 0.48905662 -0.004772649 -0.5615033 -0.50622123 -0.13878119
0.21467376 0.18658425 -0.35978872 0.4515638 -0.28122783 0.37710732 -0.41527778 -0.15299709
0.0017084718 -0.20697723 -0.1539 -0.34893826 0.19368899 -0.15079373 0.29836023 -0.21393636
0.5218482 0.67245847 -0.5518342 0.4206242 0.05711181 -0.36344692 -0.5769364 0.30475378
-0.7240778 0.4646587 0.21842735 0.6399971 -0.34113708 -0.62344754 -0.4032026 -0.13413869
0.24985419 0.3615062 -0.57529396 0.52437496 -0.3912033 0.30304626 -0.369752 -0.30123454
-0.027099036 -0.19682471 -0.10779709 0.0005227425 0.24061339 -0.28036 0.22184463 -0.35659865
0.515907 0.39826283 -0.27162334 0.27597135 -0.11419213 -0.34402388 -0.38481036 0.17675327
-0.5130479 0.2690272 0.21571103 0.37845862 -0.15101674 -0.35242411 -0.41131645 -0.18514815
0.2838436 0.46833962 -0.473103 0.37493816 -0.52889174 0.5704356 -0.3409114 -0.104661696
-0.24950287 -0.22866423 -0.26187137 -0.24906932 0.34396 -0.26212645 0.20568903 -0.28406903
0.6178528 0.691981 -0.5029635 0.29453737 -0.104884766 -0.4067654 -0.5433695 0.2876647
-0.62657565 0.39800987 0.19974367 0.64464545 -0.18248065 -0.42050874 -0.55801 -0.3092983

bias f4 [32]
00000000: 9e11 bbbd 7fbb b73d e6f2 84bb 537d b53d
00000010: 381d 543d 00c5 2f3d 1869 8c3c 0c99 bc3d
00000020: c271 0abc 5d41 c83d b172 d43d 60fa a4ba
00000030: aa82 0f3d ab1b 23be 21e3 c53d 8f51 fcbc
00000040: 480c e1bd a7b1 0cbd 1a5d cdbd bd8c 5ebd
00000050: c72e a7bd a2e2 943b 9797 28bd 50ef 00be
00000060: bee4 9fbd 24e3 09bd 929c 0abe 4d77 d63c
00000070: d0d4 cfbc ccbf 0d3e 0ce0 b2bc 4e2f 703d
-0.091342196 0.08971309 -0.004057276 0.08861794 0.051785678 0.042912483 0.017139956 0.09208879
-0.008449974 0.09778092 0.10373438 -0.0012586825 0.03503672 -0.15928523 0.09662462 -0.030800609
-0.109886706 -0.03434911 -0.10027523 -0.054333437 -0.08163219 0.0045436183 -0.041160192 -0.1259129
-0.07807301 -0.033663884 -0.1353629 0.026179934 -0.025370032 0.13842696 -0.02183535 0.058638863

weight f4 [1, 32]
00000000: ca85 70bf 5269 4d3f 3fe5 43bf d16b 673f
00000010: 27d3 5cbf 94bb 3abf 0bc4 4cbf f06d 12bf
00000020: 808c 25bf 237d 3f3f 01de 48bf 4b7b 373f
00000030: 93d8 223f 2956 3fbf 49ac 2b3f 5099 723f
00000040: 41ec 34bf 93eb 533f b1c1 4ebf 4899 66bf
00000050: 55ee 433f f389 50bf 46b6 30bf eb06 44bf
00000060: aae0 71bf 9a73 6d3f c206 3ebf 2d28 76bf
00000070: 1792 68bf d46e 2f3f d113 78bf 5881 15bf
-0.93954146 0.8023883 -0.76521677 0.9039889 -0.8625969 -0.7294247 -0.7998664 -0.57199
-0.6466751 0.7480032 -0.7846375 0.71672505 0.63611716 -0.74740845 0.6705976 0.94765186
-0.70672995 0.8278133 -0.807643 -0.9007764 0.7653554 -0.81460494 -0.6902813 -0.76573056
-0.94483435 0.9275452 -0.7422906 -0.96155053 -0.90847915 0.68528485 -0.9690524 -0.5840049
