alanine/models/model_2_z.pt (torch, 28013 bytes, 6 tensors)

mass f4 [30]
000000 0e 2d 40 41 0e 2d 40 41 0e 2d 40 41 0e 2d 40 41
       12.011 12.011 12.011 12.011
000010 0e 2d 40 41 0e 2d 40 41 e7 fb 7f 41 e7 fb 7f 41
       12.011 12.011 15.999 15.999
000020 e7 fb 7f 41 ac 1c 60 41 ac 1c 60 41 ac 1c 60 41
       15.999 14.007 14.007 14.007
000030 0e 2d 40 41 0e 2d 40 41 0e 2d 40 41 0e 2d 40 41
       12.011 12.011 12.011 12.011
000040 0e 2d 40 41 0e 2d 40 41 0e 2d 40 41 0e 2d 40 41
       12.011 12.011 12.011 12.011
000050 0e 2d 40 41 e7 fb 7f 41 e7 fb 7f 41 e7 fb 7f 41
       12.011 15.999 15.999 15.999
000060 ac 1c 60 41 ac 1c 60 41 ac 1c 60 41 0e 2d 40 41
       14.007 14.007 14.007 12.011
000070 0e 2d 40 41 0e 2d 40 41
       12.011 12.011

weight f4 [32, 45]
000000 6f 69 9c bd 60 46 6a bd f3 33 e9 bd 00 b9 83 bd
       -0.07637297 -0.05719602 -0.11386862 -0.0643177
000010 89 74 27 3c f8 df d7 3c 32 5f 15 3e be f1 15 3e
       0.010220655 0.026351914 0.14587095 0.14642999
000020 af 94 14 be ae a1 c6 bd f6 c3 a5 bd 13 e4 d2 bd
       -0.14509843 -0.09698807 -0.08094017 -0.10297408
000030 5e 3a 3a 3e ba d5 1a 3e a4 8c 31 3c c2 cc 94 3d
       0.18186328 0.15120593 0.010836754 0.07265617
000040 66 a3 bd bd fb fb 78 3d 12 cc 8f be ad 32 87 3e
       -0.092596814 0.060787182 -0.2808538 0.2640585
000050 09 c3 e6 bd 84 fb 21 3e fb 99 38 3c 16 29 cd 3c
       -0.11267669 0.15818602 0.011267181 0.025044005
000060 b4 20 84 3e ca 1a b4 be 7e c7 07 3e ad 64 4c be
       0.258062 -0.35176688 0.13259694 -0.1996028
000070 b5 76 3c bd b0 44 12 be 6e 62 eb bd f7 1b 3c 3c
       -0.046011645 -0.14284015 -0.11493383 0.011481277
000080 73 11 3f bd 13 a5 9b 3c c0 c3 bb 3d 2d ff 94 3c
       -0.0466475 0.018999612 0.09168196 0.018188084
000090 ee 08 c4 3d 8d 41 2d be ee 41 15 bd 1c d4 33 bd
       0.09572016 -0.16919537 -0.03643983 -0.043903455
0000a0 c3 84 2a 3e 86 7c a5 bd 84 d8 2c bc cb 74 fe bc
       0.16652207 -0.080803916 -0.010549668 -0.03106155
0000b0 ff 34 10 3e 08 f5 fd 3d f3 ba 1b 3d 98 40 de bd
       0.14082716 0.124002516 0.038020086 -0.10852164
0000c0 55 3e f8 3d 16 9e 5a bc 10 0d a0 3d 6e 58 c7 3c
       0.12121264 -0.013343355 0.078149915 0.024334159
0000d0 63 e1 1a be 2f 5d 14 bd 62 be cd 3c 28 60 54 3e
       -0.1512504 -0.03622168 0.025115196 0.20739806
0000e0 f8 d8 fa bd 7a da 92 3c c2 97 75 3d bf 1c c7 3a
       -0.12248415 0.017926443 0.05995918 0.0015191062
0000f0 5d 1d 1f be e2 cd 5a 3d 00 13 6b bd cb 80 8b be
       -0.15538545 0.053419 -0.057391167 -0.272467
000100 f2 51 63 3e 4b 0c 25 bd 95 d3 01 3e 27 2d 06 3e
       0.22199228 -0.040294927 0.12678368 0.13103162
000110 30 85 ae 3d 50 fc 92 3e 44 e9 44 be 4b c3 fb 3d
       0.08521497 0.28708124 -0.19229609 0.122931086
000120 38 48 0e be 6b 7e 0d be 6f 18 0c 3b 05 ac 0d be
       -0.13894737 -0.13817756 0.0021376868 -0.13835151
000130 35 e2 13 3e ec 04 f4 3d 9e 03 fe bb 0c 30 bf 3c
       0.1444176 0.11915001 -0.007751896 0.02333834
000140 b7 42 9e 3b 05 8d 39 bc af 5d 9e 3b d8 ee d5 bd
       0.0048297304 -0.011325126 0.0048329453 -0.104459465
000150 98 05 f9 3d dd f4 34 3e 90 07 e2 bc a1 98 8c 3d
       0.1215927 0.17671533 -0.027591497 0.06865049
000160 62 d4 dd bd 98 97 d8 bd 82 79 e2 3d 5f b5 06 3d
       -0.108315244 -0.10575789 0.11058332 0.032887813
000170 8c a2 82 bd ce df 86 bc 10 62 29 3e 56 53 32 bd
       -0.063786596 -0.01646414 0.16541314 -0.043536507
000180 e8 4f 8f 3d 14 de 01 3d 8e 5b ac bd 60 aa 3c 3e
       0.06997663 0.03170593 -0.084159 0.18424368
000190 cf d2 01 bc cb 0e a8 3d 64 60 ee 3c 82 b0 29 3c
       -0.007923796 0.082059465 0.029098697 0.010357024
0001a0 81 6c 83 3d 5d 07 25 bc 10 6d 9c bc 7b fb c9 3c
       0.0641718 -0.010072556 -0.019094974 0.024656048
0001b0 0f 8b c3 3e b5 de 57 be 2c ec 08 bd 6d 3b 2b be
       0.3819203 -0.2108105 -0.033428356 -0.16721888
0001c0 15 c1 61 be 66 ac 67 be 9e 71 e6 be d6 2c a1 3e
       -0.22046311 -0.22624359 -0.45008558 0.3147952
0001d0 41 f4 24 3e 81 bc f8 3c 01 63 23 3e e9 9b dc 3d
       0.161088 0.030363323 0.15955736 0.10771925
0001e0 85 ba a6 3d f5 01 0e be 1f a6 e0 bd 8e 4d 01 bd
       0.081410445 -0.13867934 -0.10969185 -0.031568103
0001f0 8b 0f d6 3d c5 13 00 3e 08 c5 ff ba 22 d6 04 3e
       0.10452183 0.12507541 -0.0019513676 0.1297231
000200 9b 8f 9d bd b8 e9 c3 bd 37 57 c7 3d d7 85 09 3e
       -0.07693406 -0.09566063 0.09733432 0.13429962
000210 bb f8 7b 3b bc 04 75 bb 87 cd b6 bd b9 fc 14 3e
       0.0038447815 -0.0037386855 -0.0892592 0.14549531
000220 96 48 32 3d 3c 95 81 3d e8 4d fa 3d 9a 90 1d be
       0.043526255 0.06327292 0.12221891 -0.15387192
000230 5e c7 03 be 88 35 1d 3d 12 98 88 bd 03 cc 28 be
       -0.12869021 0.03838113 -0.0666963 -0.16484074
000240 94 aa 57 bd d9 2c e1 3c dd 19 e7 bd 0a 47 17 3d
       -0.05265291 0.027487205 -0.1128423 0.036932983
000250 ec bf 9f bc b4 d3 a2 3d 40 74 d5 bd 4a be ca 3c
       -0.019500695 0.079505354 -0.104225636 0.02474894
000260 6c 0e 60 3d d1 7a c9 be 78 a8 a0 3e 70 b5 6a 3d
       0.054701254 -0.39351514 0.3137853 0.05730194
000270 ca 77 ae 3d 0e bf 14 3e 19 b1 ef 3d 14 45 c6 3e
       0.08518942 0.14526007 0.117037006 0.38724577
000280 ac 0f a0 be 1d e7 b0 3d f8 89 18 be 05 97 aa bd
       -0.31261957 0.08637831 -0.14896381 -0.08329586
000290 62 a5 6f 3d c1 00 a8 3d 47 95 6f 3e b2 09 47 3e
       0.05850733 0.08203269 0.23396789 0.19437292
0002a0 ba bc 90 3d fe 26 5d bd b8 c0 75 bc 4e 6f a3 3d
       0.07067247 -0.053992264 -0.014999561 0.07980214
0002b0 92 45 6d 3c d9 70 91 3d 6c 14 b7 bd 26 3d e4 bd
       0.014481919 0.07101602 -0.08939442 -0.11144476
0002c0 cc 69 f7 bd 21 fb 2a be 17 c6 d0 bc cd 6e db 3c
       -0.12080726 -0.1669736 -0.025485082 0.026786232
0002d0 6b 53 32 bd 95 bf bd bd b7 91 d1 3d da 79 c5 3c
       -0.043536585 -0.09265057 0.10232871 0.024105955
0002e0 91 a1 48 bd ae 05 ff 3c 49 84 99 3d 81 60 0e be
       -0.048982207 0.031130638 0.074959345 -0.13904001
0002f0 ad 67 ce 3d e7 d1 2a bd 45 31 73 3d 15 57 8f 3d
       0.10078368 -0.041704085 0.05937316 0.069990315
000300 5d 54 53 be 1f bb 9e ba b2 13 88 bd d7 b5 02 be
       -0.20637651 -0.001211021 -0.066443816 -0.12764679
000310 8b bd 6a 3d af 8a 0a bd 80 bf c8 3e 6c 63 b6 be
       0.05730967 -0.033823665 0.39208603 -0.35622728
000320 0f 25 ba 3d be ce 0d be 72 f2 5c be ac c1 1d be
       0.090890996 -0.13848397 -0.2157686 -0.15405911
000330 14 5e 68 be a2 f3 9e 3e a7 16 e0 3d 07 5f 67 3e
       -0.22692138 0.31045252 0.109418206 0.22594844
000340 b0 8a 53 bd b8 32 03 bc 21 57 f8 3d 1a 72 76 be
       -0.051645935 -0.008007698 0.121259935 -0.24066964
000350 e8 e6 18 be 26 b3 c1 bd 62 60 88 bc 38 f5 1d 3e
       -0.14931834 -0.09457998 -0.016647521 0.15425575
000360 6f 3a bd 3c d1 13 f7 3d 61 b0 86 bc 38 a5 90 bd
       0.023099152 0.120643266 -0.016441526 -0.07062763
000370 f1 a7 59 3d 03 c6 d9 3d 63 54 bb 3d 90 50 0e be
       0.053138677 0.10633471 0.09146955 -0.1389792
000380 31 c8 d5 bd 02 83 23 3d 7f ae eb 3d af 00 21 be
       -0.10438574 0.03991986 0.11507892 -0.15722917
000390 e9 c5 17 3e 4e f2 99 bb 0d 28 9b 3d 8e 48 9a bb
       0.1482159 -0.0046980744 0.075759985 -0.004708356
0003a0 ea e4 4c bd 71 bd 39 bd 39 84 e0 3d 30 cb 9c 3d
       -0.050022997 -0.04534668 0.109627195 0.076559424
0003b0 fa d7 6a be 7a 88 07 3e e4 64 ef 3d 81 17 0f 3e
       -0.22933951 0.13235655 0.11689165 0.1397381
0003c0 a2 63 34 be 30 7e e3 bb bc 2a 4e 3d 29 92 f2 be
       -0.17616132 -0.006942533 0.050333723 -0.47377136
0003d0 b5 11 a2 3e 05 2c 2f be 80 fb 51 3e 9c 9a c5 3c
       0.31654134 -0.17106636 0.20506096 0.024121575
0003e0 5a af 88 bc b9 69 09 3f 72 e5 c3 be ad 51 41 3d
       -0.016685177 0.53676945 -0.3826099 0.047197033
0003f0 8f f6 42 be 42 af 38 be ca d7 4b be 67 a3 84 bd
       -0.19039367 -0.18035606 -0.19906536 -0.06476479

bias f4 [32]
000000 e1 51 c1 bc db 7d 3d bd bd b4 12 3d 76 d8 82 3d
       -0.023598613 -0.046262603 0.035816897 0.06388943
000010 1f a9 15 3e 7a 86 d3 3d 1d 5d cd 3c 9b d3 56 3c
       0.14615296 0.10328384 0.025068814 0.013111974
000020 3b 64 0e 3d 65 b5 22 bd c7 38 52 bd 46 b9 51 bd
       0.034763556 -0.039723773 -0.05132368 -0.05120208
000030 31 83 2a bc 38 d8 4a 3d 40 89 b6 bd 3a 6e 80 3c
       -0.010407255 0.04952261 -0.08912897 0.01567756
000040 c1 fc e2 bd d4 22 0d bc e8 c7 8d 3d 3b 2f 48 bd
       -0.11083365 -0.008614261 0.06922895 -0.048873167
000050 06 ae c8 3d 4c 43 8b 3d 5e c2 59 bd 98 31 8f bd
       0.09798817 0.06799945 -0.05316388 -0.06991881
000060 02 22 d3 3d 5e 4d 25 3d a7 2b cc bd ac a5 6b bd
       0.10309221 0.040356986 -0.099692635 -0.057531044
000070 4b 86 3b bd dc 36 25 bd 52 3d 99 bd cf 0e 13 3b
       -0.04578237 -0.04033552 -0.07482399 0.0022439247

weight f4 [32, 32]
000000 72 83 39 bc 2e b5 a7 3e 29 87 8d be 78 37 9b 3e
       -0.011322843 0.32755417 -0.27642182 0.30315757
000010 5e e2 a2 be e4 a9 8d 3e b7 25 82 be 62 44 9e be
       -0.3181333 0.2766868 -0.254194 -0.30911547
000020 49 1d 92 3c 41 a3 a7 be ba 9d cf be a2 78 96 bd
       0.01783623 -0.3274174 -0.40550023 -0.07347228
000030 3b 79 8f 3e c3 12 3d be 65 e3 4e 3e 53 80 ac be
       0.2802218 -0.18464188 0.20203932 -0.33691654
000040 65 d1 fc 3e 57 1c 1c 3f c3 98 ac be 47 bf 83 3e
       0.49378505 0.60980743 -0.33710298 0.2573187
000050 fc 7f d4 bd c0 07 34 be 91 82 8c be 02 a5 29 3e
       -0.103759736 -0.17581081 -0.27443364 0.16566852
000060 a2 62 db be ad d7 59 3e 25 71 f0 3e 9d 5f 8e 3e
       -0.42848688 0.2127368 0.46961322 0.27807322
000070 a5 4f 8f be 93 8a e6 be 1f e4 f7 be a2 8e 8b bd
       -0.2799045 -0.450276 -0.4841623 -0.068143144
000080 99 30 e9 bd 91 25 8f be 49 ba c2 3e 5b 82 d4 be
       -0.113862224 -0.27958348 0.3803275 -0.41505703
000090 a1 01 24 3f eb cf 03 bf 77 6f 29 3f 49 9f 8a 3e
       0.64064986 -0.5148913 0.66185707 0.2707465
0000a0 cd c3 a6 3e 8e 2f 69 3e ef 48 eb 3e f6 cd 89 3e
       0.3257126 0.22772047 0.4595408 0.26914948
0000b0 c4 66 f1 be 6c 3c 1b 3e 8b c2 83 be 17 9c b7 3e
       -0.47148716 0.15159768 -0.25734362 0.35861275
0000c0 35 3f 22 bf 2d e0 f0 be 5f b2 c3 3e 6d 8f 92 be
       -0.63377696 -0.47046033 0.38222024 -0.2862505
0000d0 68 2a a7 bc 45 0c 0c 3f ae 99 06 3f f5 72 9c be
       -0.020405963 0.5470622 0.52578247 -0.30556455
0000e0 aa 03 2c 3f 55 85 34 bf e6 8c b9 be cc 26 b4 be
       0.6719309 -0.7051595 -0.3624031 -0.3518585
0000f0 8e c3 82 3e 2e 51 f1 3e 62 fa 4a 3f 60 26 9e 3e
       0.2553982 0.47132248 0.79288304 0.30888653
000100 6e 88 90 3e c1 ac dc 3e 51 85 b1 be 8e 22 cc 3e
       0.28229088 0.4310055 -0.34672025 0.39870113
000110 3c 1e e4 be 0d 37 0a 3f 49 65 82 be 28 63 2d be
       -0.44554317 0.5399025 -0.254679 -0.16932356
000120 77 0b 90 be 90 80 8e be 61 73 35 be 6a 39 77 bd
       -0.28133747 -0.2783246 -0.17719795 -0.06035749
000130 1d b7 b7 3e 52 a0 0f be fa 90 6d 3e bb d4 d9 be
       0.35881892 -0.14026001 0.23199835 -0.42545113
000140 94 98 f6 3e 62 54 11 3f e4 d8 f9 be ed 04 4e 3e
       0.48163283 0.5676938 -0.48798287 0.20119067
000150 a6 aa 1d be 1b 21 65 be 28 78 14 bf 2e 8b a3 3d
       -0.15397128 -0.2237591 -0.57995844 0.07985531
000160 c1 bc c5 be a7 ca 3d 3e 4b 42 ac 3e 03 5b 03 3f
       -0.3862057 0.18534337 0.33644328 0.5131075
000170 98 7d 83 bd 5f 36 92 be 4a 07 1d bf b4 57 0e be
       -0.064204395 -0.28557107 -0.6133925 -0.13900644
000180 22 1e 67 bd f5 5d cc be 81 aa bb 3e 14 90 15 bf
       -0.05642522 -0.39915434 0.36653522 -0.5842297
000190 31 f5 71 3e 2b 37 1b bf 0d 80 0e 3f 67 16 98 3b
       0.2362869 -0.60631055 0.5566414 0.0046413424
0001a0 2f 7f fc 3d 15 de a9 3e 29 28 58 3e 88 bf 83 3e
       0.12328946 0.33177248 0.2110907 0.25732064
0001b0 6c d5 d0 be a1 74 77 3e a4 8c 8d be 85 e5 7d 3e
       -0.40787828 0.24165584 -0.27646363 0.24794586
0001c0 9a 2e a0 be 0a 56 fd be 8c 05 ef 3e 95 41 f4 be
       -0.31285554 -0.49479705 0.4668392 -0.47706285
0001d0 65 23 88 3e 40 a0 cc 3e 12 46 a3 3e 2c 16 b1 be
       0.26589504 0.3996601 0.31889397 -0.34587228
0001e0 c1 98 36 3f 9a a7 08 bf 27 3d c3 be 9e a6 de be
       0.71326834 -0.5338074 -0.38132593 -0.43486494
0001f0 1a 63 10 3e 6b c4 01 3f c6 29 05 3f 1b a0 1e 3e
       0.14100304 0.50690335 0.52016866 0.15490763
000200 68 32 9a 3e ba ab 89 3e b6 33 14 bf f6 9d 9c 3e
       0.30116582 0.2688883 -0.57891405 0.30589265
000210 0b 9b 06 bf 72 06 a2 3e 16 cf f7 be 12 4b 98 be
       -0.52580327 0.31645542 -0.48400182 -0.29744774
000220 2e 1d c4 bd 5a de a9 bd c5 9c a2 be cb bb 90 bd
       -0.09575878 -0.08294363 -0.3176023 -0.07067069
000230 d4 8e 87 3e cb 2c b2 be 42 c2 e6 3e d7 2b ee be
       0.26476157 -0.347998 0.45070082 -0.46517822
000240 39 6c 3b 3f aa 04 0a 3f 78 ae 01 bf 57 e2 8f 3e
       0.7321201 0.53913367 -0.50656843 0.2810237
000250 8f c4 65 bc 16 ec 06 bf ae 8e f7 be b1 99 b5 3d
       -0.014023914 -0.5270399 -0.48351043 0.08867205
000260 95 c0 44 bf 8c 85 b8 3e c0 92 c3 3e 62 de e0 3e
       -0.76856357 0.36039388 0.381979 0.43919665
000270 d2 3e d2 bb 5f a2 09 bf fa 89 0d bf 11 6a ea bd
       -0.00641618 -0.53763384 -0.5528866 -0.11446012
000280 d3 fe 64 3e 81 e0 37 3e fa 42 b1 be 60 e1 e9 3e
       0.22362833 0.17956735 -0.34621412 0.4567976
000290 14 1a 92 be 8f c5 b3 3e 24 91 e5 be 78 98 1b be
       -0.2853552 0.35111663 -0.44837296 -0.15194881
0002a0 e9 ea d9 bb 6f 7e 5c be 5b b6 04 be ba 0f be be
       -0.006650318 -0.21532606 -0.12960188 -0.37121373
0002b0 06 8a 84 3e 12 2f 10 be 2a e9 8d 3e 6f e9 64 be
       0.25886554 -0.14080456 0.27716953 -0.22354673
0002c0 b2 9c 11 3f 57 fa 0d 3f de db 13 bf 8e c9 d4 3e
       0.56879723 0.55460113 -0.57757366 0.41560024
0002d0 aa 51 31 3d f0 3a c5 be 63 22 00 bf 57 2a 9a 3e
       0.04329077 -0.38521528 -0.5005247 0.30110428
0002e0 d0 be 31 bf 31 97 01 3f a5 b6 4a 3e 73 50 16 3f
       -0.6943178 0.50621325 0.19796236 0.58716506
0002f0 33 48 b0 be 66 9b 1a bf 35 7d e6 be 02 64 e2 bd
       -0.34430084 -0.6039337 -0.450174 -0.11054231
000300 35 2a 85 3e 3b 94 b4 3e 15 f9 0e bf a5 f8 07 3f
       0.26008764 0.3526934 -0.5584882 0.53113776
000310 6a 6c ce be 7e 00 91 3e 65 85 c9 be 0a 18 9a be
       -0.40317088 0.28320688 -0.39359584 -0.30096465
000320 19 6a 15 bd c9 32 51 be f2 31 b0 bd 32 49 a6 bc
       -0.036478136 -0.20429529 -0.08603276 -0.020298574
000330 54 5a 9b 3e 23 19 8a be 55 7d 52 3e d9 68 bc be
       0.30342352 -0.26972303 0.20555623 -0.36798742
000340 17 53 0e 3f 83 d6 96 3e 43 4e 9a be f6 ab 8c 3e
       0.55595535 0.29460534 -0.30137834 0.27474946
000350 bd ac fd bd 88 23 b9 be 53 9b 9f be d7 61 36 3e
       -0.12386463 -0.3615992 -0.3117319 0.1781076
000360 8d 0e fa be fd 37 99 3e 73 7d 47 3e 1f 46 ab 3e
       -0.48839226 0.29925528 0.19481449 0.33451936
000370 ee b6 1c be f0 6e a9 be 63 95 e6 be 2e 75 26 be
       -0.15304157 -0.3309245 -0.45035848 -0.16255638
000380 71 0f 96 3e 5d 86 ec 3e 57 79 ef be e8 d1 c1 3e
       0.29308656 0.4619626 -0.46772262 0.37855458
000390 27 f1 09 bf 97 b0 0c 3f e5 e2 bb be a0 61 da bd
       -0.53883594 0.54956955 -0.36696544 -0.10663152
0003a0 a7 22 86 be ba d0 75 be ef c5 76 be 13 f0 8a be
       -0.26198313 -0.24005404 -0.24098943 -0.27136287
0003b0 a6 b8 d1 3e 2d 9e 81 be f9 01 45 3e 3f 0e 97 be
       0.40961188 -0.2531599 0.19239034 -0.29503056
0003c0 83 5a 29 3f 0a 33 16 3f ae 84 08 bf 9d cb 96 3e
       0.66153735 0.5867163 -0.53327453 0.2945222
0003d0 80 c1 fd bd b7 83 d8 be 30 cb ef be 91 72 92 3e
       -0.12390423 -0.4228799 -0.46834707 0.28603032
0003e0 2b e2 19 bf 15 a3 df 3e 61 ad 3a 3e c4 e3 1a 3f
       -0.6011073 0.4367911 0.18230201 0.6050379
0003f0 f4 5b 3d be 8e 73 cf be 0f e5 19 bf 53 7a 94 be
       -0.18492109 -0.4051785 -0.6011514 -0.28999576

bias f4 [32]
000000 0c 7b b9 bd d0 29 b7 3d 2f 24 62 bb e6 bf b5 3d
       -0.090566725 0.08943522 -0.003450643 0.08874492
000010 e0 8a 5a 3d 3b e1 2e 3d 5d 92 99 3c 8b 31 be 3d
       0.053355098 0.042695265 0.01874655 0.09286793
000020 85 10 a3 bb c4 fb c1 3d 0f c2 d6 3d 8f 18 dc ba
       -0.0049763345 0.094718486 0.104862325 -0.0016791987
000030 56 f5 11 3d d6 e5 21 be 3d 2a bd 3d 99 4e 06 bd
       0.03563436 -0.15810332 0.09236572 -0.0327898
000040 4c e3 e2 bd 17 ed 13 bd 26 3d cc bd d7 da 69 bd
       -0.1107851 -0.03611478 -0.09972601 -0.057093468
000050 a2 34 ad bd a6 a3 a3 3b f6 ae 25 bd 8e d8 00 be
       -0.084573045 0.0049938736 -0.04045006 -0.12582609
000060 01 47 9e bd 41 54 0f bd fb ab 08 be 67 32 d3 3c
       -0.07728387 -0.03499246 -0.13346855 0.02578087
000070 87 ac ce bc 86 f8 0b 3e 7a fc a7 bc db 59 73 3d
       -0.025228752 0.13669023 -0.020506132 0.059411865

weight f4 [1, 32]
000000 aa 8b 45 bf 0f ea 48 3f 51 f0 49 bf 01 10 56 3f
       -0.77166235 0.78482145 -0.7888232 0.8361817
000010 48 55 51 bf 7e c8 3c bf d9 23 4e bf c3 a7 13 bf
       -0.81770754 -0.73743427 -0.8052345 -0.5767786
000020 3c 2d 25 bf 76 14 3e 3f 6f 8c 4b bf e2 3f 37 3f
       -0.6452215 0.7424997 -0.7951116 0.7158185
000030 71 c2 fe 3e 6a f4 3e bf 2d 51 2c 3f 0a bb 4f 3f
       0.49757722 -0.74591696 0.67311364 0.81144774
000040 7f 99 1b bf f4 8d 32 3f 59 6f 4f bf 2a 67 52 bf
       -0.6078109 0.69747853 -0.8102928 -0.82188666
000050 8c 1d 43 3f 73 ba 51 bf 52 2b 2e bf a6 a8 3d bf
       0.7621696 -0.81925124 -0.6803485 -0.7408546
000060 d7 32 5e bf 74 3e 68 3f b6 3b 3e bf 03 f1 72 bf
       -0.86796325 0.90720296 -0.7430986 -0.94899005
000070 21 31 5f bf 39 78 37 3f 86 33 68 bf 10 ca 10 bf
       -0.8718434 0.7166782 -0.9070362 -0.5655832
