alanine/models/model_0_q.pt (torch, 28749 bytes, 6 tensors)

mass f4 [30]
0	0x41402d0e	12.011
1	0x41402d0e	12.011
2	0x41402d0e	12.011
3	0x41402d0e	12.011
4	0x41402d0e	12.011
5	0x41402d0e	12.011
6	0x417ffbe7	15.999
7	0x417ffbe7	15.999
8	0x417ffbe7	15.999
9	0x41601cac	14.007
10	0x41601cac	14.007
11	0x41601cac	14.007
12	0x41402d0e	12.011
13	0x41402d0e	12.011
14	0x41402d0e	12.011
15	0x41402d0e	12.011
16	0x41402d0e	12.011
17	0x41402d0e	12.011
18	0x41402d0e	12.011
19	0x41402d0e	12.011
20	0x41402d0e	12.011
21	0x417ffbe7	15.999
22	0x417ffbe7	15.999
23	0x417ffbe7	15.999
24	0x41601cac	14.007
25	0x41601cac	14.007
26	0x41601cac	14.007
27	0x41402d0e	12.011
28	0x41402d0e	12.011
29	0x41402d0e	12.011

weight f4 [32, 45]
0	0xbe6d58cd	-0.23178406
1	0xbd24d602	-0.040243156
2	0xbe41f6c9	-0.18941797
3	0xbea033e3	-0.31289586
4	0x3e843991	0.2582517
5	0xbc6ab297	-0.014324806
6	0x3d0b54e5	0.03401651
7	0x3e47022a	0.1943442
8	0xbe16c28a	-0.14722648
9	0xbccac7cd	-0.024753476
10	0xbe44e446	-0.19227704
11	0xbeb1269b	-0.34599766
12	0x3f3c58a2	0.7357274
13	0x3e561cf2	0.2090948
14	0xbd03d906	-0.03218939
15	0x3ddfd9ca	0.10930212
16	0xbdfddce3	-0.123956464
17	0xbd979727	-0.07401877
18	0xbedd0458	-0.43167377
19	0x3f3a6b2f	0.728198
20	0x3b636c37	0.0034701952
21	0x3e634b5b	0.22196715
22	0xbb73ee91	-0.0037221054
23	0xbd492ef8	-0.04911706
24	0xbea1b0cd	-0.315802
25	0xbf163ebe	-0.58689487
26	0xbd8cb7fa	-0.06871028
27	0xbe928746	-0.2861883
28	0xbe13afb4	-0.14422494
29	0xbe7bcc7e	-0.24589726
30	0xbde6dd23	-0.11272647
31	0xbcc3df06	-0.023910057
32	0x3e80c1ae	0.25147766
33	0xbe504abd	-0.2034101
34	0x383de261	4.5271943e-05
35	0xbb63f0b3	-0.003478092
36	0xbd268540	-0.04065442
37	0x3ce7c80d	0.028293634
38	0x3d54f59e	0.05199205
39	0x3dc7bbc2	0.09752609
40	0x3e88c7df	0.2671499
41	0x3bd05cfa	0.00635874
42	0x3dae967d	0.08524797
43	0x3dfcbc66	0.12340622
44	0x3d55c6c0	0.052191496
45	0x3e398a0f	0.18119071
46	0xbd2ea17e	-0.04263448
47	0xbd622cc7	-0.055218484
48	0x3e2aee73	0.16692524
49	0xbe015c3d	-0.12632842
50	0x3ddb561c	0.107097834
51	0x3d9215d1	0.071330674
52	0xbdcf0b64	-0.101095945
53	0x3de70b38	0.11281437
54	0xbb24dc4d	-0.0025155724
55	0x3e670e68	0.2256409
56	0x3de3e3f1	0.11127461
57	0xbee74389	-0.45168713
58	0x3cdc5632	0.02689657
59	0xbd3ae60d	-0.04562955
60	0xbe1e2097	-0.1544212
61	0x3df8b40e	0.12143718
62	0x3cea9714	0.028636493
63	0x3ea239d3	0.3168474
64	0xbf0b6c51	-0.5446215
65	0xbda00a6a	-0.07814486
66	0xbcf60442	-0.030031327
67	0x3dc21000	0.09475708
68	0x3d946e74	0.0724763
69	0x3bf243e9	0.0073933494
70	0x3e897755	0.26848856
71	0x3e9124b6	0.2834832
72	0x3da7d9c6	0.08195834
73	0xbc84cd87	-0.016211284
74	0x3e32ac44	0.17448527
75	0xbdbd8032	-0.09252967
76	0x3cdc5146	0.026894223
77	0xbdc597f6	-0.09648125
78	0x3c45532f	0.012043758
79	0x3a4bc28f	0.0007772827
80	0x3dabcc59	0.083885856
81	0x3e387ffa	0.18017569
82	0xbdd1b7e6	-0.10240154
83	0xbe4ae1e2	-0.1981273
84	0x3dc7ffcc	0.09765586
85	0x3df36017	0.11883562
86	0xbdc35490	-0.095376134
87	0x3d507193	0.050889563
88	0xbe4a59e0	-0.19760847
89	0xbd281288	-0.041033298
90	0x3e41846f	0.18898176
91	0x3db8e918	0.09028834
92	0xbd98e8e8	-0.07466298
93	0x3db2ddc0	0.08733702
94	0xbc10d25c	-0.008839216
95	0xbc11c8ab	-0.008897941
96	0x3de932c6	0.113866374
97	0xbc8b6cca	-0.017019648
98	0xbe14eea7	-0.14544164
99	0x3e2d9444	0.1695109
100	0x3cdaa7b1	0.02669129
101	0x3dcd7b47	0.10033279
102	0xbe219036	-0.15777668
103	0xbc9bf479	-0.019037472
104	0x3e00a7de	0.12564036
105	0xbd6fa88c	-0.05851035
106	0xbd78a0ef	-0.060700353
107	0x3d40beb9	0.047056887
108	0x3e5650cf	0.20929264
109	0xbe694520	-0.22780275
110	0xbdfdd6c3	-0.12394478
111	0xbe16a6fe	-0.1471214
112	0xbe73b9d2	-0.23801354
113	0xbe67e5ff	-0.2264633
114	0xbb553f93	-0.0032539114
115	0x3e681efb	0.22668068
116	0x3e832917	0.25617287
117	0x3b0f674d	0.002188164
118	0x3e245cab	0.16050975
119	0x3dc840ff	0.09778022
120	0x3dc4881c	0.09596273
121	0xbd5cde48	-0.05392292
122	0xbdf6266d	-0.12019048
123	0x3d9a6b0f	0.07539951
124	0x3e2a46fc	0.16628641
125	0x3dd38357	0.103277855
126	0x3e01ba5f	0.12668751
127	0xbdb31338	-0.087439
128	0xbe58320c	-0.21112841
129	0xbdf86b6b	-0.12129863
130	0x3e093341	0.13398458
131	0x3e12bfe8	0.14331019
132	0x3c990264	0.018677898
133	0xbc105533	-0.008809376
134	0xbd760b95	-0.06006964
135	0x3d5d91bc	0.05409406
136	0xbccd0b5d	-0.025029832
137	0x3cd3b4a8	0.02584298
138	0xbd18fbaa	-0.03734938
139	0x3d4d1946	0.05007293
140	0xbe3740f9	-0.17895879
141	0xbd4ccad1	-0.04999811
142	0xbd0b8100	-0.03405857
143	0xbe091dd4	-0.13390285
144	0xbd91bc93	-0.07116046
145	0xbd78dd17	-0.060757723
146	0xbe44b698	-0.19210279
147	0x3e9c99ef	0.30586192
148	0xbc97ba75	-0.018521527
149	0xbb26bb26	-0.002544114
150	0xbd8362d2	-0.06415333
151	0x3d1a0fba	0.037612654
152	0xbcb283a2	-0.021791283
153	0xbe7fec67	-0.24992524
154	0x3ecb03d2	0.39651352
155	0x3e16298f	0.14664291
156	0x3d4884e9	0.048954878
157	0x3e2df25b	0.16986983
158	0x3de7ecb2	0.11324443
159	0xbe041b15	-0.12900956
160	0xbe89b1b8	-0.268934
161	0xba8141b2	-0.0009861498
162	0xbe15c45d	-0.14625688
163	0xbe1c05b9	-0.15236558
164	0x3c281f75	0.010261406
165	0xba2fb54b	-0.0006702735
166	0x3dd3479e	0.10316394
167	0x3e5d2594	0.21596366
168	0xbde9fc4c	-0.11425075
169	0xbe36cbc6	-0.17851171
170	0xb8aa7919	-8.128788e-05
171	0xbd61a6c6	-0.05509069
172	0x3e7f2cc8	0.24919426
173	0x3e6bad79	0.23015393
174	0xbd949e10	-0.072567105
175	0xbe0c09d6	-0.13675627
176	0xbe2304fd	-0.15919872
177	0xbe212d63	-0.1573997
178	0xbca58992	-0.0202072
179	0xbd04a4e6	-0.032383822
180	0x3d18b3bf	0.037280794
181	0xbce4929b	-0.027901938
182	0x3dda2bac	0.10652861
183	0x3e170435	0.14747699
184	0xbe45ea69	-0.19327702
185	0x3d918567	0.071055226
186	0x3e081b4e	0.13291666
187	0xbe379678	-0.17928493
188	0x3d44bbd7	0.0480307
189	0xbd36a01c	-0.044586286
190	0x3dbe4f1d	0.092924334
191	0x3ddeebc0	0.108848095
192	0xbeb4e818	-0.35333323
193	0xbc169270	-0.009190187
194	0x3ae88a84	0.0017741476
195	0xbe25d1ea	-0.16193357
196	0x3cee29b1	0.029072614
197	0xbbd727b5	-0.0065660127
198	0x3e6ce282	0.23133281
199	0xbeaf9a3a	-0.34297353
200	0x3d015729	0.031577263
201	0xbddbd4f8	-0.1073398
202	0xbe6be670	-0.23037124
203	0xbe201411	-0.15632655
204	0x3e477566	0.19478378
205	0x3e5e65ef	0.21718572
206	0x3e4bf2a7	0.19916783
207	0x3e58bc43	0.21165566
208	0xbcf996f8	-0.030467495
209	0xbaf4621a	-0.0018644959
210	0x3dfb2502	0.12262918
211	0xbe082c93	-0.13298254
212	0xbe11ed76	-0.1425074
213	0x3cb5f5fb	0.02221202
214	0x3d78225f	0.060579654
215	0x3e084cc6	0.13310537
216	0x3e168b40	0.14701557
217	0xbd7cdfbf	-0.06173682
218	0xbe0c14af	-0.13679765
219	0xbda7502a	-0.08169587
220	0x3dc08f23	0.09402301
221	0x3e039510	0.12849832
222	0x3ddaf897	0.10691946
223	0xbe070e94	-0.13189155
224	0xbd8dd2b6	-0.069249555
225	0x3deb9fd1	0.11505092
226	0x3d484b96	0.04890021
227	0xbdb6bea8	-0.089230835
228	0x3e66bcd8	0.22532976
229	0xbe2984e5	-0.16554601
230	0x3deb7f56	0.11498897
231	0x3d91756d	0.07102475
232	0xbd1e5d50	-0.03866321
233	0x3d902921	0.07039095
234	0x3dc88ae7	0.097921185
235	0x3db030a7	0.0860303
236	0x3d34fbf8	0.04418561
237	0xbe8ce331	-0.27517083
238	0x3d9b63ed	0.07587419
239	0x3dd78820	0.10524011
240	0xbe4c2e03	-0.19939427
241	0x3cbb0666	0.0228302
242	0x3e08fab7	0.1337689
243	0x3e1b138d	0.15144177
244	0xbebd5ae1	-0.36983398
245	0xbe5315ea	-0.20613828
246	0x3cfa14c5	0.030527482
247	0xbcc912f0	-0.024545163
248	0xbd82f05f	-0.063935034
249	0x3e6f4948	0.23367798
250	0x3db2de64	0.08733824
251	0x3e5776db	0.21041434
252	0x3d448b27	0.04798427
253	0xbd92300f	-0.07138073
254	0xbc364b55	-0.011126359
255	0xbc355d44	-0.0110696

bias f4 [32]
0	0x39054a9c	0.00012711663
1	0xbd15871c	-0.036505803
2	0x3d2107ef	0.039314207
3	0x3d45ace1	0.048260573
4	0x3e1fc2c4	0.15601641
5	0x3dd14a11	0.10219205
6	0xbc494e4c	-0.012286734
7	0x3d099fac	0.03359954
8	0x3d8cad38	0.06868976
9	0xbc8f49cc	-0.017491244
10	0xbd406533	-0.04697151
11	0xbd581aac	-0.05275981
12	0xbcfaf6f5	-0.030635336
13	0x3d38a566	0.04507961
14	0xbddbfe61	-0.10741878
15	0x3d864890	0.06556809
16	0xbe0168bd	-0.1263761
17	0x3cb62856	0.02223603
18	0x3db1cc45	0.086815394
19	0xbd9df894	-0.07713428
20	0x3de8ad92	0.11361231
21	0x3d925120	0.071443796
22	0xbd896ccb	-0.06710204
23	0xbd8b93cf	-0.068153016
24	0x3e0afdc7	0.13573371
25	0x3c19b4b2	0.00938146
26	0xbde60c28	-0.11232787
27	0xbd9bd021	-0.07608057
28	0xbd3b6060	-0.045746207
29	0xbca7ceb7	-0.020484312
30	0xbd133bff	-0.03594589
31	0x3c7668b4	0.015039612

weight f4 [32, 32]
0	0xbc498ebb	-0.012302096
1	0xbe048e23	-0.12944846
2	0xbd69ddd1	-0.057096306
3	0x3db06573	0.086131
4	0xbe2632cc	-0.16230315
5	0xbe93b24e	-0.28846973
6	0x3e90a760	0.28252697
7	0xbe8e283f	-0.2776508
8	0xbb16b8a7	-0.0022998245
9	0xbe84fd21	-0.25974372
10	0xbe9ab46b	-0.30215773
11	0xbc63244d	-0.013863635
12	0x3e99ceb6	0.3004052
13	0xbe4b2fe9	-0.19842495
14	0x3e11ec45	0.14250286
15	0xbe95e1b2	-0.29273754
16	0x3e89c27c	0.26906192
17	0xbd96bb88	-0.073599875
18	0xbe34f800	-0.1767273
19	0x3e287fd3	0.16455011
20	0xbdf97f11	-0.12182439
21	0xbd413e87	-0.04717877
22	0x3eb7c1c4	0.3589002
23	0x3e15c517	0.14625965
24	0xbe148430	-0.1450355
25	0x3d248e2d	0.040174652
26	0x3ea2c313	0.31789455
27	0x3da8a3d2	0.08234371
28	0xbea3f482	-0.32022482
29	0xbe62391d	-0.220921
30	0xbe4f2768	-0.20229876
31	0xba9a232c	-0.001175975
32	0xbe65f017	-0.22454868
33	0x3eed6601	0.46366885
34	0x3dd01f66	0.10162239
35	0xbe2b886d	-0.16751261
36	0x3ec9d28a	0.3941844
37	0x3ea06c1a	0.31332475
38	0xbd4e712c	-0.050400898
39	0x3e9167f3	0.2839962
40	0x3ec44b19	0.38338545
41	0x3e29a194	0.16565543
42	0x3ee9b1e5	0.45643535
43	0x3e74ea3a	0.23917475
44	0xbeda6d42	-0.42661482
45	0x3e29cc94	0.16581947
46	0xbe725926	-0.2366682
47	0x3e99b284	0.3001901
48	0xbe8ccc44	-0.27499592
49	0x3efb51d1	0.49085858
50	0x3ddac70c	0.106824964
51	0xbe3a0c19	-0.18168677
52	0x3cde33d7	0.027124329
53	0x3ed80f58	0.42199206
54	0xbeba843e	-0.36429018
55	0xbed414da	-0.41422158
56	0x3e9fba42	0.3119679
57	0xbea19216	-0.31556767
58	0xbe81a7a6	-0.25323218
59	0xbde31bbe	-0.11089276
60	0x3eafbe28	0.34324765
61	0x3e339754	0.17538196
62	0x3ed698cf	0.4191346
63	0x3e8205c9	0.2539504
64	0x3e8879ff	0.26655576
65	0xbd15b87a	-0.036552884
66	0xbded32cd	-0.11581955
67	0x3e42dc2d	0.19029303
68	0xbe8f4ecc	-0.27989805
69	0xbcd9655e	-0.026537593
70	0x3e82eb98	0.2557037
71	0xbe14db7e	-0.14536855
72	0xbe99592d	-0.29950848
73	0xbe5c39b8	-0.21506393
74	0xbdcddff9	-0.10052485
75	0x3c3d34bc	0.011548217
76	0x3eb1cb4e	0.34725422
77	0xbe019a2b	-0.12656467
78	0x3e338fbc	0.17535299
79	0xbeb7f653	-0.35930118
80	0x3e7570c1	0.23968793
81	0xbdc09c26	-0.09404783
82	0xbe9d52cf	-0.3072724
83	0x3dd52d2f	0.10409009
84	0xbe35aa29	-0.17740692
85	0xbdb01580	-0.08597851
86	0x3d63f224	0.055650845
87	0x3d33646a	0.043796934
88	0xbdd680fd	-0.10473821
89	0xbbdefd2b	-0.0068050823
90	0x3e55a8e2	0.20865205
91	0x3ea2d1fc	0.3180083
92	0xbdb9d261	-0.0907333
93	0xbd65ab22	-0.056071408
94	0xbea67473	-0.3251072
95	0xbd9c5caa	-0.07634862
96	0xbdabf005	-0.083953895
97	0x3e15fb0c	0.14646548
98	0x3e00f56a	0.12593618
99	0xbeb6846c	-0.35647905
100	0x3d1b082a	0.037849583
101	0x3d3912cb	0.045183938
102	0xbcccc6d5	-0.024997154
103	0xbc747ded	-0.014922601
104	0x3e1a8b7e	0.15092275
105	0x3e86ea55	0.26350656
106	0x3e137a4d	0.14402123
107	0x3e50c8a2	0.20389035
108	0xbeca2949	-0.39484623
109	0x3e842a21	0.25813392
110	0xbe6b7cdd	-0.2299685
111	0x3e4db1cd	0.20087357
112	0xbcdb9885	-0.026806125
113	0x3e82ed43	0.2557164
114	0x3e801211	0.25013784
115	0xbec04d02	-0.37558752
116	0x3e924df7	0.28575107
117	0x3e8a5706	0.2701952
118	0xbed21cc5	-0.41037574
119	0xbeb2270a	-0.3479541
120	0x3ecc9595	0.39957872
121	0xbe8477d4	-0.25872672
122	0xbe80bb4d	-0.251429
123	0xbe675857	-0.22592293
124	0x3e53796a	0.20651785
125	0x3e7c81ad	0.24658842
126	0x3e4c76a0	0.19967127
127	0x3db55d42	0.08855678
128	0x3eb12315	0.34597078
129	0xbebee873	-0.3728672
130	0xbe965fea	-0.29370052
131	0x3d973bcf	0.073844545
132	0xbe9b2601	-0.30302432
133	0xbed57b34	-0.4169556
134	0x3e2f3dcd	0.17113419
135	0xbe962f5f	-0.29333016
136	0xbe184c16	-0.14872774
137	0xbcd66dcf	-0.026175408
138	0xbe89184b	-0.26776347
139	0xbb9dc1f3	-0.0048143803
140	0x3e760d6b	0.24028556
141	0xbeae32d6	-0.3402316
142	0x3ed41cac	0.41428125
143	0xbecadce7	-0.3962166
144	0x3eca268d	0.39482537
145	0xbeb266da	-0.34844095
146	0xbe892cb0	-0.26791906
147	0x3e3ca75f	0.18423222
148	0xbd58e623	-0.05295385
149	0xbeb88e60	-0.36046124
150	0x3ea39d18	0.3195579
151	0x3dd57207	0.104221396
152	0xbed9d88e	-0.4254803
153	0x3d2fd191	0.042924467
154	0x3e7ee4ad	0.2489192
155	0x3e54e842	0.20791724
156	0xbd73a167	-0.059480097
157	0xbe8327c6	-0.25616282
158	0xbe48cea7	-0.19610082
159	0xbd6db980	-0.058038235
160	0x3e790c1d	0.24321027
161	0xbecd80d8	-0.40137362
162	0xbd73240b	-0.059360545
163	0x3e77565c	0.24154037
164	0xbda26a07	-0.07930379
165	0xbeb91722	-0.3615046
166	0x3e54bb78	0.20774639
167	0xbe1b3193	-0.1515563
168	0xbd9819a1	-0.07426763
169	0xbe3c755f	-0.18404149
170	0xbd7ad358	-0.06123671
171	0xbe97f9ac	-0.29682672
172	0x3e86b396	0.26308888
173	0xbe1358a1	-0.14389278
174	0x3e84677d	0.25860205
175	0xbe303043	-0.1720591
176	0x3e812558	0.25223804
177	0xbe9482ff	-0.29006192
178	0xbebc8a2a	-0.3682416
179	0x3eb0161d	0.3439187
180	0x3b25df02	0.0025309925
181	0xbe58c5f5	-0.21169265
182	0x3e8fb2cb	0.28066096
183	0x3e9fd75e	0.31219
184	0xbec1e128	-0.37867093
185	0x3e77d361	0.24201728
186	0x3da9cfeb	0.0829161
187	0x3ecb110d	0.39661446
188	0xbecb68e7	-0.39728472
189	0xbeb0a589	-0.34501293
190	0xbdd84eea	-0.10561927
191	0xbd84be3b	-0.06481596
192	0x3e869772	0.2628742
193	0xbdfd5165	-0.123690404
194	0xbea58cfb	-0.32334122
195	0x3ea0f112	0.31433922
196	0xbe62d052	-0.2214978
197	0xbe9ed804	-0.31024182
198	0x3e148527	0.14503919
199	0xbe8d39f7	-0.27583286
200	0xbd795478	-0.06087157
201	0xbe1051ed	-0.14093752
202	0xb7ee8e93	-2.8438202e-05
203	0x3d38c3a9	0.04510847
204	0x3e9799f4	0.29609644
205	0xbe8ef7d4	-0.27923453
206	0x3e1f8885	0.15579422
207	0xbea3540f	-0.3190007
208	0x3e95b598	0.29240108
209	0xbec8e030	-0.3923354
210	0xbdd7a37e	-0.105292305
211	0x3e371e5c	0.17882675
212	0xbe0d56e7	-0.13802682
213	0xbe6b18d8	-0.22958696
214	0x3eb2360c	0.3480686
215	0x3e16f0e5	0.14740331
216	0xbe434c33	-0.19072036
217	0x3da28c7b	0.07936951
218	0x3d848d15	0.06472222
219	0x3e0fa041	0.14025976
220	0xbe4960ee	-0.19665882
221	0xbda7c801	-0.081924446
222	0xbe0e823f	-0.13916872
223	0xbdc7fd3a	-0.09765096
224	0x3e977346	0.29580134
225	0xbdfcca91	-0.12343324
226	0xbe3c2625	-0.18373926
227	0x3e4215c1	0.18953611
228	0xbeb1811d	-0.34668818
229	0xbe058e39	-0.13042535
230	0x3e459821	0.19296314
231	0xbdef93ce	-0.116981134
232	0xbea276ee	-0.3173136
233	0xbe49a088	-0.19690144
234	0xbe66510d	-0.22491856
235	0xbe35e681	-0.17763712
236	0x3ebddd9a	0.3708313
237	0xbe3c28db	-0.1837496
238	0x3e271096	0.16314921
239	0xbe4211ba	-0.18952075
240	0x3ebf2da6	0.37339514
241	0xbe5e9039	-0.21734704
242	0xbea71366	-0.32631987
243	0x3e503812	0.20333889
244	0xbe374274	-0.17896444
245	0xbe77c8df	-0.2419772
246	0x3e93f231	0.28895715
247	0x3e7df824	0.2480169
248	0xbe98df94	-0.29858077
249	0x3e43f2ed	0.19135638
250	0x3dad7eda	0.08471461
251	0x3ec6dcf0	0.38840437
252	0xbe4af5dd	-0.19820352
253	0xbe25b1d7	-0.16181122
254	0xbe95c88a	-0.29254562
255	0xbe7f7b2d	-0.24949332

bias f4 [32]
0	0xbdbe71fc	-0.092990845
1	0x3d898c09	0.06716163
2	0xb8e800e7	-0.0001106279
3	0x3dc21527	0.09476691
4	0x3d0ad78e	0.033896975
5	0x3d16731b	0.036730867
6	0x3bda1cc8	0.006656263
7	0x3da8b7db	0.08238193
8	0xbd647596	-0.0557762
9	0x3d7b1016	0.061294638
10	0x3dc768b1	0.09736765
11	0xbc0766c3	-0.008264246
12	0x3d4a6d38	0.049420565
13	0xbe1da21b	-0.1539387
14	0x3dcd0f79	0.10012717
15	0xbc9cad2c	-0.019125544
16	0xbda8e584	-0.08246902
17	0xbc8280a0	-0.015930474
18	0xbdcacac5	-0.099019565
19	0xbda82f5c	-0.08212158
20	0xbd6e57a9	-0.058189068
21	0x3bfb0ebf	0.00766167
22	0xbc63d008	-0.013904579
23	0xbe00d1bf	-0.12580012
24	0xbd9956ac	-0.074872345
25	0xbcd850b2	-0.026405666
26	0xbdf6e087	-0.12054544
27	0x3cb67acb	0.02227535
28	0xbccb43c1	-0.024812581
29	0x3dd9e26b	0.10638889
30	0xbcc81d65	-0.024428079
31	0x3d76e425	0.06027617

weight f4 [1, 32]
0	0xbeb9db06	-0.36299914
1	0x3e9c9412	0.3058172
2	0xbebcb370	-0.3685565
3	0x3eaa7d80	0.33298874
4	0xbe9a0d2a	-0.30088168
5	0xbeaaba02	-0.33345038
6	0xbec7276d	-0.38897267
7	0xbe8f09e0	-0.27937222
8	0xbe842d85	-0.2581598
9	0x3e7e2033	0.2481697
10	0xbec82660	-0.39091778
11	0x3ea43b0e	0.32076305
12	0x3e5f5e22	0.21813253
13	0xbec7a843	-0.3899556
14	0x3ea78c7c	0.3272437
15	0x3ea13680	0.31486893
16	0xbe842207	-0.2580721
17	0x3e9a75bd	0.30167952
18	0xbec799f4	-0.38984644
19	0xbd4ee348	-0.05050972
20	0x3e9e7fa6	0.30956763
21	0xbeb78847	-0.3584616
22	0xbe98f2df	-0.29872796
23	0xbeb77cac	-0.35837305
24	0xbeab4504	-0.33451092
25	0x3ebd895c	0.3701886
26	0xbeb4e49b	-0.35330662
27	0xbed79749	-0.4210761
28	0xbeb5153a	-0.35367757
29	0x3e954109	0.2915118
30	0xbea0702c	-0.3133558
31	0xbe95d0d6	-0.29260892
