alanine/models/model_1_q.pt (torch, 30627 bytes, 6 tensors)

mass f4 [30]
0	0x41402d0e	12.011
1	0x41402d0e	12.011
2	0x41402d0e	12.011
3	0x41402d0e	12.011
4	0x41402d0e	12.011
5	0x41402d0e	12.011
6	0x417ffbe7	15.999
7	0x417ffbe7	15.999
8	0x417ffbe7	15.999
9	0x41601cac	14.007
10	0x41601cac	14.007
11	0x41601cac	14.007
12	0x41402d0e	12.011
13	0x41402d0e	12.011
14	0x41402d0e	12.011
15	0x41402d0e	12.011
16	0x41402d0e	12.011
17	0x41402d0e	12.011
18	0x41402d0e	12.011
19	0x41402d0e	12.011
20	0x41402d0e	12.011
21	0x417ffbe7	15.999
22	0x417ffbe7	15.999
23	0x417ffbe7	15.999
24	0x41601cac	14.007
25	0x41601cac	14.007
26	0x41601cac	14.007
27	0x41402d0e	12.011
28	0x41402d0e	12.011
29	0x41402d0e	12.011

weight f4 [32, 45]
0	0xbddc41f2	-0.107547656
1	0xbd94087b	-0.0722818
2	0xbe103702	-0.14083484
3	0xbe43259b	-0.19057314
4	0x3da3291c	0.07966825
5	0x3d300fe2	0.042983897
6	0x3e3d853e	0.18507859
7	0x3e7161fe	0.23572537
8	0xbd308081	-0.0430913
9	0xbdb1fbe0	-0.086906195
10	0xbe18ae18	-0.14910161
11	0xbe2314c5	-0.15925892
12	0x3e0a0994	0.13480216
13	0x3e267ea6	0.1625925
14	0x3d1c8dc8	0.03822115
15	0x3df7b4be	0.12095021
16	0xbce3f35f	-0.02782601
17	0xbc983365	-0.018579194
18	0xbe6bb712	-0.23019055
19	0x3dcb40c6	0.09924464
20	0xbdf79a66	-0.12089996
21	0x3e369829	0.17831482
22	0x3c8d046e	0.017214026
23	0x3dbe1321	0.09280992
24	0xbc81891c	-0.01581245
25	0xbe65061d	-0.22365613
26	0x3e4322ce	0.19056246
27	0xbdd5a00f	-0.104309194
28	0xbd159006	-0.036514305
29	0xbe0e1b6b	-0.13877647
30	0xbd1f0423	-0.038822304
31	0xbe403790	-0.18771195
32	0xbe57c610	-0.21071649
33	0xbe07b149	-0.13251223
34	0xbd292416	-0.04129418
35	0x3df467fc	0.11933896
36	0x3e92ab00	0.28646088
37	0xbe44de9e	-0.19225547
38	0x3c600887	0.013673908
39	0xbe0c8a09	-0.13724531
40	0x3d89d107	0.06729322
41	0xbe156a41	-0.14591314
42	0xbde44690	-0.11146271
43	0xbddce089	-0.10785014
44	0x3dc85821	0.09782434
45	0x3dba3951	0.090929635
46	0x3bee8e2b	0.0072801313
47	0xbdd56625	-0.10419873
48	0x3d534b61	0.05158556
49	0x3d8059cb	0.06267127
50	0x3d7f89f7	0.062387433
51	0xbc4f4259	-0.012650096
52	0xbdccfba7	-0.100089364
53	0x3b34d8bf	0.002759501
54	0xbb314ab6	-0.0027052588
55	0x3e386d49	0.18010439
56	0xbe11fd63	-0.14256816
57	0x3dd4bc2d	0.10387454
58	0x3d8b7982	0.06810285
59	0xbc9f3295	-0.0194333
60	0xbdb809f9	-0.08986277
61	0x3dda68ce	0.10664521
62	0xbe09c877	-0.13455378
63	0xbe8496dc	-0.25896347
64	0x3ec7359f	0.38908097
65	0xbc51ab68	-0.012797214
66	0x3e0de576	0.13857064
67	0x3e63f0d6	0.2225984
68	0x3e4f900e	0.20269796
69	0x3e03b27c	0.12861055
70	0xbea011d0	-0.3126359
71	0x3e1035ac	0.14082974
72	0xbe00c48c	-0.12574977
73	0xbe0190f6	-0.12652954
74	0xbbc52064	-0.006015824
75	0xbe887e1a	-0.26658708
76	0x3dfd7517	0.12375849
77	0x3d61c811	0.05512244
78	0xbd51678e	-0.051124148
79	0xbd064eca	-0.032789983
80	0xbd6943cd	-0.056949425
81	0xbd2898a5	-0.0411612
82	0xbd5d7a00	-0.054071426
83	0xbde648c8	-0.11244351
84	0x3d9e926b	0.07742771
85	0x3e0bba8c	0.1364538
86	0xbd9ce1e6	-0.07660274
87	0x3d7bdcec	0.061489984
88	0xbdec9b27	-0.115530305
89	0xbe168b0f	-0.14701484
90	0x3e1bc95c	0.15213531
91	0x3d8a9e0f	0.067684285
92	0xbcfada73	-0.030621743
93	0x3ddc8e8e	0.10769378
94	0x3ddd7f4d	0.10815296
95	0xbd1f7408	-0.038929015
96	0x3da81252	0.08206619
97	0xbd5a2c46	-0.05326488
98	0xbe310372	-0.1728647
99	0x3e4b7b7b	0.19871323
100	0x3d4aa934	0.04947777
101	0x3e008abe	0.12552926
102	0x3d6f3229	0.058397446
103	0x3c244277	0.010025612
104	0x3da65da9	0.08123333
105	0xbd8eb33a	-0.069677785
106	0xbda34aaf	-0.07973229
107	0x3dc53973	0.09630098
108	0x3e9d580c	0.30731237
109	0xbde86ee5	-0.113492765
110	0xbd126b20	-0.035746694
111	0xbe211e24	-0.15734154
112	0xbe896759	-0.2683666
113	0xbe9c0561	-0.30472854
114	0xbe3b111c	-0.18268245
115	0x3e72c52d	0.23708029
116	0x3e02c570	0.12770629
117	0xbca20b64	-0.019780822
118	0x3e1e875e	0.15481326
119	0x3deae202	0.11468889
120	0x3deb30fa	0.11483951
121	0x3d05013f	0.03247189
122	0x3ce99c21	0.02851683
123	0x3ddcac4a	0.10775049
124	0x3e6ef514	0.23335677
125	0x3d8796fc	0.06620595
126	0xbe01c626	-0.12673244
127	0x3e1d6c0c	0.15373248
128	0xbdec8485	-0.115487136
129	0xbc8cc8c1	-0.01718557
130	0x3e387952	0.1801503
131	0x3e54d7e2	0.20785478
132	0x3d8e7678	0.0695619
133	0x3d7ab1dd	0.06120478
134	0xbd156c43	-0.0364802
135	0x3df70204	0.12060931
136	0x3ceb7ffd	0.028747553
137	0x3d4a1c34	0.049343303
138	0x3bf42093	0.007450172
139	0xbd60b526	-0.054860257
140	0xbdf4da9e	-0.119557604
141	0x3d959bf0	0.07305133
142	0xbc2270df	-0.009914606
143	0xbdc27138	-0.09494251
144	0xbd4318e8	-0.047631174
145	0xbd166aa8	-0.03672281
146	0xbe1d4e06	-0.15361795
147	0x3d63e24d	0.05563574
148	0xbc8b3323	-0.016992157
149	0x3dcff529	0.101541825
150	0xbdc187d2	-0.09449734
151	0x3d6621f2	0.056184717
152	0xbcd62397	-0.026140017
153	0xbea59157	-0.32337448
154	0x3e894c29	0.26815918
155	0x3cffe616	0.031237643
156	0x3db64045	0.08898977
157	0x3dcb3261	0.099217184
158	0x3e0c6e92	0.13714054
159	0x3de19beb	0.11016067
160	0xbe832353	-0.25612888
161	0x3e201e62	0.1563659
162	0xbcd22224	-0.025651045
163	0xbdb479c1	-0.08812285
164	0x3d6e5255	0.058183987
165	0x3c405568	0.011739112
166	0x3db65eeb	0.08904823
167	0x3d9425e2	0.07233788
168	0xbd62c763	-0.05536593
169	0xbe2b9cd4	-0.16759044
170	0x3d2f341f	0.042774316
171	0x3e5dd9e5	0.21665151
172	0xbb0c99e9	-0.0021454042
173	0x3dfc94d4	0.12333074
174	0xbe19fe34	-0.15038377
175	0xbe396749	-0.18105806
176	0xbe3671fe	-0.17816922
177	0xbe5dd1e7	-0.21662103
178	0xbd897ebf	-0.06713628
179	0xbc23fdb9	-0.010009223
180	0xbcf6d08d	-0.030128742
181	0xbd8ed872	-0.069748774
182	0x3db29e3c	0.08721587
183	0x3d9b7dd9	0.07592363
184	0xbe0e4fe9	-0.13897671
185	0x3d0596b5	0.03261443
186	0x3df1fa49	0.11815316
187	0xbe50e349	-0.20399202
188	0x3d37d497	0.044880476
189	0xbcf64d1e	-0.03006607
190	0x3d886140	0.06659174
191	0x3d271a52	0.040796585
192	0xbe8c418d	-0.2739376
193	0xbc867f5d	-0.016418153
194	0xbcff2413	-0.031145131
195	0xbe3b89c0	-0.18314266
196	0x3c1c598d	0.009542835
197	0x39d27456	0.00040140998
198	0x3e8de95b	0.277171
199	0xbee63549	-0.44962528
200	0x3d813cf4	0.06310454
201	0xbe011acc	-0.12607878
202	0xbe8425d0	-0.258101
203	0xbe593e40	-0.21215153
204	0xbd511820	-0.051048398
205	0x3eb9db52	0.3630014
206	0x3d8a41df	0.06750845
207	0x3e4350fd	0.19073863
208	0xbd9df2b9	-0.07712311
209	0xbc9c36c0	-0.019069076
210	0x3eaa2590	0.33231783
211	0xbe80faef	-0.25191447
212	0xbe0126cb	-0.12612455
213	0xbd8382ea	-0.06421454
214	0x3cb09e4d	0.021559859
215	0x3e56b845	0.20968731
216	0x3d482ac8	0.048868924
217	0x3e062631	0.13100506
218	0xbd6b2a38	-0.05741331
219	0xbd96e731	-0.07368315
220	0x3d38645a	0.045017578
221	0x3e06d571	0.13167359
222	0x3d30ceac	0.043165848
223	0xbe2fc7c9	-0.17166056
224	0xbdaf3504	-0.08555034
225	0x3cc61096	0.02417783
226	0x3de125a5	0.10993508
227	0xbe1bd8c9	-0.15219416
228	0x3d875501	0.0660801
229	0x3dbf7094	0.093476444
230	0x3db1c7b8	0.086806715
231	0x3d2d5b60	0.04232347
232	0xbcb659a1	-0.022259535
233	0xbc0213ac	-0.00793926
234	0x3deebbdf	0.11656927
235	0x3d161000	0.036636353
236	0xbe801b49	-0.25020817
237	0x3e2889a2	0.16458753
238	0x3def9711	0.116987355
239	0x3e36219e	0.17786261
240	0xbe4a78e9	-0.19772686
241	0x3a78f1ae	0.00094964623
242	0xbcd9f01c	-0.02660375
243	0xbedc67f1	-0.4304805
244	0x3eafd268	0.34340215
245	0xbe547702	-0.20748523
246	0x3e66bea8	0.22533667
247	0xbd8026b9	-0.06257386
248	0xbca2bcc1	-0.019865396
249	0x3eaf649e	0.34256452
250	0xbec828bd	-0.3909358
251	0x3df534b2	0.119729415
252	0xbd8743b2	-0.06604709
253	0xbe43c817	-0.19119297
254	0xbe52f819	-0.20602454
255	0xbe32b892	-0.1745322

bias f4 [32]
0	0x3b9edc32	0.0048480267
1	0xbd929e9c	-0.071591586
2	0x3d0c39a7	0.03423467
3	0x3db5b6e7	0.088727765
4	0x3e18c050	0.14917111
5	0x3df99d29	0.12188179
6	0xbba55c01	-0.005046368
7	0x3d65dd13	0.056119036
8	0x3d9904be	0.074716076
9	0xbd05f94c	-0.03270845
10	0xbd604380	-0.054751873
11	0xbd48f82d	-0.049064804
12	0xbb9077b2	-0.0044088
13	0x3c652783	0.013986471
14	0xbdee2387	-0.1162787
15	0x3a620fae	0.0008623552
16	0xbdd8bf92	-0.10583414
17	0xbc8fe0b5	-0.017563203
18	0x3d7a5c65	0.06112327
19	0xbd9125f8	-0.0708732
20	0x3ddbae87	0.10726648
21	0x3e3de089	0.18542685
22	0xbd982e6d	-0.0743073
23	0xbd910b93	-0.07082286
24	0x3dc0625c	0.093937606
25	0x3cebee45	0.02880014
26	0xbdbf3aa9	-0.093373604
27	0xbde7acb5	-0.11312238
28	0xbd7a30db	-0.06108175
29	0xbd2be558	-0.041966766
30	0xbdaa348d	-0.083108045
31	0x3ca95b06	0.020673286

weight f4 [32, 32]
0	0x3cf75b9e	0.030195054
1	0x3e0d7be9	0.13816799
2	0xbd56377d	-0.05229901
3	0x3e87e444	0.2654134
4	0xbe30b7b0	-0.17257571
5	0x3e2ea59c	0.17055362
6	0x3e5fe950	0.21866345
7	0xbea7b9aa	-0.32758838
8	0x3c2b9dd5	0.010474642
9	0xbe5b6fc4	-0.21429354
10	0xbe978bcc	-0.29598844
11	0x3c3d9cbd	0.011573014
12	0x3eab084c	0.33404768
13	0xbeb12542	-0.34598738
14	0x3dcbf32f	0.09958493
15	0xbec68de8	-0.3878014
16	0x3f083665	0.53208
17	0x3e0ee420	0.1395421
18	0xbe418e6d	-0.18901987
19	0x3e21a111	0.15784098
20	0xbe04acf5	-0.12956603
21	0x3e5d7a1b	0.21628611
22	0xbd9b89b8	-0.07594627
23	0x3e322f56	0.1740087
24	0xbe78db19	-0.24302329
25	0x3db7d6d1	0.0897652
26	0x3e94741a	0.28994828
27	0x3b6d5874	0.0036216052
28	0xbe72496e	-0.23660824
29	0xbe829c25	-0.25509754
30	0xbf4d52cc	-0.80204463
31	0xbc888948	-0.016667023
32	0xbde1a2d6	-0.110173866
33	0xbd8e2d65	-0.06942252
34	0x3e08f530	0.13374782
35	0xbea171c5	-0.31532112
36	0x3ee01a30	0.4376998
37	0xbebd14e0	-0.3692999
38	0x3e0f4656	0.13991675
39	0x3eb55673	0.35417518
40	0x3ec3deda	0.3825596
41	0x3e091a72	0.13388994
42	0x3ebdda02	0.3708039
43	0x3e3a8d6c	0.1821801
44	0xbf0084ba	-0.50202525
45	0x3ebdd884	0.3707925
46	0xbe51567e	-0.2044315
47	0x3ee0fffe	0.43945307
48	0xbf2faab7	-0.68619865
49	0x3d204402	0.039127357
50	0x3e29e40d	0.165909
51	0xbe536af9	-0.20646276
52	0x3c92b129	0.017906742
53	0x3e865af1	0.26241258
54	0x3e464704	0.19363028
55	0xbe9ec97c	-0.31013095
56	0x3eeae2b3	0.45876083
57	0xbf0b9f76	-0.54540193
58	0xbe9676c7	-0.29387495
59	0xbe98762c	-0.29777658
60	0x3e420d25	0.18950327
61	0x3e762fdc	0.24041694
62	0x3f9d1166	1.2270935
63	0x3e90804c	0.28222883
64	0x3eaff05e	0.34363073
65	0x3e7b4102	0.24536517
66	0xbe1e7b22	-0.15476659
67	0x3ed03087	0.40662023
68	0xbe923c53	-0.2856165
69	0x3ef0b948	0.47016358
70	0x3e6d87d0	0.2319634
71	0xbe499b4b	-0.19688146
72	0xbe92f829	-0.28704956
73	0xbe25a4ab	-0.16176097
74	0xbdbf6002	-0.09344484
75	0x3c6645c3	0.014054718
76	0x3edb46ee	0.42827553
77	0xbea56e35	-0.32310644
78	0x3e14c9d3	0.14530115
79	0xbefd5f0e	-0.49486583
80	0x3f09ac73	0.5377876
81	0x3e118714	0.14211684
82	0xbe9f6476	-0.31131333
83	0x3dd26dfe	0.102748856
84	0xbe335ae0	-0.17515135
85	0x3e319535	0.17342074
86	0xbed0510e	-0.4068684
87	0x3da1b2bd	0.0789542
88	0xbe5ca6f4	-0.21548063
89	0x3da5b479	0.08091063
90	0x3e7eedb7	0.24895369
91	0x3e90cc04	0.28280652
92	0xbd10281a	-0.035194494
93	0xbdab5cde	-0.083673224
94	0xbf81c38e	-1.0137804
95	0xbdb789f7	-0.089618616
96	0xbde95b83	-0.113944076
97	0xbe3e406b	-0.18579261
98	0x3def9fa5	0.11700372
99	0xbf13e6db	-0.5777413
100	0x3cd2ee41	0.025748374
101	0xbf0ac081	-0.5419999
102	0x3d8e74a4	0.06955841
103	0x3c66318c	0.014049899
104	0x3dece756	0.11567561
105	0x3e3a68e7	0.1820408
106	0x3dcf7701	0.1013012
107	0x3e277e53	0.16356783
108	0xbedf457d	-0.43607703
109	0x3ee4f75e	0.44719976
110	0xbe2bea50	-0.16788602
111	0x3eac2634	0.33622897
112	0xbea16392	-0.3152128
113	0xbd40a658	-0.047033638
114	0x3e6d0a28	0.23148406
115	0xbeb65211	-0.35609487
116	0x3e86f707	0.26360342
117	0xbd70ad48	-0.058759004
118	0x3df0aff2	0.11752309
119	0xbeabb23d	-0.33534423
120	0x3efb5afc	0.49092853
121	0xbe974b4f	-0.29549643
122	0xbe524b1d	-0.20536466
123	0xbe1fdecf	-0.15612338
124	0x3de9b549	0.114115305
125	0x3e7e1d00	0.2481575
126	0x3f658a76	0.896644
127	0x3d9d2ed2	0.07674946
128	0x3e9d2423	0.30691633
129	0x3d8d2090	0.068909764
130	0xbeb80319	-0.35939863
131	0x3e6e3f00	0.2326622
132	0xbeb23ce1	-0.34812072
133	0x3e212411	0.15736414
134	0x3d8d860c	0.06910333
135	0xbec7dbb0	-0.39034796
136	0xbe29ad55	-0.16570027
137	0xbcb716af	-0.022349684
138	0xbe715657	-0.23568092
139	0x3cb52ea4	0.022116967
140	0x3ea53910	0.32270098
141	0xbf07f454	-0.5310719
142	0x3ed54478	0.416538
143	0xbf02f764	-0.5115874
144	0x3f4c62c5	0.7983821
145	0xbafc3f8c	-0.0019245013
146	0xbea60769	-0.32427529
147	0x3e5a875f	0.21340702
148	0xbd912a98	-0.07088202
149	0xbe4281c0	-0.18994808
150	0xbe394e38	-0.18096244
151	0x3dd82829	0.10554535
152	0xbf1195cc	-0.56869197
153	0x3e7047e7	0.23464929
154	0x3eadfffd	0.33984366
155	0x3eb9c882	0.36285788
156	0x3d8f33b3	0.06992283
157	0xbeaaf441	-0.33389476
158	0xbf831ac2	-1.0242541
159	0xbdd4336f	-0.10361373
160	0x3e9a93f7	0.30191013
161	0xbcbe933b	-0.023263564
162	0xbdb48085	-0.08813576
163	0x3eeb715b	0.4598492
164	0xbd36ba5a	-0.044611312
165	0x3e9ad763	0.30242452
166	0x3e214fe6	0.15753135
167	0xbe4b5c52	-0.19859436
168	0xbc299842	-0.0103512425
169	0xbdb1c3ab	-0.08679899
170	0xbc9f4488	-0.019441858
171	0xbe97c445	-0.2964193
172	0x3eabacf9	0.33530405
173	0xbeba8a78	-0.36433768
174	0x3e2ec059	0.17065562
175	0xbea5232d	-0.322534
176	0x3f1fdb7f	0.624443
177	0x3d3e2b9c	0.046428308
178	0xbea9668c	-0.3308605
179	0x3e93a99b	0.28840336
180	0x3cdc5f4d	0.026900912
181	0x3d8c0398	0.06836623
182	0xbe9bcaca	-0.30428153
183	0x3ea39b82	0.3195458
184	0xbef33c56	-0.4750697
185	0x3eaa2554	0.33231604
186	0x3ddc382f	0.10752904
187	0x3eb6f878	0.35736442
188	0xbea7eabc	-0.32796276
189	0xbead33c6	-0.33828562
190	0xbf77f354	-0.96855664
191	0xbd695543	-0.056966078
192	0x3e96dbf0	0.29464674
193	0x3e111f08	0.14171994
194	0xbe979c35	-0.29611364
195	0x3efee4a7	0.49783823
196	0xbe5f33ce	-0.21797106
197	0x3e45f4af	0.1933162
198	0x3d580759	0.052741382
199	0xbe9f4480	-0.3110695
200	0xbd12f92d	-0.035882164
201	0xbd92b6c0	-0.07163763
202	0x3cf25b21	0.02958447
203	0x3d9cf806	0.07664494
204	0x3ea124be	0.31473345
205	0xbeee1b43	-0.46505174
206	0x3dc9c984	0.09852889
207	0xbee52bcf	-0.44759986
208	0x3f0cefb8	0.5505328
209	0xbe201ac0	-0.15635204
210	0xbdc2a633	-0.09504356
211	0x3e270174	0.16309148
212	0xbe043339	-0.12910165
213	0x3d55e16a	0.052216925
214	0xbdd3df64	-0.10345343
215	0x3e34948e	0.17634794
216	0xbe893516	-0.26798314
217	0x3dce8ea7	0.100858025
218	0xbc3369d2	-0.0109505225
219	0x3d4d4bf7	0.050121274
220	0xbde033cf	-0.10947382
221	0xbdb7b4fd	-0.08970068
222	0xbf4cf44e	-0.8006028
223	0xbdbda107	-0.09259229
224	0x3e717eb4	0.2358349
225	0x3ebf4ebe	0.37364763
226	0xbea01bdc	-0.31271255
227	0x3e5ae1ac	0.2137515
228	0xbede5a51	-0.4342828
229	0x3ede772f	0.43450305
230	0x3bcadc96	0.0061908467
231	0xbe843201	-0.258194
232	0xbec11613	-0.37712154
233	0xbe8408de	-0.25788015
234	0xbe0e4d4b	-0.13896672
235	0xbe860f50	-0.26183558
236	0x3ef5124d	0.47865525
237	0xbf07fc35	-0.5311921
238	0x3e654d1a	0.22392693
239	0xbedd44ad	-0.43216458
240	0x3f50b5fb	0.8152768
241	0x3e35a0d2	0.1773713
242	0xbee30288	-0.4433787
243	0x3e8c1e71	0.27366975
244	0xbe59a638	-0.21254814
245	0xbeade400	-0.33963013
246	0xbe0892e2	-0.13337281
247	0x3ea9a5e1	0.33134368
248	0xbeeccc78	-0.46249747
249	0x3ede002a	0.433595
250	0x3e1f147e	0.15535161
251	0x3f507450	0.8142748
252	0xbe026f2f	-0.12737726
253	0xbe945828	-0.28973508
254	0xbf785a4f	-0.970128
255	0xbeae0c85	-0.33993927

bias f4 [32]
0	0xbd81548e	-0.06314956
1	0x3db010bc	0.08596942
2	0x3c9635ab	0.018336138
3	0x3d8cd56a	0.06876643
4	0x3da92d54	0.08260599
5	0x3d817746	0.06321578
6	0x3d4c03b5	0.049808223
7	0x3da7552c	0.08170542
8	0xbcce8920	-0.02521187
9	0x3daa6280	0.08319569
10	0x3e06f6f8	0.13180149
11	0x3ba66a51	0.005078592
12	0x3c9fa9a1	0.019490065
13	0xbe0ab205	-0.13544472
14	0x3dac9a8c	0.08427915
15	0xbd439564	-0.047749892
16	0xbda0d775	-0.07853595
17	0xbd8ac2a7	-0.06775408
18	0xbdb350f2	-0.087556735
19	0xbd9bef18	-0.07613963
20	0xbde39047	-0.11111503
21	0x3d067838	0.032829493
22	0xbd16c67e	-0.03681039
23	0xbdd299d1	-0.102832444
24	0xbd5fe4d9	-0.054661606
25	0xbd84297d	-0.06453226
26	0xbe19f200	-0.15033722
27	0x3d17a014	0.037017897
28	0xbcee7c28	-0.029111937
29	0x3e0cbc20	0.13743639
30	0x3d077dab	0.03307883
31	0x3dc7f93e	0.09764336

weight f4 [1, 32]
0	0xbf16c64a	-0.58896315
1	0x3f2bd08f	0.6711511
2	0xbf7dca98	-0.9913726
3	0x3f3d9f0f	0.7407083
4	0xbf54579d	-0.8294619
5	0xbf7e20ec	-0.99268985
6	0xbf45a8ad	-0.77210504
7	0xbf389faa	-0.7211863
8	0xbf82512a	-1.0181019
9	0x3f5a03f2	0.8516227
10	0xbf701f4c	-0.93797755
11	0x3f3a0bb6	0.7267412
12	0x3edf4d5a	0.43613702
13	0xbf380893	-0.71888083
14	0x3f04f456	0.5193533
15	0x3f473990	0.7782221
16	0xbec26fe2	-0.37975985
17	0x3eca7dff	0.39549252
18	0xbf3e316d	-0.7429417
19	0x3f53a16f	0.82668203
20	0x3f43add6	0.7643713
21	0xbf6d670b	-0.92735356
22	0xbef50705	-0.47856918
23	0xbefd3f70	-0.4946246
24	0xbf0a5c8e	-0.5404748
25	0x3f9893a0	1.1920052
26	0xbf31440c	-0.69244456
27	0xbf40aece	-0.7526673
28	0xbf8372cc	-1.0269408
29	0x3f28207d	0.65674573
30	0xbf1fc008	-0.6240239
31	0xbf733590	-0.95003605
