two_paths_potential/models/model_2_z.pt (torch, 21351 bytes, 6 tensors)

mass f4 [2]
000000 00 00 80 3f 00 00 80 3f
       1.0 1.0

weight f4 [32, 2]
000000 b9 62 4a bf 02 f2 95 bf 6b b9 22 bf 5f de 78 bf
       -0.7905689 -1.171448 -0.63564175 -0.9721431
000010 2d 50 18 bd 2f 49 22 bd 68 89 36 3f ba 92 51 3f
       -0.037185837 -0.039620575 0.71303415 0.8186451
000020 2a a7 52 bf 25 7e 9e bf 60 95 12 bf ad a9 cb bc
       -0.8228632 -1.2382246 -0.5725918 -0.024861181
000030 43 b7 fb 3e 48 b7 1f 3f 54 95 17 be 76 1b 30 3e
       0.49163255 0.6238904 -0.14803058 0.17197976
000040 d4 12 12 bf 7e 77 f7 3e a9 30 74 3e 39 4c d1 bd
       -0.5705998 0.48333353 0.23846687 -0.102196164
000050 92 42 62 bf b9 57 cf 3f 1a 5e 93 be 91 fc 84 be
       -0.8838283 1.6198646 -0.2878273 -0.25973943
000060 3b 3b a4 bf c3 cc c8 bf ff 96 30 3f 4b 5b 2c bf
       -1.2830576 -1.5687488 0.689804 -0.673268
000070 12 8a e4 be 68 52 2c bf 89 a0 d7 be 98 8f 07 bf
       -0.4463659 -0.6731324 -0.42114666 -0.5295348
000080 47 b5 e8 be bd d0 04 bf d1 e0 6f 3e 31 f4 80 3e
       -0.45450804 -0.5188101 0.23425604 0.25186303
000090 1d 33 4f 3f c3 f3 9c bf 0d 4c ab be e1 28 c0 be
       0.8093737 -1.226189 -0.3345646 -0.37531188
0000a0 de b0 2c 3f d1 e7 d0 be a5 4f 46 be 5b d8 30 bf
       0.6745738 -0.40801862 -0.1936632 -0.6908013
0000b0 e3 97 8a 3f ad d5 c7 3f 8b 36 6c be 65 17 51 bf
       1.0827602 1.5612084 -0.23067681 -0.8167632
0000c0 6c dc 59 3e 54 6d 09 3e ab 6e bf 3e 06 e5 3b 3d
       0.2127549 0.13420612 0.3738912 0.04587271
0000d0 4b 19 0e bf 4f 99 eb 3d 0d 4d 39 bb 93 1e 60 3f
       -0.55507344 0.11503851 -0.0028274686 0.8754665
0000e0 55 3c fb be 44 2c 9e 3d b2 79 63 3e 35 1f d6 be
       -0.49069467 0.07723287 0.22214392 -0.41820684
0000f0 58 28 3b bf 1c 73 c1 3f de f5 d8 be 61 66 11 3e
       -0.73108435 1.5113254 -0.42375082 0.1419921

bias f4 [32]
000000 db 72 4a bd 4a 5c a9 bb 58 b1 58 3e a5 d4 df 3e
       -0.04942594 -0.0051684724 0.21161401 0.43716922
000010 94 31 08 3e 3d 65 ee be 6d 8c b4 3d d0 19 23 3f
       0.13300163 -0.46561614 0.088158466 0.6371126
000020 6b 71 9b be 4a 8c 22 bf bd e5 f6 3e 4c 47 31 bf
       -0.3035997 -0.63495314 0.4822215 -0.69249415
000030 c4 3e 81 bd b6 04 d8 3d 9a c2 c7 be a8 a2 59 be
       -0.063108 0.105477735 -0.39015657 -0.21253455
000040 62 ed 73 3e 5c f6 d3 bc 05 76 95 be 19 d9 0b bf
       0.23821023 -0.02587431 -0.29191604 -0.5462814
000050 55 1b fb 3e db d6 2d 3f 3d b4 6c be d1 91 b4 3e
       0.4904429 0.6790597 -0.2311563 0.352675
000060 9c 33 2c bf 00 45 15 bf 73 7b 14 3f fb 14 aa 3e
       -0.6726625 -0.5830841 0.5800087 0.33219132
000070 f6 bd 5a bf 31 ef d6 bc 80 34 31 3f 4b a8 76 be
       -0.8544611 -0.026237102 0.69220734 -0.24087636

weight f4 [32, 32]
000000 0e f5 2d 3d 39 83 72 3d 9b ce 02 be 1d ae 0c 3e
       0.04247003 0.059207175 -0.12774126 0.13738294
000010 93 67 cc bc ab 7c a0 bc 6c ed a9 3d b3 36 29 3d
       -0.024951732 -0.019590696 0.08297238 0.04131193
000020 96 30 be 3d a6 47 b2 bb cc 3a 20 3c cb 92 86 bd
       0.09286611 -0.00544067 0.009779643 -0.06570967
000030 1d e0 47 3d e2 8c f5 3c 9b 3b 43 bb 82 9d b2 bd
       0.048797715 0.029974405 -0.0029790166 -0.087214485
000040 f4 e3 14 be 96 a6 40 be 91 49 ff bd b4 2d 8e 3d
       -0.14540082 -0.18813547 -0.124652036 0.06942311
000050 5d 3c f0 3d e9 b2 f5 bd 0e 6a 10 3e ec 4e 43 3d
       0.117302634 -0.11997015 0.14102957 0.047682688
000060 9c cb d0 3c 14 d7 05 be cc c5 6a bd 46 ce b0 bc
       0.025487714 -0.13070327 -0.05731754 -0.021582734
000070 3a 03 fc 3d 61 ed 56 3d d3 38 4e bd 39 d1 fa 3d
       0.12305303 0.052472476 -0.05034716 0.12246937
000080 06 8f 35 be 90 f3 80 be 90 70 68 3d fa 9d 57 3e
       -0.1773034 -0.25185823 0.056747973 0.21056357
000090 59 4f a9 bd ae 17 a4 bd 70 d6 a9 bd 26 76 da 3d
       -0.082670875 -0.08012329 -0.08292854 0.10667066
0000a0 49 f3 07 bd 72 09 16 3e 24 24 00 3d 2b 34 94 bd
       -0.033191 0.1465204 0.031284466 -0.07236513
0000b0 9c 1c 73 be 50 2e b6 3d 13 75 8c be c4 11 45 be
       -0.23741382 0.08895552 -0.2743307 -0.19245058
0000c0 bd 58 ea bd 7d 12 ba 3d 29 45 4e 3c 01 4b 89 3c
       -0.11442707 0.090855576 0.012589731 0.016759397
0000d0 1e 21 4e bd 92 42 21 3b 90 a5 54 bd d7 ea d9 bc
       -0.05032455 0.002460633 -0.051915705 -0.026601238
0000e0 4f 98 07 3e 9e da 63 3c cc 7a 1c bc b2 03 c7 3d
       0.13241695 0.013907103 -0.009550761 0.09717502
0000f0 5d 59 b5 3d ec e8 02 3e 28 ab a2 3c 95 41 c4 bd
       0.08854935 0.12784165 0.019857004 -0.09582821
000100 55 d3 18 be 1b 45 ee 3d 33 9f 34 bd cb 93 4c bd
       -0.14924367 0.116342746 -0.044097137 -0.049945634
000110 55 92 c2 3d f4 46 a4 3c ec 42 4c 3e 40 b5 0f 3e
       0.09500567 0.020053364 0.19947404 0.14033985
000120 63 68 2b bd 6b ba b9 bd 8a 5c 29 bb 08 81 4a 3e
       -0.041847598 -0.090687595 -0.002584251 0.19775784
000130 f4 15 0d 3d 8e 8a 37 3e 83 d3 b9 bd a0 7b 37 be
       0.034444764 0.17923948 -0.09073546 -0.17918253
000140 96 62 4e be d0 37 00 be 77 3a 80 3d 8d e5 a2 3d
       -0.20154795 -0.12521291 0.06261151 0.079539396
000150 ad 4d 94 3d 98 6f 96 bd f9 12 1b 3e 16 bc 7a 3d
       0.07241378 -0.073455036 0.15143956 0.06121453
000160 43 db 53 bd 46 d4 b0 3d 24 b8 c8 3c 51 61 75 be
       -0.051722776 0.08634238 0.024501868 -0.23962905
000170 8e 80 97 bb a5 ec 30 bc 50 2b 28 3c f0 4e 82 bd
       -0.004623479 -0.010798608 0.010264233 -0.063627124
000180 a4 47 6c be 7d 81 1e bd 56 50 21 be 7a 27 97 bd
       -0.23074204 -0.03869771 -0.15753302 -0.073805764
000190 17 7e aa 3a 54 b3 b5 be 27 48 11 3e e7 dc 56 be
       0.0013007548 -0.3548838 0.1418768 -0.20982705
0001a0 c7 28 a6 bd 0f bf 03 3d d1 08 d7 be 5d ea 69 3c
       -0.081132464 0.03216463 -0.41998914 0.014277068
0001b0 8a 7f 75 3d 42 72 c5 3e f7 89 88 3e 33 47 99 3d
       0.059936084 0.38563734 0.2666776 0.07484283
0001c0 1e dd fc bd a2 69 d0 3c 94 6d 3d 3f b9 4f 88 bd
       -0.12346862 0.025440995 0.7399533 -0.06655831
0001d0 44 92 09 3f d2 da 11 be 9a b7 f5 3d 9f 2b 88 3d
       0.5373881 -0.1424363 0.1199791 0.06648945
0001e0 56 80 3d 3d 90 f2 4d 3e 1b 5d f4 bd 09 65 36 bf
       0.04626497 0.20112062 -0.11931821 -0.7124792
0001f0 33 95 03 bf 9f bc f6 3e 56 a9 ae bd 71 c3 07 bf
       -0.51399535 0.4819078 -0.08528392 -0.53032595
000200 ff 32 43 be 95 71 37 3c b9 c1 5c 3d 40 46 f6 bd
       -0.19062422 0.011196514 0.053895686 -0.12025118
000210 27 ab ac 3d c9 9d 13 3c b2 fd 0d 3e 09 4c 76 bd
       0.08431082 0.009009787 0.13866308 -0.060131107
000220 ab da b0 bc 9a ec b4 3d cf 92 b0 3d e3 ae 51 3d
       -0.021588644 0.08834191 0.086217515 0.051192176
000230 71 cf 7a be aa a0 06 3e 12 09 cc 3d 44 3d 0f 3d
       -0.24493195 0.13147226 0.099626675 0.034970537
000240 0f 7e 48 be 9c 5f b8 3d bf d6 bf 3d f4 8c 16 be
       -0.19579338 0.09002611 0.093671314 -0.14702207
000250 db cb 5a 3d a9 dc 13 be 77 21 5d 3e 6e bc c4 3c
       0.053417068 -0.14439644 0.21594797 0.024015632
000260 45 9f c9 3c 80 d8 44 3e 24 ef 47 be b4 af 30 3d
       0.024612078 0.19223213 -0.19524819 0.043136314
000270 22 a0 b8 bd 72 d5 0b be 00 4e 30 be b9 29 ac bd
       -0.09014918 -0.13655642 -0.17217255 -0.084063955
000280 eb 9b 3e bd c9 4e f5 3c 27 24 a8 3c bc 20 43 be
       -0.046535414 0.029944794 0.020525051 -0.19055456
000290 40 b6 72 3d 46 b5 c0 3d 19 1b db 3d 4d a6 3b 3d
       0.05925584 0.09409575 0.10698528 0.045812894
0002a0 6e 58 35 3e 78 19 33 be a6 81 6e 3d 74 4d fe 3c
       0.17709514 -0.17490184 0.05822911 0.031042792
0002b0 fd 48 19 bd 7f 6a 0b be f8 eb 36 3b e9 79 e0 bd
       -0.037423123 -0.13614844 0.0027911644 -0.109607525
0002c0 f7 ed 02 3e 66 96 c4 bd 95 d1 51 be d8 dd 36 be
       0.12786089 -0.09598999 -0.20490105 -0.17858064
0002d0 d8 df 44 3d 07 e3 cc bd c5 66 dc bb a9 a6 0b 3e
       0.048065037 -0.100042395 -0.0067261183 0.13637795
0002e0 73 4f 57 3d 1b ec 07 be b9 11 98 bd 82 3e de 3d
       0.052566003 -0.13273661 -0.07425255 0.10851766
0002f0 66 36 ee 3c b0 cf e5 bc 1f 4d 92 3d 6b 9c 20 3c
       0.029078674 -0.028053135 0.07143616 0.009802918
000300 c5 56 44 3e 06 0d ed bd 0c 43 8b bd 69 fa 66 3d
       0.19173725 -0.1157475 -0.067998976 0.056391153
000310 0e 96 13 3e 0e 42 72 bd 3b 55 c8 bd 14 0c 5c 3a
       0.1441271 -0.059145026 -0.097818814 0.0008394134
000320 bd 8c fd 3d f9 07 1c be 0e e3 18 3e 8c 8e c2 3d
       0.12380359 -0.15237416 0.14930364 0.09499845
000330 22 09 80 3e 35 54 c3 bd 66 e9 b6 be c6 4c 3c bd
       0.25006968 -0.095375456 -0.35724944 -0.045971654
000340 17 1e 25 be 59 26 35 3d 74 e3 6e be d1 67 49 bd
       -0.1612476 0.044226024 -0.23328954 -0.049171273
000350 f7 4a 77 3e 30 dd 73 3d bb da 89 be 32 6c b7 3d
       0.2414969 0.059537113 -0.2692469 0.089561835
000360 1e 83 31 3e 05 4a aa 3c b5 1e 1c be fa cc 32 3e
       0.17335173 0.020787248 -0.15246089 0.17461005
000370 47 18 9f 3c 02 4c ba 3d 4a dc 06 3d a9 78 3e bd
       0.019420756 0.090965286 0.032924928 -0.04650179
000380 17 77 82 3d 21 f0 46 bd 43 a7 40 be 14 94 20 bd
       0.06370371 -0.04856885 -0.18813805 -0.03920372
000390 24 49 e9 bc 88 33 1d be 70 4d e3 bc 54 f1 90 3d
       -0.028477259 -0.15351689 -0.027746886 0.0707728
0003a0 16 c4 c9 bd 91 30 75 bc 0e f9 66 be a3 bd e4 bd
       -0.098518535 -0.014965192 -0.22555944 -0.11168983
0003b0 26 78 84 bd fb 63 03 3e ff 05 b4 bd d6 9f 89 bd
       -0.06468229 0.12831108 -0.08790206 -0.067199394
0003c0 7c 0a 06 3e 38 ea d4 bd 16 4a 1b bd 7e 2a 37 3b
       0.13089937 -0.10396236 -0.03791245 0.0027948911
0003d0 08 8a 3a 3e d1 5f 99 3c 9c 50 08 3e a7 38 14 bd
       0.18216717 0.018722447 0.13312 -0.03618684
0003e0 07 16 be bd 16 35 44 bd ee d2 c3 3c 83 9a 8a 3c
       -0.09281545 -0.04790219 0.02390429 0.01691938
0003f0 1e ab cf bd 36 26 12 3e 56 a0 a8 bd 61 17 52 be
       -0.1014006 0.14272389 -0.08233707 -0.20516731

bias f4 [32]
000000 03 72 c9 bd ed 40 21 be 9d 14 9d 3c 5a f5 7e 3d
       -0.09836199 -0.15747423 0.019174868 0.062245704
000010 f3 e1 05 3e ff e5 c0 bd 1d a1 20 be 0c b9 fb bc
       0.13074474 -0.09418868 -0.1568646 -0.030727886
000020 4f 79 57 bd 66 27 0b 3e b8 b7 53 3d 7d 21 d0 bb
       -0.052605923 0.13589248 0.05168888 -0.0063516484
000030 85 3f 47 3e 3b 42 35 3e 88 de db bc 5f 80 35 3e
       0.19457825 0.17701046 -0.02683951 0.17724751
000040 7b c9 1a bd 12 2b 27 be a8 1b a2 bd 91 76 20 be
       -0.037789803 -0.16325024 -0.07915431 -0.1567023
000050 c3 21 fd 3d d3 f1 08 bd 5f d9 28 3d 21 d0 17 3c
       0.12359955 -0.033433747 0.041222926 0.00926593
000060 a8 88 1b 3e 48 75 81 3c 30 7d 34 be 8c 15 09 3e
       0.15188849 0.015802994 -0.1762588 0.13387126
000070 1d 0d 49 3e 02 4c 7b bd 29 26 58 3d e7 c2 01 be
       0.19633909 -0.061351784 0.052770767 -0.12672006

weight f4 [1, 32]
000000 11 6a c8 3a f9 ba 92 3e 99 d2 19 3e 38 9f ab 3e
       0.0015290399 0.28658274 0.15021743 0.33519912
000010 03 e4 37 3e da 28 61 be 38 a8 f5 bd f5 11 22 3e
       0.17958073 -0.2198824 -0.11994976 0.15827163
000020 29 20 42 bd 36 30 96 3e 48 22 56 bd 76 35 62 3e
       -0.04739395 0.29333657 -0.052278787 0.22090706
000030 4e a3 1a be d8 0e 49 be 10 75 77 be 75 5d 47 bd
       -0.15101358 -0.19634569 -0.2416575 -0.048673112
000040 98 ea 88 be fe dd 3f 3e 89 7e 18 be 1b 53 45 be
       -0.2674148 0.18737027 -0.1489202 -0.19269983
000050 ce 49 5e 3e 8d 92 84 be 46 87 03 be 24 15 06 3e
       0.21707842 -0.2589306 -0.12844571 0.13094002
000060 81 fa 48 be af 39 10 be 1c cc ec 3d 76 94 e3 3e
       -0.1962681 -0.14084505 0.11562368 0.44449204
000070 77 22 31 be 10 64 0d be e6 f2 07 3e e0 3a 70 3e
       -0.17298304 -0.13807702 0.13276252 0.23459959
