two_paths_potential/models/model_1_q.pt (torch, 23965 bytes, 6 tensors)

mass f4 [2]
000000 00 00 80 3f 00 00 80 3f
       1.0 1.0

weight f4 [32, 2]
000000 a4 90 4c bf c2 62 98 bf 04 97 23 bf 30 49 7b bf
       -0.79908204 -1.1905138 -0.63902307 -0.9815855
000010 d9 9f 1e bd d0 cc 0d bd e9 4d 36 3f be 66 52 3f
       -0.03872666 -0.034619153 0.7121263 0.8218802
000020 0e a3 56 bf 99 44 9e bf ac 9b 13 bf 9d b0 c8 3a
       -0.8384255 -1.2364684 -0.5765941 0.0015311424
000030 5a 67 fc 3e 09 ee 20 3f 25 9a 18 be f8 be 2d 3e
       0.492976 0.6286321 -0.14902551 0.1696738
000040 d5 65 12 bf d2 99 f9 3e d7 49 73 3e cc ce d2 bd
       -0.57186633 0.48750168 0.23758636 -0.102933496
000050 e9 4c 64 bf 98 eb d5 3f e4 ca 91 be 83 62 86 be
       -0.89179856 1.6712523 -0.28475106 -0.26247033
000060 69 94 ac bf 4e bf cb bf ba b9 30 3f 97 a1 28 bf
       -1.3482791 -1.5917757 0.69033396 -0.65871567
000070 52 3f e5 be 22 d3 2e bf 60 5a d7 be cc 60 07 bf
       -0.44774872 -0.68290913 -0.42061138 -0.52882075
000080 55 ec e8 be 73 80 05 bf 71 da 70 3e 1f ae 7c 3e
       -0.45492807 -0.5214912 0.23520829 0.24675797
000090 60 c9 4d 3f 02 45 97 bf 6e 50 a1 be 48 21 ba be
       0.803854 -1.1817935 -0.31506675 -0.36353517
0000a0 ee 24 2d 3f f9 b2 d1 be cb 8e 4a be bb 36 2f bf
       0.67634475 -0.40956858 -0.19781034 -0.6844289
0000b0 93 e5 90 3f 31 5d c7 3f 48 e9 6d be 63 57 51 bf
       1.132006 1.5575315 -0.23233521 -0.81773967
0000c0 ea 4f 59 3e 7e a0 08 3e 34 67 bf 3e f4 16 52 3d
       0.21221891 0.13342473 0.37383425 0.05129142
0000d0 ba 92 0e bf b6 1e e3 3d fb 7c 26 bb bb a5 5e 3f
       -0.55692637 0.11089842 -0.0025404084 0.86971635
0000e0 35 aa f5 be f0 b1 b6 3d 57 84 65 3e 3d ce d3 be
       -0.4798142 0.08920658 0.22413765 -0.41368285
0000f0 34 af 39 bf ee 8f c8 3f 7f 74 da be da f1 16 3e
       -0.72532964 1.5668924 -0.42667004 0.14740697

bias f4 [32]
000000 8b e7 24 bd 89 2f cf ba 5f 6c 58 3e 46 d0 dd 3e
       -0.04025988 -0.0015807013 0.2113509 0.43322963
000010 a1 c8 0c 3e 09 e4 ed be 04 10 b1 3d ed 63 23 3f
       0.13748409 -0.4646304 0.08645633 0.6382435
000020 c9 4a 9d be 93 91 22 bf 0f ad fc 3e c2 2f 31 bf
       -0.3072112 -0.6350338 0.49350783 -0.692135
000030 c6 09 86 bc c2 6d e5 3d fd 5d c4 be 33 ce 56 be
       -0.016362082 0.11202575 -0.38352957 -0.20977096
000040 8e 4b 76 3e f9 42 e6 bc 85 d0 8d be 1b a2 09 bf
       0.2405226 -0.028108107 -0.2769815 -0.5376298
000050 e9 e7 fb 3e d8 09 2e 3f a9 24 48 be 70 b1 b4 3e
       0.4920037 0.6798377 -0.19545235 0.35291624
000060 ab 0e 2c bf 29 e9 15 bf 73 d3 14 3f b4 a0 ab 3e
       -0.6720988 -0.585589 0.58135146 0.33521044
000070 63 5a 5d bf 65 54 e5 bc d5 5a 2a 3f 09 1e 75 be
       -0.86466044 -0.027994344 0.6654485 -0.23937239

weight f4 [32, 32]
000000 75 b6 2d 3d 86 60 72 3d 84 d7 02 be 10 a2 0c 3e
       0.042410333 0.059174083 -0.12777525 0.13733697
000010 92 d8 cc bc 83 61 a1 bc c7 ec a9 3d 4e 21 29 3d
       -0.025005613 -0.019699818 0.08297115 0.041291527
000020 74 0e be 3d ea 9d b1 bb 9c fe 21 3c 90 73 86 bd
       0.092801005 -0.005420436 0.009887364 -0.065650105
000030 77 5a 47 3d 16 8c f5 3c 45 61 3b bb f8 8f b2 bd
       0.04867026 0.029974025 -0.0028591913 -0.08718866
000040 b9 e5 14 be 4f a8 40 be 98 e1 ff bd 47 94 8e 3d
       -0.14540757 -0.18814205 -0.124942005 0.069618754
000050 af d4 f0 3d 91 b1 f5 bd 42 83 10 3e d7 49 43 3d
       0.11759316 -0.11996759 0.14112571 0.04767784
000060 08 ea d0 3c 8d d3 05 be 0d c7 6a bd 85 3d b0 bc
       0.02550222 -0.13068981 -0.057318736 -0.02151371
000070 5d 35 fa 3d 07 39 57 3d df d3 4d bd bc 95 fa 3d
       0.122172095 0.05254462 -0.050250884 0.12235591
000080 0c 3a 38 be fa ff 81 be 80 4d 5f 3d ba 95 58 3e
       -0.17990893 -0.25390607 0.05451727 0.21150866
000090 7b cc ad bd 3c ff a1 bd 18 40 a7 bd 49 13 d8 3d
       -0.08486267 -0.0791001 -0.08166522 0.10550553
0000a0 60 3e 09 bd 62 62 17 3e 45 c1 08 3d 80 6f 90 bd
       -0.03350675 0.14783624 0.03338744 -0.07052517
0000b0 5b 46 77 be eb bb b5 3d e0 57 8f be b7 84 46 be
       -0.24147932 0.08873733 -0.2799673 -0.19386564
0000c0 4c 5f ed bd 2b f0 bc 3d 3a 91 e9 3b 7e 12 b0 3c
       -0.11590442 0.09225496 0.007127908 0.021493193
0000d0 d4 b4 40 bd dc bf a8 3a fb ee 48 bd 8a e4 e4 bc
       -0.04704745 0.0012874561 -0.049056035 -0.027941007
0000e0 27 e2 08 3e a2 34 7a 3c 1e 52 2e bc dd 31 cb 3d
       0.1336752 0.015271338 -0.010639695 0.0992162
0000f0 35 ca c7 3d c5 d6 03 3e cf 46 af 3c 73 48 c5 bd
       0.09755365 0.12874897 0.021396069 -0.09632959
000100 42 ef 18 be 3a 71 ee 3d 79 5b 34 bd 51 5b 52 bd
       -0.1493502 0.1164269 -0.044032548 -0.051356617
000110 49 fa c1 3d 48 27 9e 3c 99 d2 4b 3e 7d a2 0f 3e
       0.09471566 0.01930584 0.19904555 0.14026828
000120 4d cf 2d bd a0 b9 b9 bd 9b 94 c5 ba 06 5b 4b 3e
       -0.042434026 -0.09068608 -0.0015074195 0.19858941
000130 a0 58 09 3d 93 65 37 3e e2 99 b0 bd cd 6e 36 be
       0.033531785 0.17909841 -0.08623101 -0.17815705
000140 d9 23 4e be 76 c4 00 be 52 ca 71 3d 45 91 a5 3d
       -0.20130862 -0.12574944 0.05903084 0.080843486
000150 61 03 9c 3d 78 1f 96 bd 03 da 1b 3e bf 63 7b 3d
       0.07617832 -0.07330221 0.15219884 0.061374422
000160 a6 fd 53 bd a8 9e b0 3d 07 9e ca 3c 64 a9 75 be
       -0.05175557 0.08624011 0.024733556 -0.23990399
000170 4d e3 25 bc 26 83 26 bc 2c 0f 38 3c 18 3c 84 bd
       -0.0101249935 -0.010163104 0.011234086 -0.064567745
000180 6c 78 7f be 4c 03 61 bd 5c 1f 37 be d2 cb 51 bd
       -0.24948281 -0.054934785 -0.17883056 -0.05121977
000190 ae 0c 67 bc 36 30 c1 be 2c 7d 1e 3e 16 c3 5e be
       -0.014102144 -0.37732095 0.15477437 -0.21754107
0001a0 5c e3 a9 bd 61 92 28 3d 30 9e db be e3 c1 96 3c
       -0.082953185 0.041155223 -0.42894125 0.018403
0001b0 8a 90 2a 3d 53 12 c8 3e c8 ff 49 3e 8f 5d 5b 3d
       0.04164175 0.3907648 0.19726479 0.05355602
0001c0 ac 81 0a be 81 25 34 3d e5 42 41 3f 87 08 af bd
       -0.13526028 0.04398108 0.754927 -0.08546548
0001d0 45 08 0b 3f a8 e8 1e be 48 6c 0c 3e 07 06 4e 3d
       0.54309493 -0.15518439 0.13713181 0.050298717
0001e0 02 15 61 3d 9d 24 57 3e 6d 25 02 be 32 9a 30 bf
       0.054951675 0.2101006 -0.1270959 -0.68985283
0001f0 86 53 ea be c5 86 f7 3e c1 41 c1 bd e4 9a 0c bf
       -0.45766848 0.48345008 -0.0943637 -0.54923844
000200 5d 43 44 be be b3 2f 3c 84 fa 5c 3d 9c e5 fa bd
       -0.19166322 0.010724006 0.053949848 -0.12250826
000210 06 2c aa 3d d2 b0 33 3c 2f 82 0d 3e 1f 39 77 bd
       0.08309178 0.01096745 0.13819192 -0.06035721
000220 9f ee ae bc b5 1f b5 3d 97 1b b7 3d bd 27 5b 3d
       -0.021354018 0.08843938 0.08940809 0.053504694
000230 80 a6 7d be 73 3e 05 3e 2a e2 d6 3d 47 a7 15 3d
       -0.24770546 0.13012104 0.10492356 0.03653648
000240 6b 64 48 be 4e 69 b6 3d 26 56 ae 3d 72 11 10 be
       -0.19569556 0.08906804 0.08512525 -0.14069155
000250 e7 b3 63 3d 84 fe 13 be 55 5a 5f 3e a4 c8 c2 3c
       0.05559149 -0.14452559 0.21811803 0.023777314
000260 19 bd ca 3c a0 d5 44 3e 5c 91 47 be 08 29 36 3d
       0.024748372 0.19222116 -0.19489044 0.044472724
000270 79 d2 b3 bd 95 0c 0c be 20 a1 2d be 38 e8 a9 bd
       -0.08780379 -0.13676675 -0.16955996 -0.08296245
000280 f2 6e 3f bd 67 55 f2 3c 7b ed 9f 3c 1f db 41 be
       -0.046736665 0.029581739 0.01952242 -0.18931244
000290 13 96 72 3d aa 5e c5 3d 4c 49 dc 3d ae cc 39 3d
       0.059225153 0.09637196 0.10756168 0.045361213
0002a0 c5 49 36 3e 9f 89 32 be d2 9f 6a 3d d8 c8 00 3d
       0.17801578 -0.17435311 0.057281323 0.03144154
0002b0 82 13 17 bd a0 53 0b be 03 58 84 ba 0e 79 e2 bd
       -0.03688384 -0.13606119 -0.001009703 -0.110582456
0002c0 9d 4c 02 3e ff 0d c3 bd 82 f1 4d be 26 88 33 be
       0.12724538 -0.09524154 -0.20111659 -0.17532405
0002d0 41 2f 2c 3d 92 38 ce bd 36 8b e9 bb 55 19 0b 3e
       0.042037252 -0.10069384 -0.007127191 0.13583882
0002e0 3d 74 59 3d f9 49 07 be 7b 86 99 bd a2 25 dc 3d
       0.05308937 -0.13211812 -0.07496353 0.107493654
0002f0 ec 7b 36 3d c8 fe e7 bc 94 57 90 3d e5 90 3e 3c
       0.044551775 -0.028319731 0.07047954 0.011631225
000300 77 7d 47 3e 05 d6 ea bd 41 fa 81 bd 14 05 8c 3d
       0.19481455 -0.11466602 -0.0634656 0.06836906
000310 53 29 18 3e 8e e4 61 bd 28 41 c4 bd 3d 8c 7f 3b
       0.14859514 -0.055149607 -0.0958274 0.00389935
000320 9e 61 03 3e cc dd 1e be 58 90 10 3e a3 f5 af 3d
       0.12830207 -0.15514296 0.14117563 0.08591773
000330 41 52 85 3e 7c c2 c0 bd 97 bf d2 be b7 58 5a bd
       0.26039317 -0.09412095 -0.41161796 -0.05330726
000340 6d 7c 24 be e1 be 3c 3d 4f b4 4b be a2 d1 87 bd
       -0.1606309 0.046080474 -0.19893001 -0.06631781
000350 89 e3 4b 3e 07 90 79 3d 0c 61 8e be a1 f0 b8 3d
       0.19911017 0.06092837 -0.27808416 0.09030271
000360 68 52 2f 3e 0a dc 9a 3c ee 72 1b be 5a 10 3d 3e
       0.17121279 0.01890375 -0.15180561 0.18463269
000370 d5 8f 03 3d b1 13 a9 3d 17 e9 d1 3c a7 f7 1b bd
       0.03211959 0.08255709 0.025623841 -0.038077977
000380 e6 69 81 3d a9 3a 48 bd 54 5a 40 be 68 80 1e bd
       0.06319027 -0.048884068 -0.18784457 -0.038696676
000390 fb 3e ec bc 87 da 22 be 2a 81 e1 bc 29 00 91 3d
       -0.028838625 -0.15903674 -0.02752741 0.07080109
0003a0 e9 f3 ce bd ee 64 75 bc 34 f8 66 be 64 45 e6 bd
       -0.10105116 -0.014977677 -0.2255562 -0.11243704
0003b0 7b 42 86 bd 23 1b 05 3e 2d 20 b8 bd 0f b2 8a bd
       -0.06555649 0.12998633 -0.08990512 -0.06772243
0003c0 c2 f1 05 3e 1e 41 d4 bd 1f a8 1c bd 88 c9 05 ba
       0.13080505 -0.103639826 -0.03824627 -0.0005103578
0003d0 56 80 4b 3e e4 81 9c 3c 3d ce 08 3e 21 0c 13 bd
       0.19873175 0.019104905 0.13359924 -0.03590024
0003e0 df 41 be bd 41 2a 44 bd f4 20 c4 3c 03 77 8c 3c
       -0.09289908 -0.04789186 0.023941495 0.017146593
0003f0 45 72 e5 bd e1 76 14 3e 21 34 a8 bd 34 e3 57 be
       -0.11203436 0.14498474 -0.08213068 -0.21082765

bias f4 [32]
000000 66 7b c9 bd 65 98 22 be 7a b9 9c 3c 1e 90 5b 3d
       -0.098379895 -0.15878446 0.01913141 0.053604238
000010 89 88 05 3e d9 07 c2 bd 1e a9 1d be 25 d4 f9 bc
       0.13040365 -0.09474153 -0.15396544 -0.030496666
000020 d1 e2 56 bd 60 3e 0a 3e f2 06 54 3d 6e 06 90 bb
       -0.052462403 0.13500357 0.051764436 -0.0043952977
000030 5c fd 47 3e c4 be 35 3e 6a 62 d1 bc e6 b7 35 3e
       0.19530243 0.17748553 -0.025559623 0.17745933
000040 f5 0a 15 bd be 41 25 be 62 87 a3 bd ae ca 0d be
       -0.036387403 -0.1613836 -0.079848066 -0.13846847
000050 2b 18 fd 3d 69 10 09 bd 99 a7 1f 3d 2d 91 11 3c
       0.12358125 -0.033462916 0.038978193 0.00888471
000060 6b 6c 1a 3e 34 83 87 3c 38 9c 37 be 69 d4 14 3e
       0.1508042 0.016542055 -0.17930686 0.14534153
000070 c0 76 4a 3e ba 42 7a bd a2 49 53 3d 71 b8 01 be
       0.19771862 -0.06109879 0.051583894 -0.12668015

weight f4 [1, 32]
000000 c6 1b d1 3a 64 14 94 3e 7b f3 19 3e 68 54 ac 3e
       0.0015953712 0.28921807 0.15034287 0.33658147
000010 ef 68 38 3e 2f 80 5f be b0 1a fb bd a6 25 23 3e
       0.18008779 -0.21826242 -0.122609496 0.1593233
000020 5b 9c 41 bd 88 4c 96 3e 2a 3c 59 bd 7d 83 63 3e
       -0.047268253 0.29355264 -0.053035893 0.22218128
000030 ee a6 1a be 86 1b 4b be 32 c3 79 be 59 e6 46 bd
       -0.15102741 -0.19834718 -0.24390867 -0.04855952
000040 b1 17 8a be e2 70 3f 3e 7a 57 18 be a0 e4 4d be
       -0.269712 0.18695405 -0.1487712 -0.20106745
000050 8b f0 5d 3e 70 72 84 be cc 71 03 be 96 8d 06 3e
       0.21673791 -0.2586856 -0.12836379 0.13139948
000060 95 75 48 be 76 6f 10 be 8d d3 f0 3d e8 2c e5 3e
       -0.19576104 -0.14105019 0.117591 0.44760823
000070 40 f3 31 be 4e 6e 0c be c0 db 07 3e dd f2 71 3e
       -0.17377949 -0.13713953 0.13267422 0.23627801
