two_paths_potential/models/model_0_q.pt (torch, 23181 bytes, 6 tensors)

mass f4 [2]
0	0x3f800000	1.0
1	0x3f800000	1.0

weight f4 [32, 2]
0	0xbf3175a4	-0.6932013
1	0xbf288c44	-0.6583903
2	0xbf15b5f3	-0.5848076
3	0xbf2a3455	-0.664861
4	0xbcd9f55f	-0.02660626
5	0xbd9fdb31	-0.07805479
6	0x3f32f6e8	0.69908
7	0x3f264201	0.64944464
8	0xbf2c7f43	-0.67381686
9	0xbf0a9868	-0.54138803
10	0xbf184d86	-0.5949329
11	0xbe851bfd	-0.25997916
12	0x3ef04533	0.46927795
13	0x3f0071c4	0.5017359
14	0xbe1316d9	-0.14364184
15	0x3e3d8e87	0.18511401
16	0xbf143ec6	-0.57908285
17	0x3e95a0a1	0.29224113
18	0x3e67a0ff	0.22620009
19	0xbd653339	-0.055957053
20	0xbf37b3f7	-0.7175898
21	0x3e4e78db	0.2016329
22	0xbe8dbeca	-0.27684623
23	0xbe92c7ee	-0.2866816
24	0xbf46c1f8	-0.7763972
25	0xbf26b781	-0.65123755
26	0x3f2cec5b	0.6754815
27	0xbee07039	-0.4383562
28	0xbecad6dd	-0.39617053
29	0xbf11e524	-0.56990266
30	0xbed009c9	-0.40632465
31	0xbed584ff	-0.4170303
32	0xbee2aa31	-0.4427047
33	0xbe95b43a	-0.29239064
34	0x3e68be20	0.22728777
35	0x3e3a6f5e	0.18206546
36	0x3f210d46	0.6291088
37	0xbf0d0b3f	-0.55095285
38	0xbe79ae4f	-0.243829
39	0xbd8f6c69	-0.070030995
40	0x3f29bcc7	0.66303676
41	0xbefb299b	-0.4905518
42	0xbe29f6de	-0.16598079
43	0xbeabdae4	-0.33565438
44	0x3f4b3fa5	0.7939399
45	0x3ef9a270	0.48756742
46	0xbe5948ce	-0.21219179
47	0xbf19af4d	-0.6003311
48	0x3e595e79	0.21227445
49	0x3dc155a8	0.09440166
50	0x3eb2da5a	0.34932214
51	0xbc0d96a5	-0.0086418735
52	0xbf0b138e	-0.54326713
53	0x3e3507aa	0.17678705
54	0x3c7bc960	0.015367836
55	0x3f396aaa	0.7242838
56	0xbf1c0fc2	-0.60961545
57	0xbe9e5916	-0.30927342
58	0x3e409299	0.18805923
59	0xbea2c87b	-0.3179358
60	0xbf379209	-0.71707207
61	0x3ea6ec46	0.32602137
62	0xbedb2451	-0.42801145
63	0x3dff7465	0.12473372

bias f4 [32]
0	0xbe1dfc41	-0.15428258
1	0xbd3939c5	-0.04522111
2	0x3e517a8b	0.20456903
3	0x3f03c552	0.5147296
4	0x3e86160f	0.26188704
5	0xbed070d4	-0.4071108
6	0x3dd42fba	0.103606656
7	0x3f238208	0.63870287
8	0xbe8e8c16	-0.27841252
9	0xbf24a188	-0.6430898
10	0x3e79fea7	0.24413548
11	0xbf2e27e0	-0.68029594
12	0x3df50704	0.11964229
13	0x3e1862ce	0.14881441
14	0xbeea8ba5	-0.45809665
15	0xbe75a4fc	-0.23988718
16	0x3e665ddd	0.22496744
17	0xbcd228d5	-0.025654236
18	0x3e080ea7	0.1328684
19	0xbef49c33	-0.4777542
20	0x3f020228	0.5078454
21	0x3f326d83	0.6969835
22	0xbeb68fcc	-0.35656583
23	0x3eaea034	0.341066
24	0xbf2adccd	-0.66743165
25	0xbf1794ea	-0.592116
26	0x3f1528a5	0.58265144
27	0x3e974fee	0.2955317
28	0xbecf7ab3	-0.405233
29	0xbbde5705	-0.006785276
30	0x3f170cb2	0.59003747
31	0xbe6a58ca	-0.22885433

weight f4 [32, 32]
0	0x3d36b27e	0.044603817
1	0x3d7a430f	0.06109911
2	0xbe0703db	-0.13185064
3	0x3e0d275f	0.1378455
4	0xbcbce0a1	-0.02305633
5	0xbc9c51ef	-0.019082038
6	0x3da9032d	0.08252559
7	0x3d299aca	0.041407384
8	0x3dc083d6	0.09400146
9	0xbbafee04	-0.00536895
10	0x3c3c5e08	0.011497028
11	0xbd868358	-0.065680206
12	0x3d5492d6	0.051897846
13	0x3cf0e3d0	0.029405504
14	0xbb1d9010	-0.0024042167
15	0xbdb28193	-0.087161206
16	0xbe14e6e7	-0.14541207
17	0xbe43b071	-0.19110276
18	0xbe045960	-0.12924719
19	0x3db471f7	0.088107996
20	0x3df3d71c	0.11906263
21	0xbdf5cbb6	-0.120017454
22	0x3e0e68a4	0.13907105
23	0x3d49c7d4	0.049262837
24	0x3cd29aee	0.025708642
25	0xbe066aac	-0.1312663
26	0xbd6b3210	-0.05742079
27	0xbcab74fc	-0.020929806
28	0x3e1bd546	0.15218076
29	0x3d57aa67	0.052652743
30	0xbd48f4d8	-0.049061626
31	0x3e00bfd6	0.1257318
32	0xbe07a2cf	-0.132457
33	0xbe58ed04	-0.21184164
34	0x3db2d6e4	0.087323934
35	0x3e3592f7	0.17731844
36	0xbd300192	-0.042970248
37	0xbda73a08	-0.081653655
38	0xbde49f8d	-0.111632444
39	0x3dec7efc	0.11547658
40	0xbd442c56	-0.047893845
41	0x3e09c520	0.13454103
42	0x3d1494e7	0.036274817
43	0xbda068e9	-0.0783251
44	0xbe3adc42	-0.18248084
45	0x3dc830f4	0.09774962
46	0xbdf52dea	-0.11971648
47	0xbe1af462	-0.15132287
48	0xbdb71db8	-0.08941215
49	0x3d6f3479	0.05839965
50	0x3c9d82eb	0.019227466
51	0x3c335f4b	0.010948013
52	0x3d584a8f	0.05280548
53	0x3cd35bdd	0.02580064
54	0xbdc0c8e2	-0.09413315
55	0x3c08ccc1	0.008349598
56	0x3df544c7	0.11976009
57	0xb9a1fa84	-0.00030894962
58	0x3b812aca	0.0039418684
59	0x3d59075e	0.05298554
60	0xbd746148	-0.059663087
61	0x3e160cf7	0.14653383
62	0x3ce217e5	0.027599284
63	0xbdd2ba89	-0.10289485
64	0xbe0d22db	-0.13782828
65	0x3e00999a	0.12558594
66	0xbd4b8cd7	-0.049694862
67	0xbd23ca55	-0.03998788
68	0x3de07c8a	0.10961254
69	0x3c85ef05	0.016349325
70	0x3e4aeaff	0.19816206
71	0x3e108a14	0.14115173
72	0xbd19553d	-0.037434805
73	0xbdb93ace	-0.09044419
74	0x3c8082f7	0.015687449
75	0x3e41dd4d	0.18932076
76	0x3d691a6c	0.056909963
77	0x3e2f2587	0.1710416
78	0xbe03aea3	-0.12859587
79	0xbe3c3987	-0.1838132
80	0xbe4bee37	-0.1991509
81	0xbdfc68ea	-0.12324698
82	0x3cd9ceb1	0.026587816
83	0x3d6f061a	0.05835543
84	0x3d87ca08	0.06630331
85	0xbd905459	-0.07047338
86	0x3e07e100	0.13269424
87	0x3d8c03d5	0.068366684
88	0xbd4febcb	-0.05076198
89	0x3db151e2	0.08658196
90	0x3cd26479	0.025682675
91	0xbe3b2af0	-0.18278098
92	0xbd5d24b6	-0.05399009
93	0xbcda5cae	-0.026655521
94	0x3cd52bd3	0.026021874
95	0xbd6bbc66	-0.057552718
96	0xbe56baa3	-0.20969634
97	0xbc984fe5	-0.018592784
98	0xbdf03716	-0.11729257
99	0xbd59ce5a	-0.053175308
100	0x3d2c4207	0.042055156
101	0xbe26397c	-0.16232866
102	0x3e0c8e4b	0.13726155
103	0xbe1c3fce	-0.15258715
104	0x3da4dc93	0.08049884
105	0xbc9f56a0	-0.019450486
106	0xbe6499d9	-0.22324313
107	0xbd84e3fe	-0.064887986
108	0x3dead6e8	0.11466771
109	0x3e36f1b6	0.17865643
110	0x3c0073b7	0.007840089
111	0x3d810f8d	0.06301794
112	0xbdc5d701	-0.09660149
113	0x3a89874f	0.0010492596
114	0x3e46734a	0.19379917
115	0xbe23bdff	-0.15990447
116	0x3bbb87d6	0.00572298
117	0xbde6e2c8	-0.11273724
118	0x3d82b577	0.06382268
119	0x3db9ef20	0.090788126
120	0x3c599663	0.013280484
121	0x3e20a536	0.15688023
122	0xbd832ea8	-0.06405383
123	0xbe077f4e	-0.13232157
124	0xbe390acb	-0.18070523
125	0x3e46e2e7	0.19422494
126	0x3d9956cc	0.07487258
127	0xbe740bbc	-0.23832601
128	0xbe2b6aaa	-0.16739908
129	0x3cfa02f2	0.030518983
130	0x3d440b2b	0.047862213
131	0xbde2f603	-0.11082079
132	0x3de20bc5	0.11037401
133	0xbcf98312	-0.030458007
134	0x3e07ae70	0.13250136
135	0xbd82c1dd	-0.06384633
136	0xbd2a85cc	-0.041631505
137	0x3dbddd98	0.09270781
138	0x3db76793	0.08955302
139	0x3d2bb362	0.04191912
140	0xbe5225dc	-0.20522255
141	0x3e184edb	0.14873831
142	0x3db07420	0.08615899
143	0x3d0ffdf7	0.03515431
144	0xbe437190	-0.1908629
145	0x3dbb8d21	0.091577776
146	0x3dd86249	0.105656214
147	0xbe30783d	-0.17233367
148	0x3e001475	0.12507804
149	0xbe0bd020	-0.13653612
150	0x3e3c1c68	0.18370211
151	0x3d2d105a	0.042251922
152	0x3cde41d5	0.027131
153	0x3e483f8f	0.19555496
154	0xbe4b47e0	-0.19851637
155	0x3d40b090	0.047043383
156	0xbe86965a	-0.26286584
157	0xbdef1c15	-0.11675278
158	0xbe2bebf7	-0.16789232
159	0xbdf4c7c0	-0.11952162
160	0xbd51856e	-0.05115264
161	0x3cdde501	0.027086737
162	0x3d07ca5f	0.03315198
163	0xbe5ac952	-0.2136586
164	0x3d48862f	0.048956092
165	0x3dd06e15	0.101772465
166	0x3dd10ebf	0.10207891
167	0x3d3b7341	0.04576421
168	0x3e2bee8f	0.16790222
169	0xbe35613e	-0.17712876
170	0x3d0b5516	0.03401669
171	0x3d34afbb	0.044112902
172	0xbd62156a	-0.055196203
173	0xbdfa6d34	-0.1222786
174	0x3db9feb6	0.090817854
175	0xbdbf271a	-0.0933363
176	0x3e054301	0.13013841
177	0xbdda4328	-0.1065734
178	0xbe1ab047	-0.15106307
179	0xbe171a7f	-0.14756201
180	0x3d9b047d	0.075692154
181	0xbdcb9dd2	-0.09942211
182	0x3c11a6d4	0.008889873
183	0x3e09db11	0.13462473
184	0x3d49b8ad	0.049248386
185	0xbe0ac557	-0.13551842
186	0xbd965a16	-0.07341401
187	0x3c792b9b	0.01520815
188	0x3d7a6349	0.061129842
189	0xba820a4f	-0.0009921285
190	0x3d531bfc	0.05154036
191	0x3a4fa210	0.00079205725
192	0x3dec7add	0.11546872
193	0xbe2fd2b3	-0.17170219
194	0xbc6864d5	-0.0141841965
195	0xbb6325d4	-0.0034659998
196	0x3d77ffba	0.060546614
197	0x3d96f11c	0.07370207
198	0xbdbf4daa	-0.09340985
199	0x3c32e45b	0.010918702
200	0x3e1f6bc4	0.15568453
201	0xbe2d648b	-0.16932885
202	0x3d756e83	0.059919845
203	0x3dedf8a0	0.11619687
204	0x3deffb2d	0.1171783
205	0xbdcf49e8	-0.101215184
206	0xbd93c7d8	-0.072158515
207	0xbc765433	-0.015034723
208	0xbe2d7a9f	-0.16941307
209	0x3c87aafb	0.016561022
210	0xbd621c7d	-0.05520295
211	0xbc77280a	-0.01508523
212	0xbc93845b	-0.018007448
213	0x3d4f2584	0.050572887
214	0xbe2ac229	-0.16675629
215	0x3d676aa6	0.056498192
216	0x3e1f9d28	0.15587294
217	0x3c01627d	0.007897017
218	0xbe1bfca5	-0.15233095
219	0xbd7d88b6	-0.061897956
220	0x3dd60b9d	0.10451434
221	0x3e14eeda	0.1454424
222	0xbd409f1e	-0.047026746
223	0x3c845fba	0.016158927
224	0x3d957238	0.07297176
225	0xbd27752a	-0.04088322
226	0xbe434656	-0.190698
227	0xbce45319	-0.027871655
228	0xbc731274	-0.014835943
229	0xbe1e31d1	-0.15448691
230	0xbce78944	-0.028263696
231	0x3d94afb9	0.07260079
232	0xbdc1ee6e	-0.09469305
233	0xbc7ca25c	-0.015419569
234	0xbe50f9c4	-0.20407778
235	0xbdf826c1	-0.12116767
236	0xbd3b77be	-0.045768492
237	0x3df2e7ff	0.11860656
238	0xbe27f47a	-0.16401854
239	0xbd95f651	-0.07322372
240	0x3e083f4f	0.133054
241	0xbdd147ec	-0.10218796
242	0xbdae7a02	-0.08519365
243	0xbc5ca8e1	-0.013467998
244	0x3e399464	0.18123013
245	0x3cc5dbc6	0.024152648
246	0x3de9d384	0.114172965
247	0xbcdb1214	-0.026742019
248	0xbdbe43b0	-0.09290254
249	0xbd43b55e	-0.047780387
250	0x3cc7cb7e	0.024389025
251	0x3d8c50a0	0.068513155
252	0xbe05161f	-0.1299672
253	0x3e05ceab	0.13067119
254	0xbd835862	-0.06413342
255	0xbe4d53e0	-0.20051527

bias f4 [32]
0	0xbdcaee53	-0.09908738
1	0xbe16a44d	-0.14711113
2	0x3c8e5dc7	0.0173787
3	0x3dc73a7e	0.097279534
4	0x3e022330	0.12708735
5	0xbdb9b68e	-0.09068023
6	0xbe080d83	-0.13286404
7	0xbcfad643	-0.030619746
8	0xbd57a970	-0.052651823
9	0x3e0d22cf	0.1378281
10	0x3d5922f4	0.05301185
11	0xbc88534c	-0.016641282
12	0x3e48e46f	0.1961839
13	0x3e3a35ab	0.18184535
14	0xbd047a54	-0.032343224
15	0x3e34bb46	0.17649564
16	0xbd4b08fe	-0.049569122
17	0xbe384d26	-0.1799818
18	0xbd5ab7cc	-0.05339794
19	0xbd13ce25	-0.036085267
20	0x3dff3e4b	0.12463053
21	0xbd0a5118	-0.033768743
22	0x3d7e27e5	0.062049765
23	0x3c40d24b	0.011768888
24	0x3e220d56	0.158254
25	0x3c05fb9d	0.008177665
26	0xbe278825	-0.16360529
27	0xbd64d574	-0.055867627
28	0x3e4a5ef4	0.19762784
29	0xbd87d448	-0.06632286
30	0x3d437791	0.04772145
31	0xbe0a24b9	-0.13490571

weight f4 [1, 32]
0	0xb9b18dde	-0.0003386577
1	0x3e68973f	0.22713946
2	0x3e0cbc16	0.13743624
3	0x3dc21186	0.094759986
4	0x3e24cc44	0.16093546
5	0xbe4514b7	-0.19246183
6	0xbc8da572	-0.017290805
7	0x3e0c8636	0.13723072
8	0xbd5fdde3	-0.054654967
9	0x3e693550	0.22774243
10	0xbd3d994b	-0.04628877
11	0x3e23ae9c	0.15984577
12	0xbe0e4104	-0.13891989
13	0xbe29d6d0	-0.1658585
14	0xbe37cb6b	-0.17948692
15	0xbd3e51a0	-0.046464562
16	0xbe595257	-0.21222816
17	0x3e2f0904	0.17093283
18	0xbdb632af	-0.08896386
19	0xbdcf1258	-0.10110921
20	0x3e3be8d8	0.18350542
21	0xbe684d19	-0.2268566
22	0xbda5d56d	-0.08097348
23	0x3e053342	0.13007835
24	0xbe3d6381	-0.18494989
25	0xbe0c0bce	-0.13676378
26	0x3da2324a	0.07919748
27	0x3e2103b5	0.1572407
28	0xbe16e3c5	-0.14735325
29	0xbdf1862a	-0.11793168
30	0x3dbd7d56	0.092524216
31	0x3e44e5bf	0.19228266
